pretrained_model/A11_MulT_tai_Crossmodal_TIA_pretrained_model.pth (torch, 654246 bytes, 82 tensors)

Model.proj_l.weight f4 [40, 768, 1]
00000000: 5537 3fbd 7b7b 5abd 2954 eb3c 2053 6dbc
00000010: a300 8bbd 10a8 f2bd 2aa9 033d 28e8 dd3b
00000020: ffb6 8bbd 3332 373d 279a 8e3d eb57 84bc
00000030: b7c9 7fbd c4b6 8b3c cef6 fe3c 7092 9439
00000040: 3925 21bc 022a 8ebd 6a8f ab3c 022a 523d
00000050: 1869 903b 2860 1e3d bcf1 ac3d 16ac c4bd
00000060: 10ec 883c 90ce bcbc c585 a1bc 7415 a63c
00000070: c7d2 0d3c bfbf 21bd 5207 07bb 6675 2ebc
00000080: 3c04 6c3d 224c 183d a5db 17bd 5534 3a3d
00000090: e3a5 f8bc 5b22 26bd c13f 1dbd acd6 d0bb
000000a0: 9ea3 3ebd e37f 2f3d ec7d 2c3c f3d4 28bd
000000b0: 9c5e 53bd 6a73 553c 3261 02bd ff74 04bc
000000c0: 1289 ab3a cf1e 343d 52af 9c3d f9fb 88bc
000000d0: 1efb 02bd c9ab 083d 9766 063c fe6b 5e3b
000000e0: ca21 c93c 5898 3b3d 3214 083d b186 813b
000000f0: 0b3b 02bc d99f 41bd b751 9cbd dead b73d
00000100: 949b 883d af35 beba 87fb 0e3c c2c2 30bd
00000110: a5ff 863d 357c 993c ee85 5f3d 8e93 8cbd
00000120: d8cd ed3c 076d afbb d09b 05bd 8002 25bd
00000130: 22e6 a43d 6006 1dbd cabc 923c bab4 93bc
00000140: 22c6 c93c 0a00 a53c 3121 203d c977 92bc
00000150: 1225 8bbc 6387 88bc c8f7 03bd fbd2 283d
00000160: 4324 e9bc ba4d f03c 746e f23c a12a 8dbd
00000170: bd62 213d acd3 8a3c 0c2b 023d eb1e 1a3d
00000180: dd0e 19bd 2e2d ccbc 73b0 cbbb 9b7e 263d
00000190: 32ad 0bbd 6088 a3bd 0aa4 1fbd fb7e 9fbc
000001a0: ca5c 883c 1d14 72bd 0540 543d 607d 883c
000001b0: 6f27 583b aaf4 9abb c3b6 4bbd 1ce2 993c
000001c0: 240d 953c 721b 2fbc 08bb 983c ab0e 1f3c
000001d0: 67b3 8b3b 25ac e5b8 61a0 333c cabc 9e3c
000001e0: 12d0 9b3b 8657 f5bc 7b70 433d c6f3 ad3c
000001f0: 8fa1 6b3d f4c8 f13c 07ab 67bd cd00 21bc
00000200: 364e b83c 442a 623d 3582 8fbd 41e9 83bc
00000210: 7124 833c 7ee7 54bc d81b 30bd 4976 a93c
00000220: 5f8b 27bd 81ca 0cbd 4264 88bc 1677 1dbd
00000230: 24fd f03d 0672 0abd 10e7 c83d 5e73 313a
00000240: 3ce8 76bb 22ba 5abd 11bc ec3c 4972 2dbd
00000250: 3374 56bd e44a 5ebc 87b8 0c3d 72f8 c8bc
00000260: 2d3a 913d 71ae 873d 0897 8ebd a3e6 dc3b
00000270: 44f5 1bbc 61cb 9c3d 1b31 ccbb 9378 15bd
00000280: 0388 853c 6ea1 ba3b 528c a33c f1de b13c
00000290: 7012 3d3c d7d6 f13a 20b3 ad3d 9086 443d
000002a0: 4701 2cbc f646 6b3c 554a b7bb 199e 31bd
000002b0: 87ac 3ebd 9dba 14bd aa06 8cbd d650 75bc
000002c0: 492c c7bc fe54 17bc 762d 593c 6b5d 913c
000002d0: 0df5 fb3c d27d 67bd 5611 03bd 8d53 c4bc
000002e0: 5a3a 72bc d48e 08bd f5b6 5abc 81e2 b5bb
000002f0: 7855 d53b 93d2 5dbc c347 0abd f3ef c33c
00000300: 2c7b 0fbd 54af 023d 5969 45bc 53e6 e237
00000310: c346 1c3c c559 b1bb 9bac b43c f007 e0bd
00000320: e341 9dbc a63b 3bbc 45a5 89bd e69b 81bd
00000330: 9e0c 2dbd aab4 ccbc 90df f2bd 8d51 64bc
00000340: ab9c 2bbd af83 433c 55cd 333c 2834 66bd
00000350: 00c0 703d a3b6 d53c c3bc 053d 07e3 6abc
00000360: adfa 5fbd 2af6 a3bd cd62 b8bb 015f 98bc
00000370: b558 ca3d e36a 983c b928 f53c bfaf 74bc
00000380: 8413 bbbc 0b95 613d e7ca ab3c 7888 6e3d
00000390: eaa4 6bba 5ec0 f43c f787 03bd 3e09 bc3c
000003a0: 82db f53c 0d60 7abd 5a7c c6bb 2513 033e
000003b0: cb96 9bbc 5417 babc 0cfb 29bc c3a4 893c
000003c0: af42 26bc 1592 053d 2701 3ebd 50c7 d83c
000003d0: cee0 97bc 7089 863d 3956 873b 01f3 933c
000003e0: 335f 323d 3b11 63bd d13b e83c 184e 8ebc
000003f0: 0bf3 973b 72d8 283d e467 f2bd 4aed 34be
-0.046683628 -0.053340416 0.028726654 -0.014485151 -0.06787231 -0.11848462 0.03214375 0.00677206
-0.06822013 0.044725608 0.06962996 -0.016155204 -0.06244823 0.017054923 0.031123545 0.00028337864
-0.009835535 -0.06941606 0.020942409 0.051309593 0.0044070594 0.03866592 0.08444545 -0.09603135
0.016714126 -0.023047715 -0.019717107 0.020273902 0.00865621 -0.039489504 -0.0020603728 -0.010648107
0.057621226 0.03718198 -0.037074704 0.045460064 -0.030352538 -0.040560108 -0.03839088 -0.006373247
-0.046542756 0.04284657 0.010528069 -0.04121871 -0.0516039 0.013028005 -0.031830974 -0.008084535
0.0013087115 0.043974694 0.07650627 -0.016721712 -0.031977765 0.033366952 0.00820317 0.003393888
0.024552245 0.045799583 0.033222385 0.003952824 -0.007948647 -0.047271583 -0.07632773 0.089687094
0.06670299 -0.0014511849 0.008726961 -0.043154486 0.06591729 0.018735984 0.054571085 -0.06864081
0.029028818 -0.0053535732 -0.032619298 -0.040285587 0.08051707 -0.038336158 0.017912287 -0.018030513
0.02463061 0.02014162 0.039094154 -0.017879384 -0.01698545 -0.01666612 -0.032218724 0.04121683
-0.028459674 0.029333938 0.029593684 -0.068928964 0.039400805 0.016946636 0.031779334 0.037627142
-0.03736769 -0.024923887 -0.0062161027 0.040648084 -0.03410072 -0.07984996 -0.0389748 -0.019469729
0.016645808 -0.059101213 0.051818866 0.016661346 0.0032982489 -0.0047288733 -0.049734842 0.018784575
0.018194743 -0.010687696 0.018643871 0.009708087 0.00426333 -0.00010951635 0.01096353 0.019377131
0.0047550285 -0.029948961 0.04771469 0.021234404 0.05752712 0.029514767 -0.05655959 -0.009826851
0.022498231 0.05521609 -0.07007257 -0.016102435 0.016008588 -0.012994645 -0.042995304 0.020686286
-0.0409044 -0.03437281 -0.01664937 -0.038443647 0.11767033 -0.033800147 0.09809697 0.0006769205
-0.0037675044 -0.053400166 0.02889827 -0.04234532 -0.05235691 -0.01356766 0.034355666 -0.02453253
0.07091174 0.06625069 -0.06962401 0.006741361 -0.009518925 0.07655979 -0.0062314398 -0.03649194
0.016300207 0.0056955134 0.01996437 0.021712752 0.01154004 0.0018450868 0.08481431 0.04797989
-0.010498351 0.01436018 -0.005593578 -0.043363664 -0.046551254 -0.03631078 -0.068372086 -0.014972886
-0.024313109 -0.009236572 0.013255468 0.01774474 0.030756498 -0.056516476 -0.031998955 -0.023965621
-0.01478442 -0.033339337 -0.013349284 -0.005550683 0.006510433 -0.013538974 -0.033759844 0.023918128
-0.035029575 0.031905487 -0.012049043 2.7048553e-05 0.009538355 -0.0054123127 0.022054961 -0.10939014
-0.019196456 -0.0114277955 -0.06720976 -0.063285634 -0.04224836 -0.024988491 -0.118590474 -0.013935459
-0.041897457 0.011933251 0.010974248 -0.056202084 0.058776855 0.026088065 0.03265072 -0.014336354
-0.054682422 -0.080059364 -0.0056270123 -0.018599989 0.09880201 0.018605655 0.029926645 -0.014934479
-0.022836454 0.05507378 0.020970775 0.058235615 -0.00089891127 0.029876884 -0.032112088 0.022953626
0.030011896 -0.061126757 -0.0060573043 0.12800272 -0.018992802 -0.022716202 -0.010374796 0.016802197
-0.010147735 0.032610018 -0.046387818 0.026462227 -0.018539812 0.06569183 0.0041301516 0.01806021
0.04354782 -0.055436354 0.028348835 -0.017371222 0.0046371273 0.041222043 -0.11836222 -0.17668644

Model.proj_a.weight f4 [40, 74, 1]
00000000: 1c1e 81bd 840c 6ebc 298c ab3d 217d 29bd
00000010: 1e93 073c f42c 7f3d 1741 c93d 96c8 823c
00000020: f579 9a3d 5097 e3bc 82f0 01be f211 a9bb
00000030: 0835 cdbc 9b2e bb3d d346 87be 5bb5 e0bd
00000040: d31b 983e 6665 dcbe e879 693e 0012 5cbd
00000050: 5aa2 1abd c7b4 c83d 00f0 4dbe 7be0 423e
00000060: 12c6 8fbc 7335 0dbd db9c f03d abb7 2a3e
00000070: 4ffe cabe 1c17 633e c512 b9be 02ff 263e
00000080: f27d 203e d603 38be fd33 7d3d 345c 4e3d
00000090: f8d6 063e e269 28bd 00e0 47be a8c3 473d
000000a0: a447 f13b e458 84bd d3f7 1ebe 5b74 fcbd
000000b0: c605 523e 2a22 cb3d 9b38 943d e390 aa3d
000000c0: 0d35 253e 3291 123e 039b 863e 0538 703e
000000d0: e5c8 333e 163b 313d b7f9 8a3d 5dc2 a5bd
000000e0: d6e5 02be e99e 993d 49c9 0ebe b5a0 af3d
000000f0: a04f d6bc 5546 d5bc 5f33 57bd f0f2 5cbc
00000100: 0f15 6ebb 5227 043c b63d 693d d8f3 803d
00000110: 2e06 86bd e466 973d 834b c73c e999 06bc
00000120: 2c37 943b 386f 163c 960a 67bd 36c5 28bc
00000130: 2ac5 dcbd bc5e 1bbe 0668 4e3d 8fc2 f43b
00000140: e4a1 efbd c812 b1bd d586 903d b5e3 bf3d
00000150: 4251 093d a406 90bd c41f 713b 013c a83d
00000160: cc8d 163e d12c 773a b442 28bd b99a b53d
00000170: 4d80 d5bd 0684 ad3d 1059 3bbd 4691 9ebd
00000180: b4b7 153d 26c8 013d 909d 78bd 1069 c23d
00000190: 179c 533c 8026 44bd caed 4f3e 6f45 7cbe
000001a0: fd5a 963e f785 4ebd bf6c dcbc 3f20 0a3e
000001b0: 9a84 51bd fa3d d8bd f579 7abd bdda f2bd
000001c0: f2cb e2bc b97f e43b 99ed 06bd c5d3 87bc
000001d0: 0b38 30be 2549 3cbd 3f49 923d c145 02be
000001e0: ce8f 18be 87e6 3a3d 9314 d13c cdca ee3d
000001f0: 1666 c8bd d853 21be 96af 28be c6a1 d0bd
00000200: 8376 83bc e60f c43b a20c 32bd 03ca 15ba
00000210: 275d adbd e82d 2a3d 1d9d 5abe d7b4 843d
00000220: 8ef4 81bd 09c8 6f3d 2266 e83c d130 b13d
00000230: 5a7b fb3d 6d6b 95bd 1e78 03bd 183f b9bc
00000240: 63a2 d4bd 2de1 1dbe c3a7 37be 2691 8cbd
00000250: 03d3 a13d 2fb4 1ebd 5975 a23d bb5c 45bd
00000260: b7c0 ce3d 3301 88ba 622a 0b3d 531e e7bd
00000270: 56c7 fc3d 1e52 0a3e b3d5 a83d cde7 023d
00000280: 5207 b83d 25b8 ea3d b95b 2ebe d140 4dbe
00000290: a5a3 fd3d 2814 6ebe 2e07 fb3d 250b fcbd
000002a0: fd67 9e3d 7ab2 323d a022 03be 60a8 5a3e
000002b0: 37df 9bbd a354 06be 2eab b73d 6983 79bd
000002c0: 7720 80bd fce0 623e 2ebf 00be a872 013d
000002d0: 7da6 643e a0bf 9fbe 3e08 6d3e adda 38bd
000002e0: 0e65 98bc 8fe4 cdbd e3de 6a3c 89a2 7abb
000002f0: 997d 243d 49ff 40be 3c42 d8bd ca96 a23d
00000300: c579 2abd 523f 083e 3cb3 bb3d 9192 4d3d
00000310: db2e a03d 172b eb3c e4c0 683e 519e 383e
00000320: 72e3 e03d a672 91b8 1447 2c3e e42c 393e
00000330: 5a19 96bc a472 ee3d c404 9a3b bb32 35bc
00000340: dcc3 643e 8956 6a3d 3e39 7abd 9901 bbbd
00000350: b9b6 ef3a 7b2d 96bd d785 353d ce1c 2e3d
00000360: 565d 26be 7168 c4bc 8bd2 a63d 1e2d 3fbd
00000370: 7065 403c e483 3c3e 4a1a 833c dd61 e63c
00000380: b705 6e3d ec72 29bd f5c0 1dbe e94d 9e3c
00000390: ea08 edbd 5950 0ebd c39d 583d b0a8 7e3d
000003a0: f07c 38bd 4479 763c 8a44 8cbd 16c4 91bd
000003b0: 3355 2b3e 546a 053e 8a31 2cbe 2d13 983e
000003c0: 30ee b7be 7d8a 293e 5c8b 49bd ea78 c7bc
000003d0: 3976 5a3e 9f9c 9abe 9dfd 583d c990 0a3d
000003e0: 806c 27be 77e3 3e3d 15a4 763e 2cd8 84be
000003f0: f8ba dd3e 7a23 1abd 6816 0cbe 357f a63e
-0.06304571 -0.014529351 0.08376343 -0.041379098 0.008274822 0.06229873 0.09826868 0.015964787
0.07542793 -0.027782112 -0.12689403 -0.00515961 -0.025049701 0.09139749 -0.26421222 -0.10972091
0.29708728 -0.4304611 0.2280041 -0.053728104 -0.037752487 0.098001055 -0.20111084 0.19030945
-0.017550502 -0.0344748 0.11748668 0.16671626 -0.39647147 0.22176784 -0.36147133 0.16308215
0.15673044 -0.17970213 0.061817158 0.0503809 0.13167942 -0.041116603 -0.19519043 0.048770577
0.0073632766 -0.06462267 -0.15524225 -0.123268805 0.20510015 0.09918626 0.07237359 0.08328416
0.16133519 0.143132 0.2629014 0.2345887 0.17557104 0.04326924 0.067859106 -0.080937125
-0.12782988 0.07501013 -0.13943972 0.08575574 -0.026161015 -0.026034513 -0.052539226 -0.013485655
-0.003632847 0.008066015 0.056943618 0.062965095 -0.065441474 0.07392672 0.024327999 -0.008215406
0.0045231786 0.00918179 -0.05640658 -0.010300925 -0.107797936 -0.15172857 0.050392173 0.0074694823
-0.117008 -0.0864616 0.07056967 0.093696035 0.03352476 -0.070325166 0.0036792615 0.0821457
0.14702529 0.00094289804 -0.041079238 0.08867402 -0.10424862 0.08472447 -0.045739233 -0.077425525
0.036552146 0.031685017 -0.06069714 0.09492695 0.012915633 -0.04788828 0.20305553 -0.24635862
0.29366294 -0.050420728 -0.026907323 0.13488863 -0.05115185 -0.10558696 -0.061151464 -0.11858127
-0.02768514 0.0069732335 -0.032941435 -0.016580472 -0.17208879 -0.045968194 0.07142877 -0.12721922
-0.14898607 0.045630004 0.025522506 0.11659775 -0.09785096 -0.1575464 -0.1647323 -0.10187106
-0.016047722 0.0059833406 -0.04346908 -0.0005714001 -0.08465033 0.041547686 -0.21348996 0.06479805
-0.06345473 0.058540378 0.028369013 0.08651889 0.12279387 -0.072958805 -0.032096975 -0.022613093
-0.10382535 -0.15417929 -0.1793509 -0.06863622 0.079015754 -0.038746055 0.079325385 -0.048184138
0.10095351 -0.0010376334 0.033975966 -0.11285081 0.12342708 0.13507888 0.08243885 0.031959344
0.08985771 0.11460904 -0.17027177 -0.20044257 0.12384728 -0.23249876 0.12257229 -0.12306813
0.07734678 0.04362724 -0.12806177 0.21353292 -0.07610934 -0.13118224 0.08968197 -0.060916338
-0.06256192 0.22156137 -0.1257293 0.031603485 0.22329135 -0.31200886 0.23147675 -0.04513042
-0.018602874 -0.1005336 0.014335367 -0.003824385 0.04015884 -0.18847384 -0.10559508 0.07938917
-0.041620035 0.13305405 0.091650456 0.050188605 0.07821437 0.02870707 0.22729832 0.18029143
0.10980882 -6.935494e-05 0.16823989 0.1808353 -0.018322635 0.1164296 0.004700275 -0.011059458
0.2234034 0.057211433 -0.061089747 -0.09131164 0.0018288709 -0.073328935 0.044317093 0.04250794
-0.16246542 -0.023975583 0.08145627 -0.046673886 0.011742935 0.18409687 0.016003747 0.028122837
0.05811092 -0.041369364 -0.15405639 0.01932426 -0.11573966 -0.034744594 0.05288483 0.06217259
-0.045041025 0.01504356 -0.0684901 -0.071174785 0.1673172 0.13028842 -0.16815773 0.2970213
-0.3592391 0.16556735 -0.04920517 -0.024349649 0.21334161 -0.30197617 0.05297624 0.033829484
-0.16349983 0.046603646 0.2408603 -0.25946176 0.43306708 -0.03763149 -0.13680422 0.32518926

Model.proj_v.weight f4 [40, 35, 1]
00000000: f3c5 e13d 7145 be3d 079d 84bd 8fb1 5bbd
00000010: 3f5c 38bd 73db 043c e454 5fbd d46d febd
00000020: 053b 1abe d463 393e f3e2 15be c3ab bb3d
00000030: e251 cf3d 94ac 883c ada4 af3d 425b 1b3e
00000040: f14d 8c3d 1bc8 a2bd 7aff 303d 5370 26be
00000050: e92d e63d 1025 923d 88a1 35be b1e5 073e
00000060: d13a 813d fa23 a63d 3f8a 263c f9f8 ec3c
00000070: 1a73 023e 305c ebbd 6cd7 0d3e 05c5 1c3e
00000080: ea4b 873c c4a2 6dbe 4424 183e 8601 2f3e
00000090: 5936 72bd cc4c 6d3e 53cc 6ebb d9e6 7abd
000000a0: dc73 cbbd f830 3f3d 3ac7 cebd bebb 78ba
000000b0: 823b 1ebe 145d 99bc 6cbf 183d e671 c43d
000000c0: dd08 0b3e cd00 f63d c565 33bd 5ca4 e8bd
000000d0: 638d f63d 9de7 003e b4b4 d8bd 1c89 0dbe
000000e0: 9c8c a4bd 75fb f4bd 681c 6abc 3f5f c03d
000000f0: 1b5b e8bd 8d82 403e 7959 b53d 8609 c7bc
00000100: 06d4 23bd 7038 b23c 3cee 31be a6ea 173d
00000110: cc0c 343d e936 23be 36d3 d43c f7a3 7cbe
00000120: a692 613e 0f12 b5bd c38c 803d 7ab3 04bd
00000130: 1be8 ab3d aaba 2d3d 7b9b d33d ac7f 6cbd
00000140: efd1 87bd f8f2 d2bd db18 6cbd 36ee b1bd
00000150: 04ed 31be 5a56 513d 7711 173e ca92 fc3d
00000160: b21e 2e3d 0ef5 b93d 5676 48bd 8c74 39be
00000170: 4a1c 55be 4df5 ee3d 523c 5e3e 9d6b 233e
00000180: 1b7f 7c3e 4bba dabc 28f2 69bc fa0e e7bd
00000190: 4568 9b3d 2323 963d 9b27 29be 7daf 51be
000001a0: ce32 0abe 5974 edbc 707b 443d d39d ba3c
000001b0: 512d 3c3c 5a52 abbd baa3 753d aaa2 d73c
000001c0: 4513 403d 6aee 1ebe 2cac 21be 9922 6bbd
000001d0: cedd 273e 9609 1ebc d177 aabd aece c6bd
000001e0: 8d57 9d3d 3a52 d8bd 8e33 d8bd 44b3 46bc
000001f0: acb8 2a3e a501 b7bd 4394 2e3e 9621 cebd
00000200: d829 453d 5c65 f5bd e8d2 fd3d e9f3 50be
00000210: 99de 433d 9726 303c f4bb f23c 56f8 9b3d
00000220: 86b7 bd3c f8b1 863d 4487 1a3e 4911 47be
00000230: 7fc1 063e 247f 00bd 6e46 4cbe fe31 f23d
00000240: f784 d9bc 189e b33d 8f05 73bd 2f15 cf3c
00000250: d92c cdbd a22d 44be 9bf5 66bd c11f 2ebd
00000260: 71e9 2b3e 7ef5 f3bd 276a 81bd 60b4 3cbd
00000270: f2af c6bc a895 213e 8fb9 0a3d 291b 28bc
00000280: 30fc 07be 1bda 1c3e 9043 483c b191 43be
00000290: 2e7e 12be bea4 573d 55a6 01bd 7d3c 8a3c
000002a0: acf7 4cbb 26de 6a3e f637 ebbd 4e6a 113d
000002b0: 5c37 27be 05f5 6f3e 4dae 96bd 6162 b4bd
000002c0: 0830 2dbe 12dd 90bd 30a2 d6bc fd39 903c
000002d0: bc76 f23d 241c 2ebe 410a 0e3d 724a f3bd
000002e0: 2575 abbd 6607 753d 7390 923d 1572 293d
000002f0: 438e 4cbc a380 acbc 64e2 76bd 86ab e73a
00000300: 9eb8 f33d 484c 103d e6ba 9e3d ac17 fd3d
00000310: 44c1 bdbd d214 1c3d 46cb be3d 3d5c 1dbd
00000320: 9023 5cbe e04e c23d f3dc a1bd bcb6 57bd
00000330: eae2 cebd 2218 4e3e b282 48bc cc13 9cbc
00000340: d663 94bb 9411 65bd b475 003e 7b45 dcbd
00000350: e13f 253e 43a5 a53d 8b3a 0a3e 7c4b 093e
00000360: 7e3f 21bd b28a 4abe a16d cc3d 0a32 833d
00000370: 5684 66bc 2bf0 10be a3b9 473d 33a4 b0bd
00000380: 498d f4bc 2eb0 9bbd 6b87 09be 16fb 013e
00000390: f951 c8bb 147c cdbc 96e8 f8bc f036 41be
000003a0: bf8b 993c 6314 f43d a855 953c 9a0e f1bd
000003b0: ff0e bc3d 424c a23d 62aa 08be e98e 9d3d
000003c0: eede 753d 3722 07be 88c1 b43d 118d c9bd
000003d0: b9a0 263c 5abe f93d ab7b 953c e2e4 d33d
000003e0: f0b6 b5bd b3e5 7e3d 04d4 4c3d 7dfe b2bc
000003f0: 13ba 503e 88b0 57be a9f4 1c3e 0159 223e
0.11024084 0.09290589 -0.06475263 -0.05363613 -0.045009848 0.008108961 -0.054524317 -0.12423292
-0.15061577 0.18104488 -0.14637356 0.0916362 0.1012304 0.016683854 0.08576331 0.15171531
0.06850804 -0.07948323 0.04321239 -0.16253786 0.112392254 0.07135975 -0.177374 0.13271214
0.063100465 0.08112331 0.010164796 0.028927313 0.1273922 -0.11492193 0.13851708 0.15309532
0.01651569 -0.23206621 0.14857584 0.17090425 -0.05913386 0.23173827 -0.0036437705 -0.06125531
-0.09934208 0.04667756 -0.10096593 -0.0009488425 -0.15452388 -0.01872114 0.03729193 0.09592037
0.135776 0.120118715 -0.043798227 -0.11359474 0.12038686 0.12588353 -0.105813414 -0.13821834
-0.080346316 -0.11962024 -0.014288999 0.09393167 -0.11345502 0.18799801 0.08854956 -0.024296533
-0.039997123 0.021755427 -0.17376035 0.037089013 0.043957517 -0.15938915 0.02597962 -0.24671923
0.22028598 -0.08841335 0.06276848 -0.032397725 0.0839388 0.042414345 0.1033239 -0.057738945
-0.066318385 -0.10300249 -0.05764089 -0.08688013 -0.1737557 0.051107742 0.14752756 0.12332685
0.042509742 0.090799436 -0.04894098 -0.18110865 -0.20811573 0.11667881 0.21702698 0.1595902
0.24657862 -0.02670016 -0.014278926 -0.112821534 0.07588247 0.073309205 -0.16519015 -0.204771
-0.13495943 -0.028986143 0.04796928 0.022780335 0.011485414 -0.08365317 0.059970595 0.026322681
0.046893377 -0.15520635 -0.15788335 -0.05740604 0.16393206 -0.00964584 -0.083236344 -0.0970739
0.076827146 -0.105625585 -0.10556708 -0.012127701 0.16672009 -0.089358605 0.17048745 -0.10065
0.04813561 -0.119822234 0.12393743 -0.20405544 0.047819708 0.010751388 0.029630639 0.07615726
0.0231588 0.065769136 0.15090662 -0.19440188 0.1315975 -0.03137125 -0.19948742 0.118259415
-0.02655266 0.08770388 -0.059331473 0.025278656 -0.1001832 -0.19158033 -0.05638657 -0.04251075
0.1678827 -0.11912058 -0.06319075 -0.046070457 -0.02425382 0.15779746 0.03386837 -0.010260382
-0.13279796 0.15317576 0.012223139 -0.19098546 -0.14305946 0.052647345 -0.031652767 0.016874546
-0.0031275554 0.22936305 -0.11485283 0.03550177 -0.16329712 0.23433311 -0.07357464 -0.08807827
-0.16912854 -0.07073416 -0.026200384 0.017605776 0.11839053 -0.17002922 0.034677748 -0.11879434
-0.08371953 0.05982151 0.07156458 0.041368563 -0.01248509 -0.021057433 -0.060274497 0.0017675019
0.11900447 0.035228997 0.07750492 0.12358031 -0.09265378 0.038105793 0.09316115 -0.038418043
-0.21497941 0.094877005 -0.07903471 -0.052664503 -0.10101874 0.20126393 -0.012238191 -0.019052409
-0.004528503 -0.055924967 0.125449 -0.1075544 0.16137649 0.08088162 0.13498895 0.13407701
-0.03936719 -0.1977947 0.099818476 0.064060286 -0.014069637 -0.14154117 0.04876102 -0.086250685
-0.029852526 -0.07601963 -0.13430564 0.12693438 -0.0061132875 -0.02508358 -0.030384343 -0.18868613
0.018743394 0.11917951 0.01822932 -0.11770363 0.09182548 0.07924701 -0.13346246 0.076932736
0.060027055 -0.13196646 0.08825976 -0.098413594 0.010170155 0.1219451 0.018247446 0.1034639
-0.08872783 0.062230777 0.05000688 -0.021849865 0.20383482 -0.21063435 0.15327705 0.15854265

Model.trans.layers.0.self_attn.in_proj_weight f4 [120, 40]
00000000: aa3b 803c dbda 29be a7c6 1bbd da2e 04bd
00000010: 85c5 9a3d 176d 5b3c b100 113e 8e4c cabd
00000020: 6ce6 a73d f98a d2bd 795e f2bd d7d7 b03d
00000030: c8f3 4a3d bdb5 4d3d ffee cd3d 6604 503e
00000040: 1454 a6bd eef0 39be e405 373c a868 6bbe
00000050: 1059 35be 8261 d2bd 1e82 fdbd 6e0d 70bd
00000060: 4fb4 c3bd ce82 06be 4794 eb3d 92ff 653e
00000070: e5b5 183e 5515 9ebd 2ce9 98bd 2ecd e9bd
00000080: 7310 18be 45ae 23bb c2ad 28be 0a8b 1fbe
00000090: ae82 923d 3626 203c bf23 1cbd f7ec 243e
000000a0: 6478 b63d b57c 593e 932b f43d 88fc 9fbd
000000b0: 7fe0 a9bd 4728 9bbd b545 96bd 81aa c73d
000000c0: afb0 96bd 7229 753d b031 6c3e 3f8b 313d
000000d0: 5693 563e 6ffa d3bd d3a8 33be 6c6b 243d
000000e0: f18f 56be 212c cbbd 8f95 f03d cfb0 5f3c
000000f0: 65ec a3bc f4a6 bebd b869 a0bc 6ab8 7b3d
00000100: f6b9 b0bd abd9 9f3c dcc2 e83d 7f59 e0bd
00000110: f17b 873e b1a6 073e 8a97 9d3c e877 7fbd
00000120: 4885 25bd 52d6 2a3e 83eb 933d 613d 143d
00000130: e74e 3b3d 5426 2f38 301e 9bbd f518 39bd
00000140: 1591 3c3e eac9 ae3c 00b1 3ebe 24d4 5dbd
00000150: 754a a7bd 7d89 593e 7ea1 92bd aae2 80be
00000160: 2cef 03be 1754 c43d 20f7 78bd 8c44 123a
00000170: d9dd 213d c0a1 1b3e 1eca 2f3c a906 063e
00000180: 769c bf3d ba30 0e3d ac41 683e 3f40 59be
00000190: 0f1e 39be b4a8 243e ccc4 fcbd 60a3 003e
000001a0: 1e69 c5bd 64fa 6c3d e49d 03bd 4ab5 903e
000001b0: 256c 3fbe 5536 66be 99c9 48bd e6a4 173e
000001c0: 76f8 d83d ac26 163d 048b 16be fd60 d63d
000001d0: ac66 603d 995e 5ebe a1bf 00be acd0 72bd
000001e0: ec38 d63b 9db9 18be 07d1 753d 41d1 6f3d
000001f0: fc2f 633e ed84 68bd e308 67bd 0cb5 3dbe
00000200: 3862 1bbe 26fb c0bd 07d8 1f3d 576b 6d3e
00000210: 1c07 87bd 0662 18be 60d4 773c 8f0d 7ebd
00000220: 6442 0a3d 24d2 a43d 05dc 553d a95c 2ebe
00000230: 6715 2fbe f565 e1bd 273d a03a 7f57 463d
00000240: c3c8 d03d f67b 16be 1e14 ccbd a29a 653e
00000250: 806e c63d 30a8 44be 11cf bc3b 1e71 c13d
00000260: a820 e43d c162 82bd aaa3 583c bc8a 193d
00000270: af27 32bd d39f 31be be3b bcbd c9d0 52be
00000280: 367b 2b3d 490d e13d 6dea ea3c b8c3 223e
00000290: e00d 523e 9837 0d3e 97fc cdbd d9fd 323e
000002a0: 0115 2abe ebe5 673d ecee 273e 202c 0f3d
000002b0: fa5b 8abe de9b 373e 1b79 95bd b652 abbd
000002c0: 491e c8bd b3e1 96bd 17fd e43c 6f23 583d
000002d0: 99be 143e 6635 4e3d 957e 163e e133 b73d
000002e0: f1da 323e c736 ad3d e250 ddbd bd8a 313e
000002f0: f45b 7a3d eeb2 483d 73b5 eabd 15e1 cabd
00000300: bb86 13bb f19c 0cbe 81a2 1ebe b8b8 fdbd
00000310: 6097 a9bc 97fe 26be 8bfb d53d 7b84 5dbd
00000320: 0e86 853b 2cb5 8e3b bb4b 853c 2518 bb3d
00000330: 6d4a 353e 34ec 1bbe 73ec dfbd e114 3d3b
00000340: 9b7a 7e3d 6693 ecbd 45c1 85bd 871f 443e
00000350: 6422 8abc 6c34 553e a3fe 533e 0675 3e3e
00000360: eb2f 913d 3ee6 55bd 94db 163e fe24 f2bd
00000370: 07e5 3cbe c97f 8f3d 1b0a 603d 2f3f 27bb
00000380: 265d 1dbd 58c3 b2bd aa24 0cbe b380 ab3d
00000390: 6432 75bd a1cb 38be cbd4 283e f406 133d
000003a0: c0ac f1bd 2434 393d d79e 543c 8e1a e7bc
000003b0: 7f62 1ebe 9c56 69be 6ae7 1ebe 8fff 073e
000003c0: 8692 b0bd c721 81bd 7b14 343e 4300 d63d
000003d0: 3bfc 49bd 26e3 43be 3741 0ebe 48ff 1d3e
000003e0: e1d1 473e ec44 483d 022c 283e 2cfe b53c
000003f0: cc4c a33d f1aa 87be e92c 813d bc9a ac3c
0.01565345 -0.16587393 -0.038031247 -0.032271244 0.07557205 0.013392708 0.1416042 -0.09877883
0.08198246 -0.10280413 -0.118344255 0.08634918 0.049548894 0.050222147 0.100553505 0.20314178
-0.081215054 -0.18158314 0.011170838 -0.22989142 -0.17709756 -0.102725044 -0.123783335 -0.058606558
-0.095558755 -0.13135836 0.11502891 0.22460774 0.14913137 -0.077189125 -0.07466349 -0.11416088
-0.14850025 -0.00249757 -0.16472533 -0.15580383 0.071538314 0.009774735 -0.038120028 0.1610602
0.089096814 0.21238978 0.119223736 -0.078118384 -0.08294772 -0.07576042 -0.07337514 0.09749318
-0.073579185 0.05985398 0.2306583 0.043345686 0.20954642 -0.10350501 -0.1754487 0.040141508
-0.20953347 -0.09920526 0.11747276 0.013652994 -0.020010183 -0.093091875 -0.01958166 0.061455168
-0.08629219 0.019512972 0.113652915 -0.1095457 0.26461747 0.13247181 0.019237299 -0.06237021
-0.04041031 0.16683319 0.07222655 0.036191348 0.045729544 4.1758947e-05 -0.07574117 -0.045189817
0.1841472 0.021336515 -0.18622208 -0.05415739 -0.081684984 0.21243854 -0.071597084 -0.2517293
-0.12884206 0.09586351 -0.06078255 0.0005579672 0.03951821 0.15198421 0.010729341 0.13088478
0.093560144 0.034714438 0.22681302 -0.21215914 -0.18077873 0.1607998 -0.123422235 0.12562323
-0.0963919 0.05785598 -0.032132998 0.28263313 -0.18693598 -0.22481664 -0.049020384 0.14808998
0.10594265 0.036657974 -0.14701468 0.10467718 0.054785416 -0.21715774 -0.125731 -0.059281036
0.0065375473 -0.14914556 0.060013797 0.05854917 0.22186273 -0.056767393 -0.05640496 -0.18526095
-0.15174186 -0.09422903 0.03902438 0.23185478 -0.06593153 -0.14881143 0.015126318 -0.06202465
0.03375472 0.08047894 0.05221178 -0.17027535 -0.17098008 -0.11005775 0.0012225256 0.048423287
0.10194542 -0.14695725 -0.099647745 0.22422269 0.09689045 -0.19204783 0.005761989 0.094454035
0.11139041 -0.06366492 0.013222614 0.037485823 -0.043494876 -0.17346124 -0.091910824 -0.20587458
0.04186555 0.10988862 0.028676236 0.15894973 0.20513105 0.13790739 -0.10057943 0.17479648
-0.16609575 0.05661575 0.16399735 0.03495419 -0.27023298 0.17930552 -0.0729849 -0.08365385
-0.097714014 -0.073672675 0.027952714 0.052768167 0.14525832 0.050343893 0.14696725 0.08945442
0.17466332 0.084577136 -0.10806443 0.1733808 0.06112285 0.048998766 -0.1146039 -0.09906212
-0.0022510726 -0.13731743 -0.15491678 -0.12388748 -0.020702064 -0.16308056 0.10448369 -0.05408142
0.0040748185 0.0043550935 0.016271463 0.091354646 0.17704172 -0.15226823 -0.10933771 0.0028851556
0.062128644 -0.115515515 -0.06531004 0.19152652 -0.016862102 0.20820779 0.20702605 0.18599328
0.07089218 -0.05222153 0.147322 -0.11823462 -0.18446742 0.07006795 0.054697137 -0.0025519838
-0.03841891 -0.08728665 -0.13685861 0.08374157 -0.05986251 -0.18046428 0.16487424 0.035895303
-0.118005276 0.04521574 0.0129773235 -0.028210904 -0.15467261 -0.22786945 -0.15517965 0.13281082
-0.08621697 -0.06305271 0.17585938 0.10449269 -0.04931281 -0.19129619 -0.13892065 0.15429413
0.19513656 0.048893854 0.16423038 0.022215925 0.07973632 -0.26497605 0.06307394 0.021069877

Model.trans.layers.0.self_attn.in_proj_bias f4 [120]
00000000: 9e38 423d d368 3cbd 4026 0c3d 9279 103d
00000010: 4aec 5f3c 2f13 5a3d 88ef 51bd 5dba f2bc
00000020: 7e90 603d 5ea1 203c a81c 893d ec5b b3bc
00000030: 4271 39bd a377 acbd c680 86bb 3be5 5bbd
00000040: 019a 48bd b5b3 45bd 94a1 3d3d d05a 5ebd
00000050: 8983 54bd f043 16bc 1e2f 8dbd a103 2bbd
00000060: b0c8 8d3d bdfa a03d 27f9 03be 863e 8dbd
00000070: 9dda 853c d9e1 9b3b 6634 dfbc 78fb debd
00000080: 310a ad3d 2915 633d ad89 c4bc 9177 803d
00000090: 3094 ae3d 2879 ea3c 777d 9c3d a182 9bbc
000000a0: a1f2 f6bc 692d e7bc 5515 0ebc c969 093d
000000b0: b27f 593d 7ea0 993c 277b a73b f248 3fbd
000000c0: 666e ef3c b6bb 3b3d 228d 8dbd d31c 64bd
000000d0: 53e5 4b3d aeb7 673d ebec fabc d654 d93d
000000e0: 43a7 973d 3fbe 3dbd fe7e 4ebd 1789 8c3c
000000f0: b428 083d fff4 b9bb 5899 243d 11fa ac3b
00000100: f33b 9f3c 9e44 1d3d 15b1 11bd 05e3 18bd
00000110: 8b93 023d 1208 35bc ff02 acbb 9f13 03bd
00000120: f5f2 66bd 9d93 b83b 4d80 2a3d 19c9 053c
00000130: f316 27bd 990e cabc 68df 8dbc 2994 4abd
00000140: b0e4 8dbc 0c92 28bb 9765 d9bb 3378 c03c
00000150: 5931 4dbb 8585 a1bc b463 8bbc 8c34 5dbc
00000160: b8fc 3abc 548f 803c 8b12 d93a 6b53 03bc
00000170: e639 2f3d e081 03bb 7bb2 29bb d559 87bc
00000180: 2c8b db3a c8a7 8ebc d468 6bbb e3f7 4bbc
00000190: 90d8 173d 843f 823c 76f3 d0bc f73d babb
000001a0: a536 07bc 9933 863c 68c3 86b9 cca2 0dbc
000001b0: 25c1 38bc e2e7 ee3c b2d8 81bc f0dc aa3b
000001c0: 88ea 3e3b 8c07 f1bc ef56 30bc e43b 82bc
000001d0: 0a90 bcbc f314 34b9 8f85 533c b8ec 4c3c
0.047417276 -0.045998406 0.034216166 0.03527219 0.013667176 0.05324095 -0.051253825 -0.02962988
0.0548253 0.009804098 0.06694919 -0.021894418 -0.045274027 -0.084212564 -0.0041047065 -0.053685408
-0.048974995 -0.048267085 0.04629667 -0.054285824 -0.051883254 -0.009171471 -0.068937525 -0.041751508
0.06923044 0.078603245 -0.12888013 -0.06896691 0.016339594 0.0047571477 -0.027246665 -0.108878076
0.084492095 0.0554401 -0.02399143 0.062728055 0.08524358 0.028622225 0.07641118 -0.018983187
-0.030144991 -0.028219895 -0.008672078 0.03354815 0.053100295 0.018753286 0.0051111165 -0.046700425
0.029227447 0.045833312 -0.069116846 -0.05569155 0.049779247 0.056571655 -0.03063055 0.10611884
0.074049495 -0.04632401 -0.050414078 0.017155213 0.033241943 -0.0056749578 0.040185302 0.0052788337
0.019437766 0.038395517 -0.03556927 -0.037325878 0.03187899 -0.011049287 -0.0052493806 -0.032001134
-0.056384046 0.0056328312 0.041626263 0.008165621 -0.04079337 -0.024665164 -0.017318442 -0.049457703
-0.01732096 -0.0025721816 -0.006634425 0.023494815 -0.003130993 -0.019716987 -0.017015316 -0.013501298
-0.011412792 0.015693344 0.0016561312 -0.008015494 0.042779826 -0.0020066425 -0.0025893736 -0.016522327
0.001674985 -0.017413989 -0.0035920637 -0.0124492375 0.037071764 0.015899427 -0.025506716 -0.0056836563
-0.008252774 0.016382026 -0.0002570406 -0.008644771 -0.011276518 0.029163305 -0.015850399 0.005214326
0.002913149 -0.029422544 -0.010762914 -0.015897699 -0.023017902 -0.00017173942 0.012910261 0.01250761

Model.trans.layers.0.self_attn.out_proj.weight f4 [40, 40]
00000000: 9044 92be f83f 0dbe 291d 373e 0d45 6bbe
00000010: cb09 8a3e ab32 02be 1fed 053b 7546 17bd
00000020: bd08 8dbe 492e 053e 1cd6 87bd 663d 4cbc
00000030: e6e0 7b3e 60fb 353e 4216 373e ba94 96be
00000040: 044a 1d3c 3143 533e 8318 4cbe cefd 35be
00000050: 3ff1 7ebe b698 77be 31a0 f23d 14e2 ed3d
00000060: 089a 5a3e d7da 793e 94ca 9a3d 9b9a 4c3e
00000070: 4367 fa3d 5f66 033e 5f0f 91be 323a 3b3e
00000080: 0a0f d0bd 83da df3c 528b 9cbe 07ae 4ebd
00000090: 4b51 44be d111 1dbe 35a9 76be 1a09 91be
000000a0: 03e8 0abe 6e68 d5bd ec57 0fbe 4e4c da3d
000000b0: 73f6 0d3d 2d1c 773d bb4a 39be d256 973e
000000c0: 7fcd 51be d93d 5cbe ac38 4d3e 9e5e 38be
000000d0: fbd2 ef3d 0547 a53d d259 93bd 4d37 65bd
000000e0: a5aa 15be fdf8 bfbd 174d 5bbe 5d96 b83d
000000f0: edc3 263d 2d5a c73d 7d87 353d 4740 363d
00000100: 7625 7d3e 60c6 43be c9bb 21bd d802 eb3d
00000110: 6d8b 573e 2416 07bc 2cbf 763e 4943 c0bd
00000120: 1981 8bbe f73d 603b f292 85be df55 68bd
00000130: ad60 efbd 04ec 2ebe 36f5 67be b469 79bc
00000140: cab1 8bbd 9d8d 17be 6eeb 433e 2149 b4bd
00000150: 3a97 5e3d fafc 12be 8ce6 0e3e e3dd 90bd
00000160: ec63 5fbe aa90 43be 6a8e fd3b 85b2 49be
00000170: a0a9 1e3e 6e71 b13d 4acb 24be 638c 6b3e
00000180: dbf0 e43d b8a5 04be 6feb 34be 65be 00be
00000190: 8edf 93be 1b41 51be ba7e 743e e3bc 74be
000001a0: dc5e 59bd 4728 52be a3eb 583e 43f6 b0bd
000001b0: 5edd 9dbd 27af 7e3e 054c 543e 56e5 693d
000001c0: de62 143d 5765 253e af59 2e3e ab5f 5fbe
000001d0: c43a 6f3e 28b5 11be 6b9a 9d3d 54a8 8c3d
000001e0: ddcf f33d 2989 e5bd f4a9 0d3d 1e95 65bd
000001f0: 1b30 dfbc edb6 47bd 6419 95bb bd14 643d
00000200: c8d5 cb3d 0ddc 36be 8988 9b3d 4f5d fd3d
00000210: b34a 4cbe 2b2a 32bd e0cb 8abe cb84 563e
00000220: db42 a8bc ba3c 443e c783 3ebd 34f0 4ebc
00000230: 142f 51be 9c09 373e bea5 8a3e 60dd 883e
00000240: ac14 563e 9c90 8abe e0cc 35be 5386 5abd
00000250: e31d 303e 1867 3dbd d2b6 843e cd67 e7bd
00000260: 88f4 5c3e 16d4 0b3c 054b 6f3d 7adf 193e
00000270: 04f7 7f3d 84fc 30be 654e efbd 0aa1 42bc
00000280: 6edc a9bd 6c44 febd a707 253d afc7 6d3e
00000290: bd59 43be b2e9 c2bd eecf c9bd c1d9 eebc
000002a0: 88c1 71be c728 643e a48c 2dbe 6123 5c3e
000002b0: 85df 793e 0c96 80be 208f 093d 49b2 96bd
000002c0: 151a 243d 016d 9dbe 7e23 1b3d c8bc 8dbe
000002d0: eaf9 953d ae10 e83d dbfb b53d 2ac4 6e3e
000002e0: 0efc 31be 124a 0abe 8727 773e 3564 0e3e
000002f0: 0801 8ebe 0b8b 4d3e 41ee 8b3e 95e3 693e
00000300: 1db2 313e b636 9bbb 75cc d03d 0f05 c53d
00000310: 1d1a 7e3e 249f fb3d da0b 27bd fcc3 173e
00000320: 75d7 cbbd 0633 1e3e 9973 6bbe 535f 8f3e
00000330: a9da 56be 8b47 0f3e c9d2 85bd 3aba 723e
00000340: a112 6cbe f8c7 273d 3863 373d 403f a23d
00000350: 4531 bcbd 6c8a 39be 3089 80bd e63c bc3c
00000360: 1f19 333e 62ad 0b3e 8e00 25be f1d2 8a3e
00000370: bf15 4c3d 9cef 49bc ef4e 113c 9a89 0dbd
00000380: 9460 8d3c 9fd5 183e 4291 9cbd 2c2a f3bd
00000390: 83e1 7dbe 39da 303d c052 60be 82e6 43be
000003a0: 6cff acbe 58c1 5dbe d150 09be 52cc 00bd
000003b0: e567 2abe e4b9 2ebe dfff 073e 227f af3d
000003c0: 6cfc 853c 175e 3b3e 1af6 403e bb18 2cbe
000003d0: 3759 a9bd 0f79 af3d 3242 8dbe 50ae cbba
000003e0: 86ae 9d3c 6a12 4bbd d8f5 37be a69d 87bd
000003f0: 9706 c63d 66e8 063d fb8c 5fbe 533a 413e
-0.28567934 -0.13793933 0.17882217 -0.2297556 0.26960596 -0.12714641 0.0020435525 -0.036932427
-0.2754573 0.13005938 -0.06632635 -0.01246581 0.2459751 0.17771673 0.17879584 -0.29410344
0.009600166 0.206311 -0.19931225 -0.177726 -0.24896716 -0.24179348 0.1184696 0.116153866
0.21347821 0.24399887 0.0755817 0.19980852 0.12226727 0.1283202 -0.2833204 0.18283918
-0.101591185 0.027325874 -0.30575043 -0.050458934 -0.19171636 -0.15338828 -0.24087985 -0.28327256
-0.13565068 -0.10420309 -0.13998383 0.10659085 0.03465886 0.060329605 -0.18094914 0.29558426
-0.20488547 -0.21507968 0.2004115 -0.18004844 0.11710163 0.080701865 -0.07194866 -0.055960942
-0.14615877 -0.093736626 -0.21416126 0.090130545 0.040714193 0.097339965 0.044318665 0.044494893
0.24721321 -0.19118643 -0.039485727 0.11475152 0.2104928 -0.008245025 0.24096364 -0.093878336
-0.2724693 0.0034216621 -0.26088673 -0.056722518 -0.11688361 -0.1708222 -0.22652134 -0.0152229555
-0.0682102 -0.14800115 0.19132778 -0.08803011 0.05434344 -0.14354315 0.13955134 -0.070735715
-0.21815461 -0.19098154 0.0077379243 -0.19697006 0.15494394 0.08664213 -0.16093174 0.23002772
0.11178752 -0.12953842 -0.17667936 -0.1257263 -0.28881496 -0.20434992 0.23876467 -0.2390018
-0.05306898 -0.20523177 0.21183638 -0.08640721 -0.07708238 0.24871503 0.20732124 0.057103477
0.0362271 0.1615194 0.17026399 -0.21813838 0.23362261 -0.14229262 0.076954685 0.068680435
0.11904881 -0.11207802 0.034585908 -0.056050412 -0.027244618 -0.048758436 -0.004550146 0.05568384
0.09952885 -0.1785738 0.075944014 0.12371313 -0.1995037 -0.043497246 -0.2710867 0.20949094
-0.020539692 0.1916379 -0.04651239 -0.012630511 -0.20428115 0.1787476 0.27079576 0.26731396
0.20906323 -0.27063453 -0.17753935 -0.053350758 0.17198901 -0.046240896 0.2592073 -0.11299095
0.21577656 0.008534452 0.058421154 0.15026656 0.06249143 -0.17283827 -0.116848744 -0.011879215
-0.08293997 -0.12415394 0.0402905 0.23220704 -0.19077201 -0.0951723 -0.098541126 -0.029156568
-0.23608983 0.2228118 -0.16948181 0.21497871 0.24401672 -0.25114477 0.03358376 -0.07358224
0.040063936 -0.30747226 0.037875645 -0.2768309 0.07323058 0.113313064 0.08885928 0.23317018
-0.17381307 -0.13504818 0.24136172 0.13905413 -0.27735162 0.20072572 0.2733021 0.22840722
0.17353101 -0.0047367467 0.10195247 0.096201055 0.24814649 0.12286213 -0.040782787 0.14820856
-0.099532045 0.15449151 -0.22993316 0.28002414 -0.2098185 0.13992135 -0.06534345 0.23703852
-0.23053981 0.04096219 0.044772357 0.0792222 -0.09189085 -0.1811921 -0.062761664 0.022978257
0.17490052 0.13640359 -0.16113493 0.2711406 0.049825426 -0.012325194 0.008868917 -0.034555055
0.017257966 0.1492524 -0.07644893 -0.11873278 -0.24793057 0.043176863 -0.21906567 -0.191309
-0.3378862 -0.21655786 -0.13409735 -0.031444855 -0.16641195 -0.17063099 0.13281201 0.085691705
0.016355716 0.18297611 0.1884388 -0.16806309 -0.082689695 0.08568012 -0.27589566 -0.001553962
0.019248258 -0.049578108 -0.17964876 -0.06621866 0.09669226 0.032936476 -0.21831124 0.18869905

Model.trans.layers.0.self_attn.out_proj.bias f4 [40]
00000000: cf7a a73c 0291 173b dced 053d b22d d1bc
00000010: 4f6d 7a3b a2e5 bf3c 9c1d c43c 5ac3 913c
00000020: f72b 0f3d c39a 8fbc d7f4 99bb 93a9 0abb
00000030: 5a8c 193c ee36 93bc c3e9 d6bc 2493 aebc
00000040: 4628 ac3c ce06 4cbd e270 1b3d 029f f2bb
00000050: f333 eb3c 1525 ad3b 0052 60bc 8a70 e83a
00000060: 47d9 e8bb 3bac 5cbb 8f7c bebc 4e7e a63c
00000070: 0394 1abb af6a dc3c 2841 a7ba 3249 95bb
00000080: 15fe 993c b1de 37bc c1a7 1c3d 2d9e bb3a
00000090: e47a 1c3c 487a 983a 4ea4 cb3c abe5 a63c
0.020444302 0.0023127203 0.032697544 -0.025534485 0.0038212126 0.023424927 0.0239399 0.017793346
0.034954038 -0.01752985 -0.0046983766 -0.0021158203 0.009371841 -0.017970528 -0.026234513 -0.021310396
0.021015298 -0.049811177 0.03794945 -0.007404209 0.028711295 0.0052839615 -0.013691425 0.0017733735
-0.0071059796 -0.0033671993 -0.023252754 0.020323899 -0.0023586757 0.02690634 -0.0012760507 -0.0045558447
0.018797914 -0.011222527 0.03824592 0.0014314108 0.009550784 0.0011633122 0.02485862 0.020373186

Model.trans.layers.0.fc1.weight f4 [160, 40]
00000000: 1f98 81bd 3d56 d93d 5887 1abd 17db 743d
00000010: ceed 4abd 48f8 e7bd 0abe 80bc c315 38be
00000020: 9418 c6bd 6a14 95bd e3a3 713e 8ce5 0d3a
00000030: b2ac 423c 52e4 d73d bd28 3c3e 2123 2b3e
00000040: e696 39be 4d40 6fbd a35e d13d 63ef 1abe
00000050: 368f ccbd 4c06 063c 9e20 da3c 5ba0 24bc
00000060: 970a 0dbd 91a2 bbbd bd1b 393e 4c49 fabd
00000070: af4f 79bc 49b7 2e3e b070 b6bd a3ad 04bd
00000080: 61c9 353e 60f1 fc3d 7939 623e 1006 c53d
00000090: 009d ec3d 777b b83d ec58 fd3c a3aa 04bc
000000a0: b79c d63b c261 ef3d a53a c93c 72e5 15be
000000b0: f6cc 483c cb09 7a3d 9ce4 473c 083f efbd
000000c0: 925d f2bd 129d 1bbd 6621 ed3d 90dd d4bc
000000d0: 01c0 913d 8259 28be 6586 843d 7749 563d
000000e0: d976 c3bd 1387 293d ede9 20bd 92a0 a6bc
000000f0: 365f 093e b32e ef3c aeb9 873d 13ea af3d
00000100: 1525 663d 114c 14bc a1bd 1b3e 6d8b 23bd
00000110: 8ce2 a1bd e10d 37be f0b3 0bbe 1fdf 1e3e
00000120: d8e9 93bd d771 ccbd dad2 ebbd ddc1 aabd
00000130: 7dde 043d 0ed8 51be 6b42 193e 3055 35be
00000140: f15c 0ebe cc9b 563d a47c 09be 7cc1 32bd
00000150: 7f46 393d e82e 143e df21 a7bd 4406 34bd
00000160: 4618 9b3c b8db 8d3d 9223 cfbd 6a12 0cbe
00000170: 8779 803d 58dd 38bc 0250 22be 2bdb 77bd
00000180: 5559 153c ff7e 603d 2a5e 963d a14f 063a
00000190: f549 433c a9e7 2c3e a08b 10bd 2c11 b1bd
000001a0: ba0a 0e3e 1819 c63d c682 02bd 05da a53d
000001b0: 37a8 8e3d f8f5 71bc 81d5 e63d 4067 bdbd
000001c0: e9ce af3d 44bb b3bd d26a b73d 2e17 ed3d
000001d0: 7f1d 12be 9458 433e 52a9 dc3d b5f4 17be
000001e0: f6d8 cabd 62c5 e23d 523d 053e 937e cbbc
000001f0: 118d f23d 8ed1 11bd 884f ca3d 95c9 403e
00000200: 6c15 33be d5c4 08bd f20f 1ebe c6a5 cb3d
00000210: 696a 9f3d 7f15 423d 00ea 243e 9c66 01be
00000220: 60be 56bd f728 1c3e 2039 fabd 4a60 0bbe
00000230: 0131 efbc 1ff2 d1bc 1832 25bd 0a5a d4bd
00000240: b74e d6bc 448a 123e 0fee b53d db32 fdbc
00000250: d840 89bc 6498 edbd aef1 28be 102b 663e
00000260: ebbe 6abd 87cc 53bd 34dc 1abe 0195 11bd
00000270: c035 69bd e8df d23d 5908 e63d e10c 713d
00000280: c002 aa3d 7d7a a7bd c044 1f3c 3f98 fbbd
00000290: 10e6 eb3d 1b2d 133e 7c0f 1abe c18d 10bd
000002a0: cb37 b43c 4dad 673b cfc6 143e a771 d83d
000002b0: 1078 d1bd 5031 c9bd 4e3e 04bd 90f6 873d
000002c0: b8b0 49bc 0bb3 5fbb 59a2 4c3c f057 9e3d
000002d0: 3130 613e 0aa4 14bc 2784 83bc 5403 5ebd
000002e0: 5fe7 153e f12f b9bd fd0a 133e 25ce 63be
000002f0: 4e4d c4bd 09a0 8fbc 4a08 83bd 0a44 0f3e
00000300: 2bfb 12be 3ec2 763d a103 b9bd 6f87 cc3d
00000310: cc47 673c 3db4 1c3e 41ee 9c3d 52c3 29be
00000320: 9c6b 083d d8b9 f73d a66f 833d 78bb 10be
00000330: 2084 5b3d eb6e 92bd 42bc cb3d 32f9 53bd
00000340: 9572 3c3d d83c 833d 2aac 4d3e 5d82 1fbe
00000350: 60b0 2abe bd4b c43d 600f 7b3d 5424 2d3d
00000360: c360 d63d 0e43 33bd 1ab7 4cbd 8da7 633a
00000370: 5fee 04bc 8498 503e 96bd 493c e5ac d9bd
00000380: 0661 093e ad3f eabd b189 f7bc bd0e f13c
00000390: 2936 ce3d 22f3 bdbd cc02 283d 04c2 08be
000003a0: 8d41 a4bc cfac 05be 56c8 4a3c 226a 583d
000003b0: 5b23 e5bd a696 1abe d317 053e 6881 9c3b
000003c0: 19b2 453d 0020 5c39 5aa6 0ebe a4f7 5fbd
000003d0: d4be 6c3b d98f edbd 384e 473d bc57 3fbe
000003e0: deb1 8fbd 4bb9 523d 443b 803d 1ac1 13be
000003f0: fe49 c1bd 4a10 b13d 1a00 4b3e 4e1e 15bd
-0.06327843 0.10612152 -0.03772673 0.059779253 -0.049543194 -0.11326653 -0.015715618 -0.17977051
-0.09672657 -0.07279284 0.23597674 0.00054129283 0.011881994 0.105415955 0.18374915 0.1671262
-0.1812397 -0.05841093 0.10223129 -0.15130381 -0.09988253 0.008180212 0.026626881 -0.010047997
-0.034433927 -0.091618665 0.18076988 -0.122210115 -0.015216752 0.17062105 -0.08908212 -0.032392155
0.17752601 0.12350726 0.22092237 0.09620297 0.11553383 0.09007924 0.03092619 -0.008097324
0.0065494436 0.11688568 0.024564097 -0.14638308 0.012255898 0.061044496 0.012200501 -0.11681944
-0.11834253 -0.03799159 0.11578636 -0.025984555 0.071167 -0.16440395 0.06470946 0.052316155
-0.09544153 0.041388582 -0.03928559 -0.020340238 0.13415226 0.029197073 0.066272125 0.08589568
0.056187708 -0.009051339 0.15209056 -0.03992789 -0.079045385 -0.17876388 -0.1364286 0.15514801
-0.072223365 -0.09982651 -0.11514826 -0.08337758 0.032438744 -0.20492575 0.14966743 -0.17708278
-0.13902642 0.052394673 -0.13426453 -0.043641552 0.045233246 0.14471018 -0.08160757 -0.043951288
0.018932473 0.06926674 -0.101142064 -0.136789 0.062731795 -0.011283241 -0.15850833 -0.06051175
0.009115537 0.054808613 0.07342179 0.000512356 0.011919488 0.16885246 -0.035289407 -0.086458534
0.1387128 0.09672755 -0.031862997 0.080982246 0.06965678 -0.014768116 0.112711914 -0.09248209
0.08584387 -0.087759525 0.08955921 0.11576687 -0.14269064 0.19076759 0.10774483 -0.14839442
-0.09904663 0.11072804 0.13011673 -0.024840629 0.118433125 -0.035600238 0.09878451 0.18826897
-0.1748864 -0.03339084 -0.1543577 0.09943728 0.07783968 0.04738378 0.16104889 -0.12636799
-0.05242765 0.15250002 -0.12217927 -0.1361095 -0.029198172 -0.025628148 -0.040330976 -0.10368736
-0.026160581 0.14310557 0.08883297 -0.030908039 -0.016754553 -0.11601332 -0.16498443 0.22477365
-0.05731098 -0.051708724 -0.15123063 -0.03554249 -0.056936026 0.10296613 0.11232061 0.058850173
0.08301306 -0.0817766 0.009720981 -0.12284898 0.1151849 0.14372675 -0.1504497 -0.035291437
0.02199926 0.0035351098 0.14528964 0.105685525 -0.10227978 -0.09823859 -0.03228598 0.06638825
-0.012310199 -0.0034133818 0.012489879 0.077316165 0.2199104 -0.009072313 -0.016054226 -0.054202393
0.14639042 -0.09042347 0.1435966 -0.22246607 -0.09585057 -0.017532365 -0.063980654 0.13990799
-0.14353625 0.060243838 -0.09033895 0.099867694 0.014116239 0.1530313 0.07662631 -0.16578415
0.03330575 0.12095994 0.064177796 -0.14134014 0.0535928 -0.07150062 0.09948017 -0.051751323
0.04600771 0.064080894 0.20085207 -0.15577073 -0.16668844 0.095847584 0.06129396 0.042270973
0.104676746 -0.04376512 -0.049979307 0.000868433 -0.008113473 0.2037068 0.012313267 -0.1062868
0.13415918 -0.114379264 -0.030217024 0.029425973 0.10068924 -0.092748895 0.041018292 -0.13355261
-0.020050788 -0.13054202 0.012376865 0.05283559 -0.11188384 -0.1509653 0.1299737 0.0047761686
0.04826555 0.00020992756 -0.13930646 -0.054679528 0.0036124485 -0.115997024 0.04865858 -0.18685812
-0.07016347 0.05144624 0.06261304 -0.14429131 -0.09437941 0.08645685 0.19824257 -0.036405854

Model.trans.layers.0.fc1.bias f4 [160]
00000000: 9f0c e83a 6cac a9bc b4f5 cdbc 7f99 7abc
00000010: 002c 1d3c bb7e f3bc 7442 08bb 9a3e 323c
00000020: eded b23c fb1f fcbc 04a3 70bd 1c28 0dbd
00000030: 9300 74bb fb04 0abd 44b4 cc3c 0a1b 1abc
00000040: 58e4 39bc 607a e23b 0344 d6bc 761f a8b9
00000050: 3d8f 22bd dd02 3cbb 1ac5 b7bb 28c1 8bbc
00000060: b43a 44bb 15ef fd3b a585 66bd 4f99 b4bb
00000070: 9fc1 85bc 128c ddbc 1ea9 d5bc d510 2fbc
00000080: f170 bd3c 9d97 8cbb 37b6 00bd be3d 84bb
00000090: f792 06bd 4552 9d3b 51ba 243b 0a86 0bbb
000000a0: 4ddf a9ba 1c31 a3bc d1a8 9abc 9777 3ebc
000000b0: 3227 89bb 2a37 62bc 54c6 55bd 7047 86ba
000000c0: 6cd0 b8bc 0b20 9abc 126f 67bc e3fb 95bc
000000d0: df7f 8abc a9e1 d9bc 479b a03b 5766 e83b
000000e0: d42d 6ebc 794a babc 55b8 a0bc 82d0 93bc
000000f0: cacd 813c a02b 85ba 676e cebc c996 93bb
00000100: b09c db3c 195b 453d 4303 2abc 3765 223d
00000110: 700b 573c 22e3 04bd a083 4f3b adf6 acbc
00000120: e6f5 1a3c 87eb acbc 2629 c0bc 4fb2 6dbc
00000130: f9e0 5fbc 9261 9abd 4a86 b6bc 0f67 65bc
00000140: 593d 95bb e221 2b3d 6e19 603b 7d76 15bb
00000150: 4248 c4bc 33b6 cfbc bf16 36bc c267 7ebd
00000160: 4883 6dbc 84c5 83bd 1f18 91bc d466 5bbd
00000170: adc9 24bc 8db7 19bc c6dd 14bc 3a2e 073d
00000180: 3c80 63bd a6ed 613c 867a 07bb 9738 7e3c
00000190: 1604 153c 30a7 aebc 6be7 9cbc e9d1 a6bc
000001a0: e0ea 0fbd c6ff 54bd 2665 733b f173 613a
000001b0: d2c7 893c 7de5 f9bc 6b08 6abd ddbd 7d3c
000001c0: feba 0f3b 5cbf 9abc edca 1ebd ed50 16bc
000001d0: 40f9 f5bc 1c7b 1fbc 7f6f 94bc bfe1 9cbc
000001e0: d50f 153b 73ae 27bc 823a 25bb 4088 85bb
000001f0: 8202 eebc 1ac6 62bc cf27 35ba a755 02bd
00000200: 7dcc bfbc 150f 85bc dea5 50bc cff0 b13b
00000210: 676d 95bc d7cf 46bd 3be7 7eb9 dc02 c9bc
00000220: d5f1 14bd f326 bf3a 8d93 14bd b23f 86bc
00000230: 5e68 c4bb 21b9 493b 0a01 08bd 7527 c2bc
00000240: 4d76 00bc dbba 1dbc 2341 773c 1853 2abd
00000250: cf40 89bc b18f 053c 34ce 18bd a6b0 13ba
00000260: 4cb0 1abc 8cf7 0cbd 0e7a b4bc 68c2 02bd
00000270: 8287 123d 6342 32bd 6a80 dd3c 38fc aa3a
0.0017703957 -0.0207121 -0.025141574 -0.015295385 0.00959301 -0.029723516 -0.0020791562 0.010879183
0.021841967 -0.030776968 -0.058749214 -0.03446208 -0.0037231788 -0.033696156 0.024988301 -0.009405861
-0.011345945 0.006911561 -0.026155477 -0.00032066897 -0.039687384 -0.002868823 -0.005608213 -0.017059878
-0.0029942216 0.007749448 -0.056279797 -0.00551144 -0.016327677 -0.02704433 -0.026081618 -0.010685165
0.023125144 -0.0042905346 -0.031423774 -0.0040356806 -0.032855 0.004801067 0.0025135467 -0.002128961
-0.0012960226 -0.019920878 -0.018879326 -0.011625192 -0.0041855806 -0.013807097 -0.052191094 -0.0010244679
-0.02256032 -0.018814107 -0.014125602 -0.018308586 -0.016906677 -0.026596861 0.004901323 0.007092278
-0.014537293 -0.02274059 -0.019619146 -0.01804376 0.015845198 -0.0010160096 -0.025199128 -0.004504059
0.026808113 0.04818258 -0.010376754 0.039647307 0.0131252855 -0.032443173 0.0031664148 -0.021113718
0.009458041 -0.021108402 -0.023457121 -0.014507844 -0.0136644775 -0.07538141 -0.02228083 -0.014001622
-0.0045544324 0.04178036 0.0034194845 -0.002280622 -0.023960236 -0.025355434 -0.0111138215 -0.06211067
-0.014496632 -0.064341575 -0.017711697 -0.05356486 -0.010057849 -0.009382141 -0.009086078 0.03300307
-0.055542216 0.01378957 -0.0020672395 0.015516422 0.009095212 -0.021319956 -0.019153317 -0.020363765
-0.035136104 -0.052001737 0.0037139147 0.00086003455 0.016818915 -0.030504936 -0.057136934 0.015487161
0.0021931524 -0.018890075 -0.038767744 -0.009174568 -0.030026078 -0.009733941 -0.018119572 -0.019150613
0.0022745032 -0.010234463 -0.0025211875 -0.00407508 -0.02905393 -0.013841176 -0.0006910534 -0.031819966
-0.023412937 -0.016242543 -0.012734858 0.005430318 -0.018240644 -0.048538055 -0.00024309468 -0.024537496
-0.03636344 0.0014583751 -0.036273528 -0.016387794 -0.005993887 0.0030780511 -0.033204116 -0.023700455
-0.007840705 -0.009627069 0.015091213 -0.04158315 -0.016754536 0.0081519345 -0.037306026 -0.00056339276
-0.0094414465 -0.034415767 -0.022030856 -0.03192368 0.03577376 -0.043520343 0.027038772 0.0013045138
