pretrained_model/A15_LMF_tai_pretrained_model.pth (torch, 926146 bytes, 30 tensors)

Model.audio_factor f4 [5, 17, 1]
00000000: 886c a3bc 5f3d 6dbe d137 003e fae2 abbd
00000010: 4ad2 5a3d 1cda 47be 9259 e13e 8988 513e
00000020: 40bd 08bf dff0 843e eb01 843e a07b 52be
00000030: a5fa 2ebc 4ca1 8d3d 0418 d43e 5c0d a3be
00000040: 0327 543e bece 053e 4c27 2e3e 0276 c83e
00000050: 0b26 903e 2b0a 15bd eda7 62be 2778 08bf
00000060: 7b92 4c3e 48ae c2be ae74 babe c4aa 50bd
00000070: b9d1 ea3b 7bf4 bfbd 2c4d 593e 5764 863d
00000080: 5683 1bbe 64c4 933e 03dd e73d 8cc4 78be
00000090: 3c42 463f 41c4 e43d e016 62be 3823 b93e
000000a0: ff98 313f 07b5 dc3e bec5 813e c849 633e
000000b0: a20b c6bd e011 17bd 391c 8b3e 0107 df3e
000000c0: 23d6 323f 2e59 ab3e dcce 89be 47b3 803e
000000d0: e480 be3e a10c 003e 5603 16bd c1e3 57be
000000e0: c741 9ebd ca02 d7be 0ee4 8a3d 2e91 8cbe
000000f0: 7706 f93e 7953 923d 94a9 39be 5393 3ebe
00000100: 8c62 05bf 93be 203e ae2a d8bd 0b45 dbbe
00000110: 1411 0dbd e90f 52be d973 7e3e cb5f a5be
00000120: e533 1b3e 0ff6 d0be 38f3 68bc f03f 8cbe
00000130: 282b 28be 0533 8ebd ae57 8bbe a697 b13e
00000140: 4eee 033f 0da8 453e 9ab0 37bf 518e b83e
00000150: 27e6 97bd
-0.019949213 -0.23167942 0.12521292 -0.08392902 0.053423204 -0.19516796 0.4401365 0.2046224
-0.5341377 0.2596502 0.25782713 -0.20554972 -0.0106798755 0.069155306 0.41424572 -0.3184613
0.20718007 0.13067147 0.17007178 0.39152533 0.28154024 -0.03638665 -0.22134371 -0.5330834
0.19977753 -0.3802359 -0.36417145 -0.050944105 0.007166114 -0.09372803 0.21220845 0.06562107
-0.1518682 0.28860772 0.113214515 -0.24293727 0.77444816 0.11170245 -0.22079039 0.36159682
0.6937408 0.43106863 0.25346178 0.22196114 -0.096701875 -0.03688228 0.2716997 0.4356003
0.69857997 0.33466476 -0.26915634 0.25136778 0.3720771 0.12504818 -0.036624275 -0.21082975
-0.0772739 -0.41994315 0.06781779 -0.27454513 0.48637745 0.071448274 -0.18131095 -0.18610887
-0.52103496 0.15697698 -0.105550155 -0.42826113 -0.034440115 -0.20513882 0.2484888 -0.32299647
0.15156515 -0.40812728 -0.014218144 -0.2739253 -0.16422713 -0.06943325 -0.27215332 0.3468601
0.515355 0.19302388 -0.7175385 0.3604608 -0.07416945

Model.video_factor f4 [5, 65, 1]
00000000: f881 b8be 97b5 65be 9345 9ebe e95c 08be
00000010: a9bc 613d 2a02 f73d d2a2 5abc fc56 b03d
00000020: 66a4 b03d 7103 c23d dd44 683e d0ed e3bd
00000030: 440c 41bc 5f8a b13d 67b7 6e3e 4bf6 c83d
00000040: 09d0 d83c 2129 813e 6783 21bc 1d70 973d
00000050: 216b 9fbb 9c4c ffbd 1427 dabd 5139 42be
00000060: 8da3 d23d acfa 0dbe fd11 9cbe f9f0 813d
00000070: fc0d 25bd 1728 cd3e 83fa 743e 3c16 813d
00000080: 441b 14bd 4e78 bb3e c3df e7bd 816f 00bc
00000090: 1901 62bd ff70 163c 9f01 113c 3416 0d3d
000000a0: cdc0 7a3d db90 003c 949d 36bd 8609 a1bd
000000b0: 37d6 edbd 70e7 7cbe 69ec 733e 7ada b53d
000000c0: de8d b7bd 01e9 063e 23cf e2bd 3bae b2bd
000000d0: f0d9 03be 0859 09be 1dc6 043e 97a4 1ebd
000000e0: d935 e2bd b5c5 ea3d f572 d3bc 9415 d2bc
000000f0: 105a 5f3d b92d 84be 2480 35be 3d5d b53e
00000100: 44e5 69bd 07bf 1bbe 3da0 643d e9fe b8be
00000110: 248a e73d fd59 833e bd2e ac3e 019f 313e
00000120: d412 d5bd 518c 04be 6b98 8dbd 0075 edbe
00000130: 1067 08bd 94f7 213e 30da 04be 7231 3a3e
00000140: d27f c73d ae8b 10bd e36d 3ebe a4bb 3e3e
00000150: fc63 87bd 473d f2bd 0b97 423e b377 91be
00000160: d61e 223e e1af 393e f7d7 23be 58c2 8cbe
00000170: b643 68bd b8b5 2bbb 91cf 203d 0d05 8ebd
00000180: 380e febc 9402 cebd d72b 6abe 82fd 77be
00000190: 6f5f 23be fca1 2e3c 150f 593e 58cb e93d
000001a0: 1621 903d 82a0 ca3c a97b b93d c723 ab3e
000001b0: 313e 483d dfd7 60be 227b 1bbd 14a2 01be
000001c0: c58f 2bbd aa35 c23c 4ca2 933d a3f5 7b3d
000001d0: ed22 1b3e 69ed 253e 79d4 dc3d e549 903e
000001e0: 6c18 393e 7083 073d 4183 01bd 870f d2bd
000001f0: 0fdd 1dbd 794b 15be 3f51 f5bd 65d7 683e
00000200: 7b83 73bd 5afd c53e 3c6b 9bbd 8d1c 84bc
00000210: 036a 0bbd f49a e93d 5a71 f23d c23a 793c
00000220: a6f9 a9bd 884a 2fbe 7fcc cdbe dd29 33be
00000230: e94c ffbd 03d7 7dbe 2f45 333e d65c 363e
00000240: 84f0 4f3e 7eca b93d d4af 81be 0f3c 84be
00000250: 9112 86be b3ea 273e 0cd8 5c3e da3d df3e
00000260: 611d 5ebe 8fd3 323d 3cf8 123d 8319 a93d
00000270: 8163 06be 7966 1ebe 78a1 45bd e1bd 193e
00000280: b1f8 0a3e d189 613e bbd5 5a3b b9da d2bd
00000290: 529d 763e e3db 963d 6f10 063e c8a5 eebd
000002a0: 269f aa3c 88e2 283d b09a 68be aa37 713c
000002b0: c36d af3e 2a70 90be f9f4 c43e 269d 86bd
000002c0: 70af 423d fdb1 d7bc 83db a93e ba00 e43c
000002d0: 8146 6cbd dac6 8ebd 9384 833e 94d8 e6bd
000002e0: d68e 693d 0ab4 783d 1fea bfbe 1b17 a8be
000002f0: 3876 48bd 05d7 9a3d 049b 7fbd 00b7 2dbd
00000300: 89cf 7cbe 0b38 a1be bea6 153e 9149 91bd
00000310: 7e45 b03d 3b1c dfbd a80e 3fbe 8415 5bbe
00000320: 16cf e3bd 8757 18be 9927 693c 4898 c2be
00000330: bc94 2f3e 2929 bc3e da8e bcbd 84e8 ec3d
00000340: 7d85 07be a452 9fbe fdfe aabd c82b 63be
00000350: 4383 4a3e 0ec0 afbe d220 2a3e 83ac c13d
00000360: 4718 9f3d f284 c8bd cffa b53e d931 7dbe
00000370: 622a 27be e3ad 5b3d df0d 573d dda2 743d
00000380: ff65 01bd 9a89 2b3e f666 9f3d 9efe 573e
00000390: e5e8 29be e6ad 8abd c457 503d 2597 d5bd
000003a0: cfb6 82be 5e92 dbbd 0e50 b0bc 3cf9 963d
000003b0: b6be 5cbd b8c4 8ebd 303b 93bd a687 bdbd
000003c0: c6ce ef3d 5243 42bd 5dbf 033e 4cc1 ed3d
000003d0: 488f f43d 26dc 273e 75a1 943e 0316 e1bd
000003e0: 5cff ff3c 1f72 69be a717 973d 7cac abbd
000003f0: ca45 3c3e 7de4 bc3d b5c6 823d be38 4d3e
-0.36036658 -0.22432552 -0.30912456 -0.13316692 0.05511156 0.1206096 -0.013344483 0.08610341
0.086251065 0.09473313 0.2268252 -0.111293435 -0.0117827095 0.0866897 0.2331215 0.09812602
0.026466386 0.2522669 -0.009857989 0.07394431 -0.0048650657 -0.12465784 -0.10651985 -0.18967177
0.10285101 -0.13865155 -0.30482474 0.0634479 -0.04029654 0.4006965 0.23923688 0.06303069
-0.036158815 0.36615223 -0.11321976 -0.007839085 -0.055176828 0.009182214 0.008850484 0.034445003
0.061219025 0.007847036 -0.044583872 -0.078631446 -0.11613124 -0.24697661 0.23820652 0.08879562
-0.08962606 0.13174821 -0.110746644 -0.08724638 -0.12876105 -0.13412869 0.12966199 -0.038731184
-0.11045427 0.11463491 -0.025811652 -0.025645055 0.05452925 -0.25816134 -0.17724663 0.35422698
-0.05710341 -0.1520959 0.055816878 -0.3613198 0.11305645 0.25654593 0.33629408 0.17345811
-0.10403982 -0.12944151 -0.06913837 -0.46378326 -0.033301413 0.158171 -0.12973857 0.18182924
0.09741177 -0.03528946 -0.18596606 0.18626267 -0.066108674 -0.11828094 0.19002931 -0.28411636
0.15832075 0.18133499 -0.16000353 -0.27492023 -0.0567052 -0.0026200842 0.03926045 -0.06934557
-0.03101264 -0.100590855 -0.22868286 -0.242178 -0.15954374 0.010658737 0.2119716 0.11415738
0.07037561 0.02473474 0.090567894 0.33425733 0.048887435 -0.21957348 -0.037959225 -0.12659484
-0.041885156 0.02370723 0.0720869 0.061513554 0.15150042 0.16203846 0.107827134 0.28181377
0.18075722 0.033084333 -0.031619314 -0.10256868 -0.038540896 -0.14579572 -0.11978387 0.22738416
-0.05945156 0.38669854 -0.07588813 -0.016126895 -0.034036648 0.11406508 0.11838026 0.015211763
-0.0829957 -0.17118275 -0.4019508 -0.17496438 -0.12465841 -0.24789052 0.1750686 0.17808852
0.20306593 0.090718254 -0.2532946 -0.2582707 -0.2618604 0.16398124 0.2156679 0.43601876
-0.21690895 0.04365879 0.035881266 0.08256819 -0.13123895 -0.15468778 -0.04824969 0.1501384
0.1357143 0.22025229 0.0033391553 -0.10295624 0.2408345 0.07366159 0.13092206 -0.11652714
0.020827841 0.041231662 -0.22715259 0.014722744 0.3426343 -0.28210574 0.3846815 -0.065729424
0.04753059 -0.026329989 0.33175287 0.027832378 -0.057684425 -0.06971522 0.25687084 -0.11271778
0.057020985 0.060718574 -0.37483308 -0.32830128 -0.048940867 0.07560543 -0.062403694 -0.04241085
-0.24688543 -0.3148807 0.14614388 -0.0709411 0.086070046 -0.108940564 -0.18657935 -0.21394926
-0.11123483 -0.14877139 0.014230632 -0.38006806 0.17146581 0.36750153 -0.09206934 0.11567786
-0.13234515 -0.31117737 -0.083494164 -0.2218467 0.19776635 -0.34326214 0.16614082 0.09456732
0.077683024 -0.09790982 0.35542914 -0.24726047 -0.16324762 0.05363263 0.052503463 0.05972563
-0.03159141 0.1675171 0.0778331 0.21093222 -0.16592748 -0.0677145 0.05086495 -0.10429219
-0.25530097 -0.10721277 -0.021522548 0.073717564 -0.053892814 -0.06971115 -0.071890235 -0.092543885
0.11709361 -0.047427483 0.12865968 0.11609134 0.11941391 0.16392574 0.29029432 -0.109905265
0.031249695 -0.2279744 0.07377558 -0.08382508 0.18385997 0.09223268 0.063855566 0.20041177

Model.text_factor f4 [5, 33, 1]
00000000: 34fd 34be fadf 2e3e 7a29 79bd b93a 2e3e
00000010: 99b7 2e3c af72 003e c844 123d 206a 103d
00000020: 4963 103c 35bb ccbd bba4 8f3e 6420 de3e
00000030: 1b29 1d3c cf74 263e a233 e5be 9814 a73d
00000040: 33cb 8d3d fce5 273b 40f0 efbd f517 34be
00000050: d74d 18be 3387 2bbe 67e0 1f3d dee4 433f
00000060: a678 f13d 2866 893e 3ef1 08bf b1f3 fabd
00000070: 6be3 583e 3aa2 e93e 106f 26bd a3f7 44be
00000080: 7eb1 44bd e409 e2be 0a6b 5d3e 199c 0b3e
00000090: b30f 3c3e 0a76 0cbf bce2 c8be d3dc 4a3e
000000a0: d434 97be 45a6 0abf 736c 5dbe 3072 c5bd
000000b0: 9431 83be 431a d1bd 02eb 35be 8250 483e
000000c0: 16d3 7dbe e3ce 9e3e ea10 ddbe c332 2b3e
000000d0: 6889 45be 27bd debd 2541 263d 3a7c f2bd
000000e0: 87a3 46bd ae51 1abe 9df6 203e 00a9 d43e
000000f0: 8f79 003c 580d 4fbe 3ad0 96be 0b44 343e
00000100: 97a9 a03e 7f74 9cbe 5c04 08be 093f ddbd
00000110: c4b7 873e e752 133e a6f0 5abe 02a0 d13d
00000120: 5cc5 de3e 7c92 70bd 2aa8 88be 1dd5 b9bd
00000130: 60fd 61be b258 afbc b029 1bbe ce35 653e
00000140: c6c5 703e 7cad 4e3e 4370 213e be97 c6bd
00000150: e25d 133d 2f1f 5e3e 4ffd f6be 88ae 5fbe
00000160: 2b28 97be 0168 bc3c 449e db3e b6c2 77be
00000170: b85d 4cbd c75b 38be 95a9 4ebe ea62 d03d
00000180: 1a2f 023c ce38 6dbc d5f1 eabe 6055 ea3d
00000190: 72a3 51be 348a 9d3d cd40 253e 8656 1fbe
000001a0: 38b2 2ebf 5ef4 c43c 2db1 ba3b 4694 95bd
000001b0: 11e1 833c 882e 4b3c adbc 9a3e dbef 1e3e
000001c0: caed 2ebe ddf6 d43e 4749 693d cb6a c8bc
000001d0: 03d1 4e3d ff83 823d 1f61 9bbc 978e d8bd
000001e0: 2a6c b0be 2b6e cd3d db13 33be 8d43 88be
000001f0: 097b b5bd db65 aebe 4c3a eebd 8a4c d6be
00000200: ca3c aebd 9fb8 863e bafd 9d3e 3cf7 293e
00000210: da6a f9bb 351e 493f da91 22bd f688 dc3d
00000220: 8ab3 2ebe dd44 9bbe 060d 873d 9fb6 643e
00000230: 950a 8c3e 9e0a 23be ed39 923d 0cf0 0d3e
00000240: ba51 993c 5572 c03c bcde c1be a0c0 0bbc
00000250: 4a97 613e c526 4abd 23fe 23be 4dbf ab3d
00000260: 6010 0abf a089 873e 981c c83d e807 bb3e
00000270: 0bca ffbd a24a fabe 7c55 0d3e 8684 b6be
00000280: 59d3 e4be bc47 cabe 5333 203f 1d97 78be
00000290: 473b 50be
-0.17674714 0.17077628 -0.06083057 0.17014588 0.01066389 0.12543748 0.035710126 0.03525746
0.008812734 -0.099966444 0.28055367 0.43384087 0.00959232 0.16255496 -0.44765955 0.08158225
0.06923523 0.002561926 -0.11715746 -0.17587264 -0.14873444 -0.16750793 0.039032366 0.765211
0.1179059 0.26835752 -0.53493106 -0.12253512 0.21180503 0.45631582 -0.04063326 -0.19235091
-0.048020832 -0.4414817 0.21622863 0.13633765 0.18365364 -0.54867613 -0.39235485 0.198108
-0.29532492 -0.5415996 -0.21623401 -0.0964092 -0.25623763 -0.10210087 -0.1776543 0.19561961
-0.24787554 0.31017217 -0.43176967 0.16718583 -0.19290698 -0.10875922 0.04058947 -0.118401006
-0.048495796 -0.15070221 0.15719076 0.41535187 0.007841482 -0.20219934 -0.2945574 0.17604081
0.31379387 -0.3055763 -0.13282913 -0.108030386 0.2650739 0.14387093 -0.21380863 0.10235597
0.43509948 -0.05873345 -0.266908 -0.09073851 -0.22069311 -0.021404598 -0.15152621 0.22383806
0.23512945 0.20183367 0.1576548 -0.09696911 0.035978206 0.21691583 -0.48240134 -0.21843922
-0.29522833 0.022998812 0.42894185 -0.2419537 -0.049894065 -0.1800376 -0.20181878 0.10175116
0.0079458 -0.014478875 -0.45887628 0.11442065 -0.20472506 0.07692376 0.16138001 -0.1556035
-0.6824069 0.024042305 0.0056973905 -0.073036715 0.016098531 0.012401231 0.30222073 0.15521185
-0.17082897 0.41594592 0.05695465 -0.024464985 0.050492298 0.063728325 -0.01896721 -0.10574072
-0.34457523 0.100307785 -0.17488043 -0.26614037 -0.08861358 -0.34062085 -0.11632213 -0.4185527
-0.08507688 0.2631273 0.3085764 0.16598219 -0.0076116147 0.7856172 -0.039689876 0.10768311
-0.17060676 -0.30325976 0.06594281 0.2233529 0.27351823 -0.15922019 0.07139955 0.13861102
0.018715728 0.023492018 -0.37865245 -0.008529812 0.22030368 -0.04935338 -0.16014914 0.08386097
-0.53931236 0.26472187 0.09771079 0.3652947 -0.124897085 -0.48885065 0.13802141 -0.35647982
-0.44692495 -0.39507854 0.62578315 -0.24276395 -0.20335113

Model.fusion_weights f4 [1, 5]
00000000: 8aff 81be c93f 733f fe06 98bf dd11 343f
00000010: a0a1 b3be
-0.25390273 0.95019203 -1.1877134 0.7033976 -0.35084248

Model.audio_subnet.norm.weight f4 [74]
00000000: a637 753f 85aa 673f b256 723f 8154 6f3f
00000010: 2250 833f 3724 843f 6427 813f ef27 883f
00000020: f0ef 713f 26b9 743f 29dd 863f 859e 873f
00000030: 9429 803f d675 823f 0ced 923f 1333 833f
00000040: d3ae 813f 1e96 863f 259c 883f 2fa0 853f
00000050: 4b61 8c3f 9b64 903f a4da 8d3f 61e5 833f
00000060: a7e2 813f 0ea9 873f 3768 743f 2033 7e3f
00000070: a40a 883f 7b7e 7f3f 6c0e 8a3f 0c49 883f
00000080: 4a6c 753f a14a 823f f327 903f 1bb4 8a3f
00000090: 694b 783f 8f7e 803f 24b0 813f fcd1 7d3f
000000a0: d070 823f 3989 823f 9378 823f b515 7a3f
000000b0: e6f9 843f 374d 733f 68fa 823f 792e 6d3f
000000c0: 80f3 833f 2d10 803f be4a 893f eef1 803f
000000d0: 8ae1 793f dd92 703f 9377 6f3f 2ac5 6c3f
000000e0: 51c8 783f 3397 723f ee4b 7e3f 51dc 6b3f
000000f0: 66ca 763f ed18 823f 7e60 793f b592 743f
00000100: 7e3e 773f 8b16 703f 804f 703f b25b 6d3f
00000110: c136 6d3f 55da 6e3f a62e 6c3f b9e0 6b3f
00000120: bece 6e3f 493e 803f
0.9578804 0.9049457 0.94663537 0.9348832 1.025883 1.0323552 1.0090146 1.0637187
0.9450674 0.95595014 1.0536243 1.0595251 1.0012689 1.0192211 1.1478591 1.0249962
1.0131477 1.0514562 1.0672652 1.0439509 1.0967191 1.1280702 1.1082349 1.0304376
1.0147294 1.0598466 0.9547152 0.9929676 1.0628247 0.9980237 1.0785651 1.0647292
0.9586836 1.0179025 1.1262192 1.0836214 0.96990067 1.0038623 1.0131879 0.99148536
1.0190678 1.0198127 1.0193046 0.9768937 1.0388763 0.95039696 1.0232668 0.92649037
1.0308685 1.0004936 1.0725935 1.0073831 0.9760977 0.93974096 0.9354183 0.9248835
0.9718066 0.9476196 0.9933461 0.9213305 0.96402586 1.0163857 0.9741286 0.9553636
0.9657973 0.937844 0.9387131 0.9271804 0.9266167 0.933019 0.9225868 0.92139775
0.93284214 1.0019008

Model.audio_subnet.norm.bias f4 [74]
00000000: 5eac b13c 807c 1c3d 331b 97bc b9e1 c43d
00000010: cd70 14bb c16e e53c fe28 213d d517 273d
00000020: 53dd ba3c d32d f23c 6611 943d 07b3 25bd
00000030: be4d fbbc 9856 df3b 790d e33c 8f56 37bd
00000040: b77d 123d b953 293d 5757 c9bc 61d9 aa3c
00000050: 6169 aabd c57f 27bd e0d7 4e3c b358 8bbd
00000060: 074f 1dbd 63bb 7dbc 5ea2 d1bb 5b36 d8bc
00000070: 4160 503a 7c96 d3bc d79a 443b a414 4ebc
00000080: 48c2 cebc 3607 d53b d796 7d3c 8281 be3b
00000090: 412d 07bc c4a2 5bbd ecff 303d b4b1 2dba
000000a0: 41c2 92bc 466d 383b f1ef 5c3d a9c5 0abd
000000b0: 1537 47bd 14e7 873c 3ae5 79bd 276d 11bd
000000c0: b9dc b63c 133d bd3c 76c7 0abd d296 4b3d
000000d0: f9e4 a9bd 5ae8 33bb 5b7b e1bc 2a13 4e3d
000000e0: 6405 2e3c 36f4 e43b bc47 34bd f592 2b3b
000000f0: 5661 debc 3d3e ea3c a0b6 06bc 26af a4bb
00000100: fa86 2f3c 5657 203c 3c0a 2a3c 8eed a1bd
00000110: b4d0 e53c 01d2 3fbd 59ab 17bd 52b6 cb3c
00000120: eded 7f3d f6eb f53b
0.021688636 0.03820467 -0.018445587 0.09613366 -0.0022650242 0.028006913 0.039345734 0.040794212
0.022810614 0.029562866 0.07229881 -0.040453937 -0.030676719 0.0068157427 0.027716385 -0.044760283
0.035764422 0.04133961 -0.02457778 0.020855607 -0.08320881 -0.040893335 0.012624711 -0.068040274
-0.038405444 -0.015486571 -0.0063975295 -0.026393106 0.0007948913 -0.025828592 0.0029999518 -0.012578163
-0.025239125 0.0065011038 0.015477858 0.0058137784 -0.0082505355 -0.053622022 0.043212816 -0.0006625906
-0.017914893 0.0028141304 0.053939763 -0.03387991 -0.048636515 0.016589679 -0.061009623 -0.035504486
0.022322046 0.023100412 -0.033881627 0.04970438 -0.08295626 -0.0027451725 -0.02752464 0.050311245
0.010621402 0.00698712 -0.044013724 0.0026180123 -0.027146023 0.02859413 -0.008222252 -0.005025762
0.010713333 0.0097864475 0.010378417 -0.07906638 0.028053619 -0.046831135 -0.037028644 0.02486721
0.062482763 0.0075049354

Model.audio_subnet.norm.running_mean f4 [74]
00000000: 6822 7743 05c7 2b3f c2d5 8d3d 0a6d 7e3e
00000010: 54ef 5e40 f488 b53e c5a6 e83d 1521 38be
00000020: 7f13 a63f f37c db3e 3707 1c3d 98f5 adc0
00000030: f843 be3f e93c 3ebe b4a8 a43d 00e3 5dbe
00000040: 20da 143d d015 c2bc 8b6b d9bc f441 263d
00000050: dc7c c43c 5476 85bc 8620 89bc 9015 633c
00000060: c8b8 82ba 06a7 82bc bb91 903c 3788 30bc
00000070: ffa0 2c3c ccef bfbb f1d8 0d3b 744b c7bb
00000080: ba39 343c 0b97 41bc 5238 1a3c a13c a6bb
00000090: 6311 ce37 29ac 8a38 5cb5 0f38 c14f 6938
000000a0: 4267 4ab8 b8b8 2037 2002 f738 3810 34b8
000000b0: c552 86b9 1b01 04b9 8e01 b63a 3ef3 4a3c
000000c0: 3d3d 1c3d 125a f23d 3caf 763e 9af8 d13e
000000d0: 0657 e53e a35b b43e b928 bd3e 9ffa be3e
000000e0: 355a c63e 254a c83e d007 bc3e 6f44 b83e
000000f0: c56a aa3e 1ade ebbe 2188 b8bf 5961 a5bf
00000100: 5565 8fbf 394a 62bf 3047 28bf 98a9 e1be
00000110: 540a 84be 4a56 f0bd 596d 07bc 38ab 773d
00000120: 7b00 db3d 1335 033e
247.1344 0.67100555 0.06925537 0.24846283 3.4833574 0.3545605 0.11359934 -0.1798137
1.29747 0.42868766 0.038092818 -5.4362297 1.4864492 -0.18577923 0.0803999 -0.21668625
0.036340833 -0.023692042 -0.026540538 0.04059024 0.023985319 -0.016291775 -0.016739141 0.013860121
-0.0009973282 -0.015948784 0.017647615 -0.010774664 0.010536431 -0.0058574434 0.00216442 -0.0060819928
0.011000091 -0.011815797 0.009412842 -0.0050731455 2.456521e-05 6.61242e-05 3.426276e-05 5.5625806e-05
-4.825672e-05 9.579751e-06 0.000117782736 -4.293045e-05 -0.0002562014 -0.00012588913 0.0013885961 0.012387095
0.03814434 0.11833586 0.24090284 0.4100998 0.44792956 0.35226163 0.3694513 0.37300584
0.38740698 0.39119068 0.3672471 0.3598971 0.33284584 -0.46067888 -1.4416543 -1.2920333
-1.1202799 -0.88394505 -0.65733624 -0.44074702 -0.2578913 -0.11735208 -0.008265817 0.06046602
0.10693451 0.12813215

Model.audio_subnet.norm.running_var f4 [74]
00000000: a758 eb44 6997 403c d047 503a da75 1c3c
00000010: 936d 0740 99a7 8f3c 3c73 b439 6408 803b
00000020: ba3d 203d 6b53 883b f075 063b 27c9 6f3f
00000030: 1a19 d53d a17e 163d 978b 943c a428 8e3c
00000040: a652 463c 1b2a d13b 11bf a43b 12da 933b
00000050: f1d2 1e3b 8dd2 333b eb72 213b 7068 143b
00000060: 593f b13a 51c9 8b3a ad55 4d3a 4333 173a
00000070: 8298 bf39 55fb a439 6562 af39 ba88 8f39
00000080: d4bc 6a39 9315 5739 437e 1a39 f3c1 ed38
00000090: 49ea fc34 3023 6536 9a58 7535 3d01 2236
000000a0: a68b f435 a1ea 8633 c609 2e37 7da6 fc34
000000b0: b861 9037 f1eb 2d38 ddd2 193a da3e c33b
000000c0: 81db fd3c a231 dd3d 8f59 8b3e 4787 c93e
000000d0: 0c0a 073f 3d89 1c3f d6e3 2e3f e5a6 2f3f
000000e0: 5be7 2e3f 1275 373f c6b2 473f 14fa 343f
000000f0: 9aca f63e c7da 343c f15d 823d 5b32 403d
00000100: d9b1 eb3c 15b8 6b3c b245 103c c2bf 0c3c
00000110: 9d81 2d3c a3e4 3a3c 6e53 303c 2aec 103c
00000120: 5223 d73b fa4d 8e3b
1882.7704 0.011754849 0.0007945271 0.009549582 2.1160629 0.017535971 0.00034418132 0.0039072502
0.039121367 0.004160335 0.0020517074 0.9366631 0.10405178 0.036741856 0.018132968 0.017353363
0.012104666 0.006383193 0.0050276597 0.00451208 0.0024234618 0.002743873 0.0024635147 0.0022645257
0.0013522907 0.0010664855 0.0007832896 0.00057678315 0.00036543986 0.00031467775 0.0003345191 0.00027376955
0.00022386323 0.00020512035 0.0001473362 0.000113371665 4.7109123e-07 3.414414e-06 9.1398545e-07 2.4140602e-06
1.822006e-06 6.28254e-08 1.0373484e-05 4.7059794e-07 1.7211642e-05 4.146615e-05 0.0005867908 0.00595842
0.030988457 0.10800482 0.27216765 0.3936102 0.52749705 0.6114691 0.683164 0.68614036
0.6832177 0.7166301 0.7800716 0.7069409 0.48201448 0.011038489 0.06365574 0.046923023
0.028771328 0.01438715 0.008805679 0.0085906405 0.010589984 0.01140705 0.010762079 0.008845368
0.00656549 0.0043427916

Model.audio_subnet.linear_1.weight f4 [16, 74]
00000000: 961e aabd 4d8e 00bc 7abb 91bc 8191 ac3a
00000010: 8371 2cbe 2bee 88bd 7d6e aebd c2b1 7d3d
00000020: b5df 6dbc 72f3 533c 64a4 cabd 46f6 723d
00000030: 6246 33bd 1341 1ebe b5d4 11be c880 c0bd
00000040: 292d 1dbc b61c 0ebe d9e1 543d ab69 fe3d
00000050: d783 a8bd 048d d43d 8528 943d 9989 693d
00000060: 2be0 d03d 4b55 39be 9772 693d 886c 2abd
00000070: 5ef5 43be dc0d 0cbd 5962 113e 1a37 77bd
00000080: 59ca e1bd adcd d43d e137 66bd c777 183e
00000090: 7294 01be aad4 a7bd 07c1 8fbd 2c98 93bc
000000a0: 612f 833c 1563 a73c d0da 953d 0c89 0fbe
000000b0: c997 42bc 8782 f83c 6c17 b2bd 3104 19bd
000000c0: 8c73 3d3d 2f7b 943d ce4d b43d 9291 bd3d
000000d0: 53df be3c 7296 543d eca5 4bbd 35f1 983d
000000e0: c8b5 0bbc 4a3e a83d 1bdd babc 75c1 4dba
000000f0: 4e06 5dbd f2a6 d53d 1ba8 723d f82f c9bc
00000100: 8a6a d73d 3af5 203d 1bd7 a5bd 5afc cf3c
00000110: a49a efbc a5b9 c4bd d22b 8ebd bc8c 9abc
00000120: 154f 08bc a5ae b1bc b9fd 8bbd b789 a43c
00000130: f053 b6bc b4c2 24be 47c4 81bd 7049 c7bc
00000140: 8103 9fbd 6718 82bd 2a1c cb3d 3a0e a0bd
00000150: 0912 07bc 444b 39bd 1182 d03b 792f 9a3d
00000160: a691 043d be20 8c3d 91b4 583d c02a e1bd
00000170: 881b a83d d4f4 6e3d 147e 94ba dc01 4c3e
00000180: 6b59 fcbc 5b64 54bc 4569 b9bd f816 c6bc
00000190: 94a9 24bd fa2c c93d a20e 79bd 3d96 a6bd
000001a0: ab4f c03d feed efbd a667 ed3c 19a4 9cbd
000001b0: defe 5d3d 12e2 063d 1b43 1c3d bec6 323d
000001c0: f596 a23d 6e46 e1bc 5163 bd3d 4713 7dbd
000001d0: eced 363d c948 2e3d daeb 833b fc40 ac3d
000001e0: 0d1e 91bd a1ff f43c 9c8e 10be a57b b3bc
000001f0: 0b7c 343d ae2a 77bd a86f 96bd 53a6 403d
00000200: 90b7 98bd 6524 d7bd cac8 45bd d77a 01bc
00000210: cc43 983c e7de 9abd f1d6 bbbd e250 503d
00000220: c0dd 023d f661 273d d8de 993b 54ed 4e3d
00000230: cb00 41bd ce0c 8ebd fcb3 c6b8 1cf6 b5bd
00000240: eff7 c03c dc2a 9fba 923e 56bd 5039 deba
00000250: 39bb 67bd a039 0dbc c8af d9bc dac1 00bd
00000260: d127 d93d e517 0dbe 94a6 51bc 321a 1c3d
00000270: a191 1f3d 6b23 10bd 0bd0 a43c 7b12 76bd
00000280: d44d b83c 23f5 f33d 1c6b 173e 472a 06bd
00000290: 5730 0a3d e019 b23b 1ca4 e0bd 4fda 683d
000002a0: 8987 223d 976b c1bd 0515 47bd 9317 c1bd
000002b0: f00d cfbd b661 683b ded0 dbbd bd4e cebd
000002c0: 18f4 6fbd f824 9dbc 937e b43d f919 e9bd
000002d0: 308c cbbb 7f17 623d 3871 77bc f903 953d
000002e0: 266c a6bc 9175 bf3c 2147 163e b318 bb3d
000002f0: d492 7c3d 7871 adbd 8567 553c 7ce4 8b3d
00000300: 153b 07bd 0974 f7bd 4ad8 a6bd 8b85 ccbd
00000310: 020a 38bd 9ad8 8fbd 199d d43b 3177 6c3d
00000320: 043d ba3d ba9a 03bb 2a7d 8fbd e028 a63d
00000330: ccd5 98bd c7fc 123d e8a1 5fbd bc83 313c
00000340: 8293 36bc f6bc 413d ba0a db3d 4bbc c23d
00000350: 130a 903d 7cee 933d 5f99 c33d 7d88 f1bd
00000360: ffa8 c7bd 7ba9 5f3d 4e76 afbd 0d8a c23c
00000370: 59e7 073d c31c c9bd 3db0 f9bd 2778 95bd
00000380: 034d 9e3c 84a3 0bbd 5dba 973d cb46 d3bd
00000390: a6b5 57bd 94ee aebd e403 8c3d 2a7c 22bd
000003a0: a4c2 17bd 5a78 993d 1ab6 ac3c 3aee b93d
000003b0: 6602 b03d 5b68 c43d 9a75 6f3c 6709 643d
000003c0: 2182 023e bcde 003d 5e9a cbbd d913 2f3e
000003d0: d1ce 07be aaa2 c63d 0150 1dbb f650 a63d
000003e0: f04e 97bd 1b1b 7e3d 0b0e 4a3d 0d57 173d
000003f0: 9e75 25bd d061 04bd 3a39 193d bd63 edbb
-0.08306615 -0.007846427 -0.017789591 0.0013165922 -0.16840176 -0.06686052 -0.08517168 0.0619371
-0.014518668 0.01293646 -0.09894636 0.059316896 -0.043768294 -0.15454511 -0.14241298 -0.09399563
-0.009593287 -0.1387814 0.051973198 0.12422498 -0.082282715 0.10378459 0.07234291 0.05701599
0.10199007 -0.18098943 0.056994047 -0.04160741 -0.19136569 -0.034192905 0.14197673 -0.060355283
-0.11024923 0.10390792 -0.056205634 0.14889441 -0.12654284 -0.08194859 -0.07019239 -0.018016897
0.016013803 0.020432988 0.07317126 -0.14017123 -0.011877009 0.030335678 -0.086958736 -0.037357513
0.046252772 0.07250058 0.088039026 0.09256281 0.023299849 0.05190129 -0.049718782 0.074678816
-0.008527227 0.08215006 -0.02281051 -0.0007848957 -0.05396109 0.10432233 0.05924235 -0.024559006
0.105183676 0.039296366 -0.08097669 0.025388885 -0.029248543 -0.096057214 -0.06941952 -0.018865936
-0.008319636 -0.021689722 -0.06835503 0.020085199 -0.022256821 -0.16089898 -0.06336265 -0.02432701
-0.0776434 -0.06352311 0.09917481 -0.078152135 -0.008244046 -0.045237795 0.0063631614 0.07528586
0.032365464 0.068421826 0.052906577 -0.10994482 0.08208376 0.058338955 -0.0011329078 0.19922584
-0.030804357 -0.01296338 -0.09053282 -0.024180874 -0.040200785 0.09823032 -0.06080497 -0.081341244
0.093901955 -0.11715315 0.028980087 -0.07648487 0.05419814 0.03293044 0.038149934 0.043646567
0.07938949 -0.027499404 0.09247459 -0.061785962 0.044660494 0.042549882 0.0040259184 0.08410832
-0.0708581 0.02990705 -0.14116901 -0.021909544 0.04406361 -0.060343437 -0.073455155 0.04703362
-0.07456887 -0.105049886 -0.04828719 -0.007902822 0.018587016 -0.075620465 -0.09171856 0.050858386
0.03194976 0.040864907 0.0046957545 0.050519302 -0.047119897 -0.06936036 -9.4749004e-05 -0.08884832
0.023555724 -0.001214351 -0.052305765 -0.0016954336 -0.056575034 -0.008619696 -0.026573077 -0.03143487
0.106032975 -0.13778646 -0.012796063 0.03811092 0.038957242 -0.035190027 0.020118734 -0.060076218
0.022498049 0.119119905 0.14786953 -0.032755163 0.033737507 0.0054352134 -0.109688014 0.05684882
0.039680038 -0.09444349 -0.04860403 -0.094283246 -0.1011008 0.003545863 -0.10733198 -0.10073612
-0.058582395 -0.019182667 0.088132046 -0.11381907 -0.00621178 0.05519819 -0.015102677 0.07276148
-0.020315241 0.02337149 0.14675571 0.091355704 0.061663464 -0.08468908 0.013025169 0.06830689
-0.03301533 -0.12082679 -0.081467226 -0.09986409 -0.04493142 -0.07023735 0.006488454 0.057730857
0.09093669 -0.0020081238 -0.07006295 0.08113265 -0.074626535 0.0358856 -0.054597765 0.010834631
-0.011143567 0.047299348 0.10695405 0.0950857 0.070331715 0.07223222 0.095507376 -0.11793611
-0.0974903 0.05460499 -0.08567487 0.023747468 0.033179615 -0.09819939 -0.12191818 -0.07298308
0.019323831 -0.034091488 0.07408593 -0.10316237 -0.052663468 -0.08541599 0.068366796 -0.039669193
-0.03705086 0.07493658 0.021082927 0.09078641 0.085942075 0.09590217 0.014615441 0.05567303
0.12744953 0.031462416 -0.099415526 0.17097415 -0.13262488 0.096989945 -0.0024003985 0.08120911
-0.07388103 0.06203757 0.0493298 0.036948252 -0.04039537 -0.032319844 0.03740809 -0.0072445557

Model.audio_subnet.linear_1.bias f4 [16]
00000000: 1dc8 a43d 7a08 ea3a 9c10 563d 46c3 2dbe
00000010: 84a7 06be c633 eebd 15a7 52bd 3593 633d
00000020: 2ec2 e63d 06d1 193c 3ec9 663d c26f 323d
00000030: d1d5 29bc 3cc4 c2bc f80e 40bd ab40 3c3e
0.08045981 0.0017855309 0.052261934 -0.16969022 -0.1314984 -0.11630969 -0.051428873 0.05556031
0.112675056 0.009388214 0.056344263 0.04356361 -0.010365919 -0.023775212 -0.046889275 0.18384044

Model.audio_subnet.linear_2.weight f4 [16, 16]
00000000: b29f b0bd 30a2 d5bd 5075 65bd 040b d83d
00000010: 3858 6abe 952a 99bd 820c 773b 6ec9 823d
00000020: 244b debd f0be 353d 401d 253c a762 dfbc
00000030: 529e 57be 28ca a8bc 4585 69be cae1 d2ba
00000040: 6369 27bb 99fa 3c3e 7a19 44be f259 84be
00000050: 57b6 b73b ece8 853c 1a54 f73d aab0 233e
00000060: 3182 fb3d 0c3b 323e 4fbc 28bd 18dd 59be
00000070: c442 083c 641e b33d ffef eb3d 6082 263e
00000080: be36 833e 0256 3b3e 6298 3fbe 151c e53d
00000090: 2c59 d2bd 90fa 793e 0c1e cf3d ec02 5fbe
000000a0: c895 e3bd 1cd1 78bd 1463 56bd f327 893e
000000b0: 76d6 f7bd 4873 763e d0f1 573d 0517 fbbd
000000c0: 0ec2 853d 2843 62bd d903 23bd 7fe8 acbd
000000d0: 56dd eabd 53ba 4e3e d292 113e 3748 85be
000000e0: e619 9a3d d6af 213e 8255 d7bd 2b42 403d
000000f0: b966 953b b55a 0abe c026 9bbd ba98 a9bc
00000100: bc16 9cbe ba7e c83c 9c27 fabc 786b 8e3e
00000110: 065a be3d 9a30 8c3d ae0d 60bd f95b 69be
00000120: a16b 363e 27c3 a63d 5a5c 51be fd60 b23d
00000130: d3ff f1bd e0b6 e8bd 3924 aa3d 196d 083e
00000140: 4f87 f1bd 3729 5a3e 81b4 9fbc e5ef 9c3c
00000150: aff5 1e3e 7e3a 97be 48b5 cebd da20 e3bd
00000160: d070 84be 0b3a 0abe 05c6 44bc cfde eebc
00000170: 63f3 223e 4bb4 e4bd 721e 1fbe 08d4 2f3e
00000180: 034a a23c 5d0e 86be 027d bcbd 7927 98be
00000190: 65a3 74bd 4c00 313e 6bb0 2abe 871f 31bc
000001a0: a1b8 883e 967b 2b3e 74c7 893e 13b1 f1bc
000001b0: 43cf 4a3e 65f1 103e 2104 d43d f033 0fbe
000001c0: 75ff a43c 9891 493e 92ce 70be 3604 4abe
000001d0: 814b 133e 9cac 493e ecfe 8ebe 76e7 f5bc
000001e0: a515 343e 9e4e 22be 540f 803e 3bda 0d3e
000001f0: 0a73 55bd d3e6 033e f061 b9bd 7ce1 82be
00000200: 364f e03d 3cb0 103e 6fbf 15be 0d18 5b3a
00000210: 244f e0bc c71c 4b3e c7db 7cbd 198a f43d
00000220: 4b9f c23d 2d2a 30be 7630 18ba 77e0 a53d
00000230: 31a7 1dbd dcbd 7b3e d7d9 10be aafe 2b3d
00000240: 4878 91bd a724 2b3e 2862 9fbd ea78 f43d
00000250: 6aba 3b3e 3a08 66be ccb4 30bd a873 ae3c
00000260: fb32 793d b2c8 203e 39f7 2dbe 193e 413e
00000270: 6ae1 323e 590e 4f3e 2786 4cbe c25d 3a3d
00000280: 650e aa3d 0b55 88bc 876d 843e 30e7 3d3e
00000290: 477e 143d 6795 f5bd 217f d63d 3ca4 8fbd
000002a0: 7f7e 343e 7d74 32be 9d86 cbbc a245 76bd
000002b0: 7362 24be d137 823e c908 75be 2f6e 24bd
000002c0: e1b4 863e 6632 7bbe 481c 4ebe 65b9 3ebe
000002d0: 0909 32be 9a66 4f3e f46c 26be 8f37 41be
000002e0: b88c 6e3e a0fd e73d b3e2 d7bc 2dd7 5dbd
000002f0: f9d5 70be df28 bd3d 7db2 35be ba2f 123e
00000300: 5097 1abe a95c 70be f3e3 163d b8b8 39bc
00000310: 9773 0a3d 3626 303e bf02 313d 869e 79be
00000320: 18cc f4bd acf1 4fbe 81b3 593e 875c 5a3e
00000330: e902 593e 0e4a 053e ab2f fbbd e0ae 3ebe
00000340: 94d1 ed3d 8e38 10bd 5bc2 243e 9c05 413e
00000350: 9341 aa3e 8518 173e b8fd 43be e473 21be
00000360: 9260 393e 69e7 dabb a7b6 8a3e a09b fd3c
00000370: 959b d33d df67 6e3d 7371 6dbe ae89 34be
00000380: 6aca 8cbe 9ba6 40be 3f35 023e 61bf 70be
00000390: b196 dbbd e6ed 1fbd 5611 d9bc b0ca 31be
000003a0: 5ebb a7bd c126 4c3e e8e4 2a3d 2fe1 6e3e
000003b0: 00ba fabd 26de 543e b490 1dbd f3b1 2dbc
000003c0: 4830 02be 006c 72be b9f1 aa3d c073 7dbe
000003d0: 9ca6 f63a 2e55 bdbd e2e1 e8bd dd1e cd3d
000003e0: bd82 0c3e eba4 033e 9e45 0bbd fb84 edbd
000003f0: 8281 47be 3706 f33d 2f77 9abd 0ba0 09be
-0.086242095 -0.104313254 -0.05602008 0.10548976 -0.22885215 -0.07478825 0.0037696664 0.06386076
-0.10854176 0.044371545 0.0100777745 -0.02726872 -0.21056488 -0.020604208 -0.22804745 -0.0016089019
-0.0025544993 0.1845497 -0.19150344 -0.25849873 0.0056064534 0.016346417 0.12076588 0.1598536
0.122806914 0.17405337 -0.04119521 -0.21275747 0.008316699 0.08746031 0.11520385 0.16260672
0.25627702 0.18294528 -0.18710473 0.11186997 -0.102709144 0.24411988 0.10113153 -0.21778458
-0.11112553 -0.060746297 -0.052340582 0.2678829 -0.12101452 0.24067414 0.052720845 -0.1226025
0.065311536 -0.055239826 -0.03979859 -0.084427826 -0.11467998 0.20188265 0.14216164 -0.26031658
0.07524471 0.15789732 -0.10514356 0.046938103 0.0045593646 -0.13511164 -0.0757575 -0.020702709
-0.30486095 0.02447449 -0.030536465 0.27816367 0.09294514 0.068452075 -0.054700546 -0.22788991
0.17814495 0.08142691 -0.20445386 0.08709905 -0.11816373 -0.11363006 0.0830769 0.13322867
-0.11793386 0.21304785 -0.01949525 0.01915736 0.15523408 -0.29536813 -0.100931704 -0.1109025
-0.2586732 -0.13498704 -0.012010102 -0.029158978 0.15913157 -0.11167201 -0.15538958 0.17170727
0.019810682 -0.26182833 -0.09203531 -0.29717615 -0.059726138 0.1728527 -0.1666886 -0.010810739
0.2670336 0.16746363 0.26909983 -0.02950338 0.19805627 0.14154585 0.1035235 -0.13984656
0.020141343 0.19684446 -0.235163 -0.19728169 0.14384271 0.19694752 -0.27928865 -0.030017596
0.17586382 -0.15850303 0.25011694 0.1385278 -0.052111663 0.12881021 -0.09051883 -0.25562656
0.10952608 0.14129728 -0.14623807 0.0008357771 -0.027381487 0.19835196 -0.061733034 0.119404025
0.09503039 -0.17203589 -0.0005805561 0.08099454 -0.038489524 0.24584144 -0.141456 0.041990913
-0.0710302 0.167132 -0.07782394 0.11937125 0.1833283 -0.22464076 -0.04314117 0.021295384
0.060839634 0.15701559 -0.16988839 0.18871345 0.17468801 0.20220317 -0.1997305 0.04549957
0.08303527 -0.016642114 0.25864813 0.18545222 0.03625324 -0.11991387 0.10473467 -0.07013747
0.1762638 -0.17427249 -0.024844462 -0.060125 -0.1605318 0.2543321 -0.23929133 -0.04014414
0.26309875 -0.24530944 -0.20127976 -0.1862541 -0.17386259 0.20253983 -0.162525 -0.1886885
0.23295867 0.11327672 -0.026353216 -0.054160286 -0.23519124 0.09236311 -0.17743869 0.14276019
-0.15096784 -0.23472847 0.036838483 -0.011335544 0.03380164 0.17202076 0.04321551 -0.24376878
-0.1195299 -0.20307034 0.21259882 0.21324359 0.21192516 0.13016531 -0.12264951 -0.18621397
0.116122395 -0.035210185 0.16089766 0.18849796 0.33253154 0.14755447 -0.19139755 -0.15766865
0.18103245 -0.0066804183 0.27092478 0.030957997 0.10332409 0.058204528 -0.23187809 -0.17630646
-0.2749818 -0.18813555 0.12715624 -0.23510505 -0.107221015 -0.039045237 -0.026497524 -0.17362475
-0.08190034 0.19936658 0.04172221 0.23328088 -0.12242508 0.20787868 -0.038468078 -0.010601508
-0.1271373 -0.23674011 0.08346886 -0.24751186 0.0018817964 -0.09244762 -0.11371209 0.10015652
0.13721748 0.1285588 -0.03400194 -0.1159763 -0.19482997 0.1186642 -0.07542264 -0.13439958

Model.audio_subnet.linear_2.bias f4 [16]
00000000: 0b41 5ebe a567 293e 50d5 2cbe 0470 3c3e
00000010: 265f 15be 9264 36bd 1512 2fbe f27c 4b3e
00000020: 1665 f3bb 8ee0 683e 88c4 54bd d644 fe3d
00000030: d419 18be ca78 9fbd d25c 233e 1d8c 9abe
-0.217045 0.16543444 -0.16878247 0.18402106 -0.14587077 -0.044529505 -0.17096741 0.19871882
-0.007427822 0.22741911 -0.05194524 0.12415473 -0.14853603 -0.077867106 0.15953377 -0.30185023

Model.audio_subnet.linear_3.weight f4 [16, 16]
00000000: e044 f33c a0c3 07be 065c e0bb 2394 41bd
00000010: bd76 583e eb7b 553e f43a 08bd 9b9d 42bc
00000020: 203f 4dbe 9367 bb3d e03d 3abe b6d4 96be
00000030: a410 02be 8a65 3b3e ad7b cdbd 4878 103e
00000040: c734 323d 433a 6ebe 3ac6 54be 83b7 e2bd
00000050: fef2 5d3c dc47 553e 6dc2 a73d 04f2 9dbd
00000060: 16b7 453e 056a bc3c 7bc4 563e e460 45be
00000070: ba96 14bd 0a98 29be e552 993d c96b 253c
00000080: 2eb8 813e a164 e8bd bdd5 e93d dc43 1f3e
00000090: b690 8fbd 9abe de3d 29d8 b03b 71c8 143d
000000a0: e39c f93d 7a1f 5dbd 1b73 583d f535 68be
000000b0: e5b9 203e 4fad 7b3e 8a71 183e 7286 11be
000000c0: b1d5 5a3d 6e5c 283d 6255 453e f49f 063e
000000d0: e36e e33d ce7c 11be 61f2 2c3d 4719 bbbd
000000e0: eba2 b3bd 59ae 973d cb5b 4d3e 2fd3 1abd
000000f0: 2312 f8bd 5703 503e 0199 2dbe 5aef 463e
00000100: 2c6d 4cbe 1e40 79be cb12 17be ae79 303d
00000110: 9588 8cbe 8708 ec3d d9a5 86bd 5b8e 77be
00000120: d6d2 1ebe fc68 7e3d 53c8 1dbe caa1 7c3e
00000130: 77df d53d 7b10 42be 7468 34bd 62f7 433e
00000140: 902b 7ebd 7cc5 143e 06e1 8fbd 5c92 353e
00000150: 2665 6dbe 4b7a 4c3e 1132 12be bfd7 babd
00000160: 91e1 7dbe c815 dfbd bbac 533d 3464 413e
00000170: a222 a53d 8802 043e c425 90bd 6fe4 a33c
00000180: be04 343e 9990 5bbe d8e9 5a3e 358d ca3d
00000190: b0bc 403c 1786 643e 93fe d13d 4d63 123e
000001a0: 7f75 a03d 87b9 a9bd 6535 a03c ab52 a63c
000001b0: 26bf 813e a222 35be 507a 833e a871 0d3e
000001c0: 5768 103e 000d e93d 86b0 28be 3745 ae3d
000001d0: f1f6 f2bd 9ef6 da3d 9d61 a0be cf80 a53c
000001e0: d3da 58be e921 863e f8f9 1cbe 45f4 0bbe
000001f0: 7123 93bd 3f5e 6dbe c10a 5f3e 7d3d 64be
00000200: 063f 99bd bc13 ac3d 2c24 e5bd d7f9 7f3e
00000210: 17f5 0dbe 127f a03d a93b f93d 0828 d7bd
00000220: 36b8 7bbe 4a2b 073d ab67 3cbe a944 0bbd
00000230: 8bd2 033e 01f1 9fbe 49ce 693e 51e8 d53d
00000240: bcbf 19be ceb1 ae3d 8f48 6bbe fe7d 4ebe
00000250: ffa6 0fbe a340 91bd 30e5 2a3e 02e2 713d
00000260: 37a2 a2bd 4a3e 95bb 86c9 763d a583 5abe
00000270: ccef a33d 6301 27be 9580 903c 7d2c d9bd
00000280: 3223 84be 4df5 a23e 14b3 13be d7f1 05be
00000290: 5cfe ffbd 8712 6f3e c10c c13d df78 44bd
000002a0: a545 233e 4923 b8bc 36d3 8b3d 97fe b53b
000002b0: 89e7 203e 57a9 d1bd 257e 9d3d 1846 cabd
000002c0: 18b5 353e 2daf 10be 4488 fb3d 331a 91bd
000002d0: d138 eabd 1faf 45bc 55a7 39bd e60e 9fbd
000002e0: 5964 26be 543a 36be 58f9 ecbd 2364 803e
000002f0: b941 33be 3487 2c3e cd3e 0abb 7159 9a3d
00000300: 32a9 073c 4d4b 593e 2f88 983e def7 07bd
00000310: 97e2 f6bd d1b4 183d 7f2c 26be 0495 54be
00000320: 1039 54be 7d4b 1b3e c225 21bc 872d 9bbd
00000330: bddf 1d3e 43b4 163e 1edf da3c 6380 42be
00000340: 208f 54be a54e 09be 153c 8ebd 2d44 acbd
00000350: 9dc7 93bd d98a dd3d 60da 483c 9b37 023e
00000360: 932f a43d 68ae 22be d4ef 36be e5b8 9c3c
00000370: e19e a6bc 0c81 843e a106 48be f2ac 5c3e
00000380: 22be 10be 902b 01bd b4a1 01be f77c b9bd
00000390: 3e0b 053e 8525 4f3e d4be 163e 1744 5ebc
000003a0: e4d7 77ba d19d 81be da5d 3b3e ac8e 8d3d
000003b0: fcf3 8dbc 4bc3 db3c cb20 123e edc4 143e
000003c0: 723e 00be 7ea8 bebd 540e 183d c3f8 da3d
000003d0: 1d95 42bd 3d81 343e a16f a53b daaa 543e
000003e0: a932 29be f50b 483e 352c 3f3e be72 2d3e
000003f0: 1265 5c3e 008c 523d e984 1abe 9178 de3d
0.029695928 -0.13258219 -0.0068469075 -0.047260415 0.21139045 0.20848052 -0.033259347 -0.011878396
-0.20043612 0.091506146 -0.18187666 -0.2945916 -0.1270166 0.18300453 -0.10033355 0.14108384
0.043507364 -0.23264413 -0.20778742 -0.11070158 0.013546703 0.20828193 0.08191381 -0.077121764
0.19308123 0.022999773 0.20973389 -0.19275242 -0.036276557 -0.16561905 0.07486514 0.010096499
0.2533583 -0.113473184 0.114177205 0.1555323 -0.07010023 0.10876198 0.005396862 0.03632397
0.12188127 -0.053985097 0.052844148 -0.22676833 0.15695913 0.2457783 0.14887062 -0.14211443
0.05342645 0.041103773 0.19270852 0.13146955 0.11105134 -0.14207765 0.042223338 -0.09135681
-0.087713085 0.07406301 0.20054547 -0.037799057 -0.12112834 0.20313774 -0.16952898 0.19427243
-0.19963521 -0.24340865 -0.14753263 0.043084793 -0.27447954 0.11525064 -0.06574602 -0.24175398
-0.15510115 0.06211184 -0.15408449 0.24671093 0.10443013 -0.189516 -0.044044927 0.19137338
-0.062053263 0.1452846 -0.07025342 0.17731613 -0.23183116 0.19968526 -0.14276911 -0.091231816
-0.24793078 -0.10892826 0.0516784 0.1888588 0.08063246 0.1289159 -0.07038453 0.020006387
0.17579934 -0.21441878 0.21378267 0.09890214 0.011763737 0.22316776 0.10253634 0.14295693
0.078349106 -0.0828734 0.01955671 0.020303091 0.25341147 -0.17688993 0.25679255 0.13812888
0.14102302 0.11379433 -0.16473588 0.085092954 -0.118635066 0.1069157 -0.31324473 0.020203022
-0.21177225 0.26197746 -0.1532973 -0.136674 -0.07184494 -0.23180483 0.21781446 -0.22289081
-0.07482724 0.084022015 -0.1118854 0.2499765 -0.13863026 0.07836737 0.121695824 -0.10505682
-0.2458199 0.033000268 -0.18398921 -0.034001026 0.12873285 -0.3123856 0.22832598 0.104447015
-0.15014547 0.08530007 -0.22976898 -0.2016525 -0.14028548 -0.070924066 0.1668899 0.05905343
-0.07941096 -0.0045545446 0.06025078 -0.21339281 0.08004722 -0.16309123 0.017639438 -0.106041886
-0.25808102 0.31827775 -0.14423782 -0.13080536 -0.12499687 0.23346911 0.09426261 -0.047966834
0.15944536 -0.022477763 0.06827395 0.005554031 0.15713324 -0.10237377 0.07690076 -0.098766506
0.17744863 -0.14129324 0.1228185 -0.07085075 -0.11436618 -0.012065678 -0.045325596 -0.077665135
-0.16249217 -0.17795688 -0.11570996 0.25076398 -0.1750554 0.16848451 -0.002109456 0.07536591
0.008280085 0.21220131 0.297914 -0.03319537 -0.12054937 0.037281815 -0.16227911 -0.2075997
-0.20724893 0.15165515 -0.009835662 -0.07577043 0.1541738 0.14717202 0.026717719 -0.18994288
-0.20757723 -0.13408907 -0.069450535 -0.08411441 -0.072158076 0.10817499 0.012259096 0.12716524
0.080168866 -0.15886843 -0.17864925 0.019131133 -0.020339431 0.25879705 -0.19533779 0.21550348
-0.1413503 -0.031535685 -0.12659341 -0.09057038 0.1299257 0.20229156 0.14721233 -0.013566039
-0.00094544725 -0.25315717 0.1829752 0.06911978 -0.017328255 0.026826521 0.14270322 0.14528246
-0.12523821 -0.09309481 0.03712304 0.10691979 -0.047505487 0.17627425 0.0050487076 0.207683
-0.16523232 0.19535811 0.18669207 0.16938302 0.2152293 0.051403046 -0.15089764 0.1086284

Model.audio_subnet.linear_3.bias f4 [16]
00000000: f34e 133e b41b 8d3d 85d7 433e a675 593e
00000010: f947 893e adcd 863e 922e d83d a70f ab3d
00000020: 5fbf 803e a761 e33d a207 92bd 06d9 253e
00000030: b42a 693e 1889 50bd bff7 78bc 5e8b c63c
0.14385585 0.068900496 0.19125183 0.21236286 0.26812723 0.26328793 0.105557576 0.08352595
0.25146005 0.1110261 -0.07130362 0.16196069 0.22770196 -0.050911993 -0.015195786 0.024236377

Model.video_subnet.norm.weight f4 [35]
00000000: 0ee6 6d3f af67 7f3f a864 853f a33e 813f
00000010: 8cbe 813f e1d9 823f 8b07 823f db69 7d3f
00000020: a25b 853f 3b07 873f e4f2 773f 4a68 7f3f
00000030: 2083 773f e445 723f 8cd8 7d3f 47cf 723f
00000040: b03c 863f 1534 813f 0c42 6b3f 23f6 883f
00000050: e7cd 843f 026c 773f 094b 893f 53cb 853f
00000060: fc07 863f bce4 803f 9e69 853f a8d1 803f
00000070: d498 713f 476d 7d3f 9426 883f 66de 713f
00000080: e5cd 7a3f f900 7f3f 9839 803f
0.9292916 0.99767584 1.0421343 1.009724 1.0136275 1.0222741 1.0158552 0.9898965
1.0418589 1.0549082 0.96854997 0.9976851 0.96684456 0.94637895 0.9915855 0.9484753
1.048727 1.0094019 0.91897655 1.0700115 1.0375336 0.9664918 1.0726024 1.0452675
1.0471187 1.0069804 1.0422857 1.0063982 0.9437382 0.9899487 1.0636773 0.9447998
0.9797042 0.9961086 1.0017576

Model.video_subnet.norm.bias f4 [35]
00000000: 5292 b8bb 1fbe 99ba ea4e 913c 5b7e 093d
00000010: e70b e4bc 71be df3d 6eb7 1dbd 9fec 2bbb
00000020: fcd9 943c cdec f3bc 08d2 d53c c9a8 eabc
00000030: 0da4 b33c 8006 ae3c 3ad6 87bb 0e44 0f3d
00000040: f0e5 b3bc 2bd5 d83c 1841 61bd d4bf b73b
00000050: 099b 9639 7ed7 e1bc 0efa f1ba 67a6 be3c
00000060: fd7b 7cbc e982 953c 7fb2 463c 3afd ccbc
00000070: 2f88 aebc 7c57 d73c 8c4f e13c e95b bfbc
00000080: c22c 523d 89bd 913c 2d74 8c3d
-0.005632677 -0.0011729634 0.017737824 0.033567768 -0.027837707 0.10924996 -0.03850501 -0.0026233566
0.01817035 -0.029776001 0.026101127 -0.028644936 0.021928811 0.021243334 -0.004145411 0.03497701
-0.021960229 0.026468834 -0.05499372 0.0056075845 0.0002872574 -0.027568575 -0.0018461363 0.023272706
-0.0154104205 0.0182509 0.012127518 -0.025023092 -0.021305172 0.026286833 0.027503751 -0.023359256
0.051312216 0.017790573 0.06858096

Model.video_subnet.norm.running_mean f4 [35]
00000000: b44a 663e fc1e ca3d 8c3b ad3e b09a 853d
00000010: 506d b53d 5a91 2a3f 41ef c33d 3047 b43d
00000020: 1071 093e 8ef6 883d 1e40 273e daf3 f23e
00000030: 2ee1 013e 0075 3e3e 6282 d23e 7125 f53e
00000040: 23ed 653e 3048 413e 4d7b 3b3e 7b41 513e
00000050: 720a 873e 043c 9d3d 3ea1 693e aade c03d
00000060: 9c2e 803d f487 b43d 376a 993d 788d 3e3e
00000070: 07d8 713e 4771 e83d a630 133d 55b2 533e
00000080: ee30 2f3e c8f8 a23c 946c 453e
0.22489434 0.09869191 0.33834493 0.06523645 0.0885874 0.6662804 0.095671184 0.088026404
0.13422036 0.066876516 0.16333053 0.4745167 0.12683555 0.1859932 0.411151 0.47880128
0.22453742 0.18875194 0.18308754 0.20435135 0.26375157 0.07677463 0.22815415 0.0941747
0.0625889 0.088149935 0.07490962 0.18608654 0.23617564 0.11349731 0.035935067 0.20673497
0.17108509 0.019894019 0.192797

Model.video_subnet.norm.running_var f4 [35]
00000000: d80d 513c f87c 1c3b 3bb6 3d3e c30a 7c3a
00000010: ef6e 303c 2ff8 4a3e 357c 213b 2fd5 673c
00000020: e1ce a53c 3629 dd3b 97f2 c93b 16dc 2a3d
00000030: 2bd4 3a3b c108 e93b 6387 c13c 3007 0f3d
00000040: a11b fd3b fea6 c83b 947d ef3b 54c7 223d
00000050: 39df 173d 6aa7 243c 78bf 1f3d fe63 7e3b
00000060: 24d4 f63b d2aa 423c 9f0e 0c3c 8259 123c
00000070: ec35 393c eed0 6c3b 71eb 9b3b ac17 d43b
00000080: 61b9 903b ff32 2c3a 599b a93b
0.012759648 0.0023878198 0.18526547 0.0009614641 0.010768636 0.19821237 0.0024640684 0.014149948
0.02024025 0.0067492975 0.006162952 0.041713797 0.002850781 0.0071116393 0.023624128 0.034918964
0.007724241 0.0061234226 0.0073086713 0.039740875 0.037078116 0.01004968 0.03900096 0.0038816924
0.0075326134 0.011881547 0.008548408 0.008932473 0.01130436 0.0036135274 0.0047582914 0.0064725485
0.00441663 0.00065688783 0.0051759896

Model.video_subnet.linear_1.weight f4 [64, 35]
00000000: f135 853d 4afd 06be 4701 3c3c ccee aabb
00000010: da8c fb3d c2fe 2bbc 7483 173e fcfb db3c
00000020: 5dd4 c73d 5b80 e83d 9402 5ebd 8395 b83d
00000030: 749b b53d 9b46 043e 3457 0f3e 1e21 fc3d
00000040: 1778 77bd 9e79 d8bd b454 7d3c 7b9d 24be
00000050: 70e9 d1bd ba3a 22bc b20d 0e3e 1990 2abd
00000060: 177a c53d 6dcf 253e 3bb0 843d 5b7f a93d
00000070: 1457 5a3d 321b dfbd b4b9 1e3d eca2 1abe
00000080: a19a e33d bdfd 183e 36ab 763c ed2e d53d
00000090: c78c 5b3b 8f51 f83d 879c 53be 09b3 943d
000000a0: cbbf d0bd 31f3 d63d 0b82 47bd 9b93 43bd
000000b0: 1bd8 903c 7e2d e6bc bc3e 0ebe 3e03 0cbd
000000c0: 0127 11be e31e a13c 6fe5 18bd 839c 0ebe
000000d0: ae4b 8bbd edbf a63d a05a 96bd 08d1 43bd
000000e0: 60d2 723d bbcb 11bd 8874 23be 383e 3b3e
000000f0: c122 e73c 7b2a 22be 1118 fcbd 7fcd f93d
00000100: 2c80 f1bd 2178 293d 6786 2f3d c17b 3b3b
00000110: 21f4 aa3d 8786 6cbd 7227 87bd 04e4 d73c
00000120: afc0 f03d 1741 2fbe 7cd6 c63d 7654 03be
00000130: b4e7 a43c 1d96 b5bb 71f4 c4bb c46d bf3d
00000140: c1e9 593b 41a6 afbc 07ad debd bed0 573d
00000150: 733f 0f3d 623a 0bbe 57c6 963b 2b6a ecbb
00000160: 83e6 d3bd 4058 1c3e 95d5 19be 5657 1bbb
00000170: 89db cdbd 8063 a23c ed7f 8cbd 1eff 06be
00000180: d75c 57be e95d a13d 07f2 a03c f117 bdbd
00000190: 4058 543d 616b 963b 7c5e d43d 2a78 a23d
000001a0: 534f 3fbc 55c6 d7bd 1877 03be 9f7c 24be
000001b0: 7ddd 3d3e 4030 bfbc b561 8cbd 0d8d a73d
000001c0: 8920 0d3e bc6f a7bd 0f31 11be 453d 2abc
000001d0: 84f1 153e d80b 1abe e3c6 96bd 1912 bdbd
000001e0: 3da6 37bd 7843 46bd 9fa9 0d3e ddb6 fb3a
000001f0: 0451 32bd 5a1a 6c3e aa88 ca39 855e 41bd
00000200: cfd0 6e3d efc0 723d 2744 193c 43e9 1bbe
00000210: 9500 f0bd a676 94bd 1e74 31bd ae76 25be
00000220: 05f6 cf3d 7b3d 193e 7298 9a3d ecf8 f13d
00000230: 5ad2 ab3d bb7a dd3d 2268 263e c12e 233e
00000240: 83d9 debd 8819 52be 396a bd3d ab2f b5bd
00000250: 86b0 fa3d c945 c7bd 58f4 113e ea3d 073e
00000260: 771e bd3c 1926 37bd 6de6 db3c edb1 0c3c
00000270: 4a2e 1f3c 1a98 38bc a4ac fc3d 67ef 313e
00000280: 1ff4 b3bd 3a84 0ebe e415 ba3d f826 873d
00000290: e56c 103e 42cc 1ebc 2f3c 553d d3ab 083e
000002a0: a669 cbbd a98a 4e3d 473b d4bd 1718 c0bc
000002b0: 7702 183e 71e5 86bd 8c4d 523e 415c 023e
000002c0: 3324 8cbc 1e97 afbb 7c8d b5bd a707 4d3c
000002d0: 6218 43be 32f8 bcbd 7678 1a3e 9df7 fabd
000002e0: b24a b03d 136d 89bd f251 2abd b91a 7dbd
000002f0: cd47 d2bd 8f3c f73d ddb7 08be f50f c4bd
00000300: e2f3 833d d88c 99bd 403b 443d d16f cc3d
00000310: ef71 12be a601 19be 3fb2 c9bd ae3d f6bd
00000320: 7e86 2b3d 122c 95bd e79d dd3d eab0 073d
00000330: 7dc5 c63d 5924 093c 92c0 f1bd a230 873d
00000340: b50c 0d3e 33a1 f8bd 3f7a 543d 5cef 133e
00000350: aa0a 33be 6559 49bd 2c3b 513d efcb 1ebe
00000360: 166c 183d ec66 4dbe e4ee b2bd 269f ffbc
00000370: b6f6 073e 0a8c 33be 5ee8 36bd b668 2dbb
00000380: fbd2 373d cd85 e0bd 39b4 17be 1ab4 bd3d
00000390: cb66 e3bb 0fb8 03be 6bab 2abc 6e46 e63a
000003a0: 5662 cf3d f0a9 cebd 3431 543d a6da b13d
000003b0: a4c3 6bbe 0d16 353e c864 ab3d f4a3 1ebd
000003c0: 8e52 11bd b5f5 99bc 0249 193e ea37 79bd
000003d0: 0aee c83d 25c6 2bbe acb7 ef3d 1452 20bd
000003e0: 5509 a2bd 7854 8fbc 14e5 1e3d 7d1f dabd
000003f0: 1bb5 2cbd 0f42 393e 0d24 893d 4f08 c53c
0.06504429 -0.1318256 0.011474914 -0.005216455 0.12282725 -0.010497751 0.14796239 0.026853554
0.09757302 0.11352607 -0.054201677 0.09012892 0.08867541 0.12917559 0.13998109 0.12311004
-0.06041726 -0.10570072 0.015462089 -0.16075699 -0.10249603 -0.009901697 0.13872412 -0.04164133
0.096424274 0.16192408 0.06478926 0.08276244 0.0533057 -0.10893859 0.03875132 -0.15101212
0.111134775 0.14940543 0.015055468 0.10409341 0.0033500658 0.12124931 -0.20665179 0.07260711
-0.101928316 0.10495604 -0.048708003 -0.04774819 0.017681172 -0.028097864 -0.13891119 -0.03418278
-0.14175035 0.019668048 -0.03732818 -0.13926892 -0.06801544 0.08142076 -0.07341504 -0.04780677
0.05928266 -0.035594683 -0.15962422 0.18285453 0.028214814 -0.15836518 -0.12309278 0.121973984
-0.11792025 0.04137433 0.042852785 0.0028607699 0.08347345 -0.057745483 -0.065993205 0.026353844
0.117555015 -0.17114674 0.097088784 -0.12825188 0.020130016 -0.0055415765 -0.006010585 0.09347108
0.00332509 -0.02144158 -0.10872846 0.052689306 0.03497262 -0.1359649 0.0046012807 -0.0072148046
-0.10346701 0.1526804 -0.15022881 -0.002370318 -0.10051639 0.019822836 -0.068603374 -0.13183257
-0.2103151 0.0787924 0.019646658 -0.09233082 0.051841974 0.0045904373 0.10369584 0.07933076
-0.011676627 -0.10535876 -0.128384 -0.16063164 0.18541522 -0.023338437 -0.06854574 0.081812
0.13781942 -0.081756085 -0.1417887 -0.010390584 0.14642912 -0.1504358 -0.073621534 -0.092319675
-0.04483627 -0.048404187 0.13834237 0.0019204278 -0.043534294 0.23056927 0.00038630265 -0.04720928
0.058304604 0.059266027 0.009354628 -0.15225701 -0.11718861 -0.07249193 -0.04332363 -0.16158554
0.101543464 0.14964859 0.07548608 0.11815056 0.08389731 0.108144246 0.16250661 0.15935804
-0.10881331 -0.20517552 0.09248776 -0.088469826 0.122407004 -0.09730107 0.14253366 0.13207212
0.023085816 -0.044714067 0.026843274 0.008587343 0.009715626 -0.011266733 0.12337616 0.17376481
-0.08786797 -0.13917628 0.090862066 0.065992296 0.1410404 -0.009692254 0.05205935 0.13346796
-0.0993226 0.050425205 -0.10362869 -0.023448987 0.1484469 -0.06586731 0.20537394 0.12730505
-0.017107105 -0.0053585907 -0.08864877 0.0125140315 -0.1905227 -0.09227027 0.15085015 -0.1225426
0.08607997 -0.067102574 -0.041582055 -0.061793063 -0.10267601 0.120720975 -0.13351388 -0.09573356
0.06443001 -0.07497567 0.047908068 0.09982265 -0.14301275 -0.14942035 -0.09848451 -0.12023483
0.04187631 -0.07283796 0.10821133 0.033127703 0.09705637 0.008370482 -0.11804308 0.06601073
0.13774379 -0.12140121 0.051874395 0.14446777 -0.17484537 -0.04915752 0.05108182 -0.15507482
0.037212454 -0.20058793 -0.08736971 -0.031203818 0.13277707 -0.1753389 -0.044655196 -0.0026460118
0.04487894 -0.109630205 -0.14814843 0.09262867 -0.006939744 -0.12863182 -0.010416846 0.0017568597
0.10126178 -0.10091007 0.051804736 0.08684282 -0.2302385 0.17684193 0.08368832 -0.038730577
-0.03547912 -0.01879392 0.14969257 -0.06084434 0.09811027 -0.16774805 0.117049545 -0.039140776
-0.07911936 -0.017496333 0.038792685 -0.10650537 -0.042164903 0.18091606 0.06696329 0.024051813
