pretrained_model/A1_MulT_t_pretrained_model.pth (torch, 455974 bytes, 82 tensors)

Model.proj_l.weight f4 [32, 768, 1]
00000000: 74a2 d83e 00d6 f83c 9f53 e2be 0158 683f
00000010: f397 5fbf f753 35be ac12 07bf 0f8d 8d3f
00000020: ccf0 acbe dce5 a2be 984a 51bf 5c23 dabe
00000030: fd31 c9bd 9800 023f 7d3c 6d3d b25a c73b
00000040: 0c81 253e eb2c c23f 1cb1 193f c474 373e
00000050: 854a fe3d 6af3 913e a838 b13e edaf 1ebd
00000060: 0204 173f 6804 9bbe 8a5a 013d 2b49 2fbe
00000070: 06f9 d43e e735 babe e525 c0be 4e12 603f
00000080: 9bdf 28be 4828 afbe 2fa9 63bd 0d67 cbbe
00000090: 8fcd 08be 7b7b 04be cb15 cbbe 5035 65be
000000a0: 2f9e 35be 1da4 35bf dd88 3ebe 6808 7c3e
000000b0: d8a2 8a3e c203 723e 72d3 b9be e47f 3dbe
000000c0: d2cf ff3e db56 c3bd 51c3 0f3f 7835 e33e
000000d0: a61e eabe 5472 42bf d45d 15be 6e3f ff3e
000000e0: 75fc c03e 45a6 cbbe f9d1 3a3f 09ed 29be
000000f0: a120 343e fabe 41be 0e0d 913e efa3 363d
00000100: d33b c7be 85d2 9b3e 3c8f 9c3f 7462 ab3e
00000110: 3a3d 6abe d342 83be 5c0a 54bd 2f8b 5fbe
00000120: b117 0cbf 04e3 5dbf 7c1e 413f e797 d93e
00000130: 13f6 a83e d6c9 90be bfea de3e 10a6 87be
00000140: d7f8 1abf cdd5 92be 64e6 b5be abce ef3e
00000150: 1fa3 12be 93ed aa3e e3db 5abe b2ee 75bd
00000160: 2029 b9be 1cf0 cdbe d514 d03d 084c 2dbe
00000170: 2441 733e e172 1d3f ab05 893e 6ace fabe
00000180: 2c07 ccbe e942 4abf a644 a6be e7fd 6e3f
00000190: 4c55 9ebe d55d 8dbe c188 4ebf 8008 2cbd
000001a0: b136 43be 0a09 833e e656 e9be ae45 7d3e
000001b0: 9b62 f8be 4785 c1be d38e 9e3f 9ffa 95be
000001c0: c50a 05bf 869e 89bf f542 e5bd d306 25be
000001d0: a330 0cbf 9916 c33e 0c2f 033e eb39 ecbd
000001e0: 1b14 543e 71bf 8a3e 2587 9b3f 2238 4e3f
000001f0: f4e2 2f3d 8d53 3fbe 3161 abbf 1c62 95be
00000200: 873f 43be 2be5 2f3f ec63 ad3e d634 e5be
00000210: 6eae da3e b3bf f23e 75a6 66bf a9ac 21bf
00000220: 598c d0be 65c0 2fbd 6afb 4bbe d38e 16bf
00000230: 494b f6bd 6c24 823e 09e9 51bf e0ee c93e
00000240: 1b37 253f 74ef 90bf c49d 513e 59a9 7dbe
00000250: 556f 143d 1e0a 673e 04c1 96be bba2 67be
00000260: 6069 b5bd 42a7 4bbf cc77 3bbe ca67 00bf
00000270: 1d2a 0e3f 8bcc 1bbf c626 fd3d c1fa 02bf
00000280: 78e1 aebe 2cca 413e e869 64bd 8af2 bb3e
00000290: 9e7e 0b3f 6da2 83be 9053 68bf 204b 10bc
000002a0: c376 7dbf 0028 993e 1bd7 16bf 7078 a43e
000002b0: 7bcd a8be 9a5f b53e 2cc8 91be 9b42 d13e
000002c0: 6944 bebe 9fbd d0be b62e 6e3f d87f 76be
000002d0: 1b97 fd3e 7716 813e 35b3 643d 930d 83bf
000002e0: f5bc ab3e 114e eb3e 06eb aa3e 0bfc 34bf
000002f0: 0ac3 0bbf b00e b83e fc8b a1be 3f29 b73a
00000300: 8185 443e d3db 043f f27d 8cbe 29bb c9be
00000310: fb7e 4d3c 1227 8ebe 2709 e63e 3b72 943d
00000320: b326 8d3e 400e c73e bb51 c53f fada 973f
00000330: a70d ac3e 55ca 33be 5670 1dbf c119 d8be
00000340: 2066 90be f35b bcbe 2044 45be 2fae 6e3e
00000350: 2ae9 b5be bd1a 30bf f127 bfbe dfff 2dbf
00000360: 1aef 91be 5a96 633e 6ace d73e dfb8 cf3e
00000370: e487 103f 2fca 51bd f36e b1be 2385 0e3e
00000380: 8942 9a3f 508f 51be 6e4f cb3e e1c2 223f
00000390: 6a11 263f 12b8 503e 0b14 9d3e 4452 35be
000003a0: 8756 89bf 3ad8 c83e 15de 30bf cee8 17bf
000003b0: de72 4f3e 4ee7 bdbe f7ba 30be 0d57 403e
000003c0: d458 f8be fed9 ac3e fe09 a83e 5a31 69be
000003d0: 3f86 eebe 8206 4ebf 21b9 48be 80fe f5be
000003e0: e7a1 97be 021f bb3e 2595 b83e 367f 9dbe
000003f0: 12ad ea3e 1391 9c3f 5ca7 a2bd 2839 a9bd
0.42311442 0.03037548 -0.44204423 0.90759283 -0.8734123 -0.17707811 -0.52762866 1.1058673
-0.33777463 -0.31815994 -0.81754446 -0.42605102 -0.09823988 0.50782156 0.057919014 0.00608381
0.16162509 1.5169958 0.6003587 0.17915636 0.12416557 0.28506023 0.34613538 -0.038741995
0.5899049 -0.302768 0.031580485 -0.17117755 0.4159624 -0.3636925 -0.3752891 0.8752793
-0.16491549 -0.3421042 -0.055581268 -0.3972706 -0.13359664 -0.12937729 -0.39665064 -0.22383618
-0.17736124 -0.7095354 -0.18606897 0.24612582 0.27077365 0.23634246 -0.36294132 -0.18505818
0.49963242 -0.09538051 0.56157404 0.4437673 -0.45726508 -0.759557 -0.14586574 0.4985308
0.3769261 -0.3977529 0.7297664 -0.16594328 0.17590572 -0.18920508 0.28330272 0.044589933
-0.3891283 0.3043405 1.2231212 0.3347355 -0.22874919 -0.2563692 -0.051767692 -0.21830438
-0.5472365 -0.86674523 0.7543714 0.42498705 0.3300024 -0.2827899 0.43538472 -0.26493883
-0.6053595 -0.28678742 -0.35527337 0.46837363 -0.14320038 0.3338438 -0.21372943 -0.06004209
-0.36164188 -0.4022225 0.101602234 -0.16923535 0.23755318 0.61503416 0.26762137 -0.48985606
-0.39849222 -0.79008347 -0.3247425 0.93356174 -0.3092445 -0.2761065 -0.8067742 -0.042000294
-0.19063832 0.25592834 -0.4557411 0.24733612 -0.4851273 -0.37796995 1.2387336 -0.2929277
-0.5196956 -1.0751503 -0.11194412 -0.16115884 -0.54761714 0.38103178 0.12810916 -0.115344845
0.20710795 0.27099183 1.2150618 0.805544 0.04294105 -0.18684216 -1.3389035 -0.29176414
-0.19067203 0.6870906 0.33865297 -0.44766873 0.42711204 0.4741188 -0.90097743 -0.63154083
-0.40732077 -0.04290809 -0.19920126 -0.5881168 -0.12026078 0.25418413 -0.8199621 0.3944006
0.6453721 -1.1323075 0.20470339 -0.24771632 0.036238987 0.22562453 -0.29444134 -0.2262067
-0.08857989 -0.7955209 -0.18307418 -0.5015837 0.5553301 -0.6085898 0.12360911 -0.5116387
-0.34156394 0.18924779 -0.055765063 0.3670848 0.5449008 -0.2570986 -0.90752506 -0.008806974
-0.9900934 0.2991333 -0.58921975 0.32123137 -0.3296927 0.354245 -0.28473032 0.40871128
-0.37161568 -0.4076967 0.93040025 -0.24072206 0.49529347 0.25212452 0.055834968 -1.0238518
0.335426 0.45957997 0.33382434 -0.7069709 -0.5459448 0.35948706 -0.31552112 0.0013974084
0.19191553 0.51897925 -0.2743984 -0.39400604 0.0125424815 -0.27764183 0.44928858 0.0724835
0.27568588 0.3887806 1.5415567 1.1863701 0.33604166 -0.17557652 -0.61499536 -0.4220715
-0.28202915 -0.36788902 -0.19264269 0.23308633 -0.35529453 -0.687908 -0.3733516 -0.67968553
-0.28502733 0.22225323 0.4214967 0.40570733 0.5645735 -0.051218208 -0.3465496 0.13917975
1.2051555 -0.20464826 0.39709038 0.6357861 0.6487032 0.20382717 0.30679354 -0.17707163
-1.0729531 0.39227468 -0.6908887 -0.59339607 0.20258662 -0.37090534 -0.17258821 0.18783207
-0.4850527 0.33760065 0.32820123 -0.22772732 -0.46586797 -0.8047868 -0.19601871 -0.4804573
-0.2961571 0.36547095 0.36051288 -0.30761117 0.45835167 1.2231773 -0.079420775 -0.08262855

Model.proj_a.weight f4 [32, 74, 1]
00000000: 72c5 a3bd 5015 ec3c c20a 913d 37da c5bd
00000010: b0f4 34bc 9687 89bd 0c66 abbc a0c2 393d
00000020: ac3a 133d ab65 78bd c855 b5bc 10d9 1dbc
00000030: be0b cc3d e015 973c 8091 8f3d 4ee1 c33d
00000040: 145a e73d 9862 14bc 3072 2c3c b0f6 ba3d
00000050: 0a36 56bd 9084 cb3b 1bef e2bd 6428 7fbd
00000060: 8e7b 8abd 966f 32bd 8678 7ebd 1fae c6bd
00000070: 7a89 02bd 6ac9 dd3d be1b c83d b8c2 c43d
00000080: 64c0 c3bd e470 afbc 10bf 303d 003a 2f39
00000090: a2bc 8fbd aaa2 d43d 3417 763d 88cb 94bd
000000a0: a07d ed3c 720f 56bd c817 d63d 18af 5dbc
000000b0: 00e0 e337 54d0 543d 3a3e c03d 1087 153c
000000c0: 10d2 f7bc c5a3 63bd 54ee 21bd 4ec8 83bd
000000d0: ae57 34bd 8de5 b3bd 8422 473d de7d 93bd
000000e0: c87f f6bc 2865 f33c 405b 853c 6855 143d
000000f0: b284 963d 5aa1 883d ded0 e63d 32d0 8d3d
00000100: 34b5 57bd 1232 2dbd 505a c23b c004 e33d
00000110: 303d 9a3c 808a 773d fa56 89bd 0054 9238
00000120: 5474 babd 2281 bc3d 20b3 c8bb d0d7 663c
00000130: 80e4 983d 70b2 903c 08f7 92bc 9812 62bc
00000140: 9e64 813d dc65 fcbc 08da dc3c 3aa5 3bbd
00000150: c0a5 b73a 428b 89bd 2eed e33d 5cbc 703d
00000160: ee6f 74bd 701c 6b3d 781e dc3c 609a 16bd
00000170: a460 323d 4445 7d3d 24e3 c13d 4abe 90bd
00000180: fc32 693d c834 43bc 64c5 a9bc 2884 5bbd
00000190: b8a9 ca3d da83 34bd 7647 3fbd 5e78 ea3d
000001a0: 6425 803d 88d4 e53d 74b2 c63d f86b b2bc
000001b0: 6805 953d 480c 8f3d 10b2 70bc 3602 e33d
000001c0: 24a7 7b3d 7fdf c6bd 5c8a 653d ca5c ec3d
000001d0: 5575 9fbd 3781 9abd cc41 50bd 32e5 27bd
000001e0: f004 3fbd 660d a43d 6213 d63d 60c3 4b3b
000001f0: 8023 7eba ac2d 3e3d 50fe 613c a398 a6bd
00000200: d898 16bc b4b9 933d 4f39 c2bd d432 1dbd
00000210: 2699 bcbd 796e b7bd 2c95 893d e4d9 02bd
00000220: 5b7a 7ebd 60ae 2dbb 879a e3bd fc4e 89bc
00000230: 809b 5bbc 3190 d0bd f6a5 acbd 469e d73d
00000240: 90a5 143d 9626 a1bd d033 c63d fa10 3ebd
00000250: 99d6 dbbd 644a e83d 2d3d 88bd 4646 ac3d
00000260: 5158 64bd 1e83 10bd 2c2c adbc 3279 abbd
00000270: 90c5 053c 9630 973d 4a8b 5dbd 3c4d 0ebd
00000280: fc59 703d a016 3a3d ed51 69bd 50dd eebc
00000290: 0039 843c e8eb 803c 1e83 35bd c63c d23d
000002a0: 006c 4b3c c8ae de3d 74d6 683d e67e 843d
000002b0: aa5b 973d 7860 72bc 631c e9bd a335 7ebd
000002c0: 0037 093d e6b2 6fbd 70ab 263d 7813 ff3c
000002d0: 188e 9a3d a450 633d e8a1 20bc 8eed b43d
000002e0: 0aa7 2fbd 30e4 b1bd 1463 e1bc 0878 9a3c
000002f0: 8d13 c1bd 4c66 5a3d bd65 e1bd 008c e33d
00000300: 0cf1 8d3d b686 cdbd 2a1c 3ebd 00b7 5a3c
00000310: 8049 d3ba f9a8 91bd 5057 cbbc 7d35 60bd
00000320: 86e9 bdbd 3071 723c f4f5 d43d 3862 c6bd
00000330: 3761 95bd 5037 733d 4265 833d f228 20bd
00000340: 28d5 b13c 8417 28bd 58fb 093d fd79 a9bd
00000350: 80db 303d 02b4 e13d faa0 07bd 945d b2bd
00000360: 44b1 ba3d d599 90bd 4efe e63d 8023 d23c
00000370: 32ee a53d 4c53 b4bc 1c73 d73d c044 cbbc
00000380: b097 683c 6655 8d3d 5863 cebc 2812 7dbc
00000390: 30af edbc 54d2 0e3d e837 d13c 2cde dd3d
000003a0: 5048 4e3d 50b5 d6bd 0211 5abd 984e 793d
000003b0: a058 cfbd c4b8 aebd dcb8 d93d 48fc b5bd
000003c0: 2db9 61bd 40ae 6b3c 9047 463c ed35 80bd
000003d0: c093 ca3d fe7e ea3d 140a c03d c1fc 70bd
000003e0: f815 ec3c 30aa 94bb 44f6 3dbd 7065 debc
000003f0: a82c 52bd 7053 d43d 549d 89bd 5ccc edbc
-0.07996644 0.028818756 0.0708213 -0.09660762 -0.011044666 -0.06715314 -0.020922683 0.045351624
0.035944626 -0.060643833 -0.02213563 -0.009634271 0.09963177 0.018443048 0.07010174 0.09564458
0.11296478 -0.00905671 0.010525271 0.09129083 -0.05229763 0.006210871 -0.11080762 -0.06229438
-0.067618474 -0.043563448 -0.06212666 -0.0970118 -0.03186939 0.10829432 0.097709164 0.09607452
-0.0955818 -0.021416135 0.04315096 0.00016710907 -0.07018401 0.10382588 0.060080722 -0.07265383
0.028990567 -0.052260824 0.10453755 -0.013530515 2.7164817e-05 0.05195649 0.09386869 0.00912644
-0.030251533 -0.055576105 -0.039533928 -0.064346895 -0.04402893 -0.08784018 0.0486169 -0.07201742
-0.030090228 0.029711321 0.016278863 0.036214262 0.07349528 0.066714 0.11270307 0.06924476
-0.052663043 -0.04228408 0.0059311762 0.1108489 0.018828005 0.06043482 -0.067060426 6.977469e-05
-0.09104219 0.09204318 -0.006124869 0.01408954 0.07465458 0.01766321 -0.01794006 -0.013798378
0.06318019 -0.03081029 0.026959434 -0.04581187 0.0014011189 -0.067160144 0.11129223 0.058773383
-0.059677057 0.057400167 0.026869997 -0.036768317 0.043549195 0.061833635 0.09467152 -0.07067545
0.056933388 -0.0119144395 -0.020724006 -0.05359283 0.098956525 -0.044071056 -0.04669901 0.114487395
0.06257132 0.11222178 0.09702006 -0.02178 0.07276422 0.06984764 -0.014690891 0.11084406
0.061438695 -0.09710597 0.056040153 0.115411356 -0.07786051 -0.07544177 -0.050844 -0.040990062
-0.04663557 0.08010368 0.10452916 0.0031091794 -0.0009694621 0.046430275 0.013793543 -0.08134582
-0.009191714 0.072131544 -0.09483587 -0.03837855 -0.09208898 -0.08956618 0.067179054 -0.031946078
-0.062128406 -0.002650164 -0.11113458 -0.016761295 -0.013403773 -0.10183752 -0.08430092 0.10528235
0.036290705 -0.07868688 0.09677851 -0.04640291 -0.10734291 0.11342314 -0.06652293 0.08411841
-0.055748288 -0.035281293 -0.021139227 -0.083727255 0.008164778 0.07382314 -0.054087915 -0.034741625
0.058679566 0.045431733 -0.056962896 -0.029158264 0.016140461 0.015737489 -0.044314496 0.10265498
0.012415886 0.10873181 0.056845143 0.064695165 0.073905304 -0.014793508 -0.113823675 -0.06206287
0.033499718 -0.05852022 0.04069084 0.031137213 0.075466335 0.055496827 -0.009804226 0.088343725
-0.04288391 -0.086861014 -0.027513064 0.018856063 -0.09427557 0.053320214 -0.11005733 0.11110687
0.06930742 -0.1003546 -0.046413578 0.013349295 -0.0016119927 -0.07112307 -0.024821907 -0.05473851
-0.09273057 0.014797494 0.10398474 -0.096867025 -0.07293933 0.059378922 0.06415798 -0.03910155
0.021708086 -0.04103805 0.033686966 -0.082752205 0.04317808 0.11020662 -0.033112504 -0.08709255
0.09115842 -0.07060591 0.112789735 0.025651693 0.08102073 -0.022012375 0.10520002 -0.024813056
0.014196321 0.06901054 -0.025193855 -0.015446223 -0.0290142 0.034868553 0.025539353 0.108333915
0.05036193 -0.10483801 -0.053238876 0.06086597 -0.10124326 -0.08531335 0.10630962 -0.088860095
-0.055108238 0.014384806 0.012102023 -0.062602855 0.09891462 0.11450003 0.09376922 -0.058834795
0.02881907 -0.0045368895 -0.046377435 -0.027147979 -0.05131212 0.10367477 -0.06719461 -0.02902811

Model.proj_v.weight f4 [32, 35, 1]
00000000: c415 20bd 1874 933d 1181 0abe 0000 c1b9
00000010: f030 003d 0011 b6bc 246f 06bd e846 a8bc
00000020: b0dd 0dbc c002 fe3d 66d3 eabd 3830 1c3e
00000030: 9d67 c3bd 8cf7 c43d 046c e33d a244 f0bd
00000040: c8b1 1d3e 9ccf 21be dc01 b53d ac59 f83d
00000050: b940 2bbe 5000 be3d 3092 de3c b8ac babd
00000060: baac 37bd 988d 07be d221 2a3e 8005 683d
00000070: 98de aebc b0ca 563d 34e9 c63d c0ca c53c
00000080: 4670 2c3e c866 ed3d 7446 6fbd 2829 18be
00000090: dce0 053e a821 cdbd 60cb 1d3e f821 2b3e
000000a0: 22bf 0f3e 8111 18be 2acd 54bd 6827 bc3c
000000b0: 6039 543c e883 bc3d dc04 ba3d 6f43 bdbd
000000c0: 2c6b e43d 20b4 6fbc 3ce0 553d c068 623b
000000d0: 3857 d13d 9460 1c3e d839 0bbe 5caa 2a3e
000000e0: 24dc 85bd ec39 a1bd fc95 163d d80c 193e
000000f0: 2e6d b7bd 5e3a 233e b6cd 9cbd b303 9fbd
00000100: d4f9 0ebe 880d 223d f49d a23d 480e d73c
00000110: a2a8 dbbd b8b1 5bbd 0244 09be f031 38bc
00000120: c03a ba3b f029 7e3d 79be acbd 8d2a 82bd
00000130: 22ee f6bd 809c 863c f0b8 b0bd b030 33bc
00000140: 8461 1dbe d034 a63d 0db6 cfbd 18cf 9dbc
00000150: 9234 f6bd 60f4 ebbb 542a 783d 4058 0cbd
00000160: 0896 a1bc 4033 35bc 605c e03d 5cd7 01be
00000170: dc02 273d ac05 2b3d ce8f 15be e1f5 0abe
00000180: 24b6 a4bd 4051 f13b 787c 133e 24bd 6f3d
00000190: 483b fa3d 9e93 043e 4c40 633d 86ed e7bd
000001a0: 803a c73b 24a5 f73d 28a4 8bbc 207f bd3d
000001b0: ead4 193e 4dee 24be 65a1 88bd e0a4 063d
000001c0: 902f 17be e819 203d 806e d1bc 24c6 dbbd
000001d0: a029 f6bb 38d8 acbd 80c0 71bc 1c7c bc3d
000001e0: 60d9 84bd 4036 f43b 2a64 833d 783a 053d
000001f0: b414 813d 6844 39bd 90f0 f53d 7a0d 8d3d
00000200: 6832 bcbc dfa6 adbd 380f d13c 68ad 633d
00000210: 48b7 0cbe 60fc f23c d55c c5bd 00e4 44ba
00000220: 2cae 0dbd 1c51 013e 1068 a0bc d8c0 1cbe
00000230: d066 30bc 5eca fdbd 889a ff3d 149f b6bd
00000240: be78 0c3e 009b d13b 3ad0 80bd 547c 143e
00000250: 7086 41bd fc00 13bd 9ca6 213e 6ccf 093d
00000260: ac89 873d 382d 063d a040 55bc 8c36 b33d
00000270: b37f 11be 7837 e2bd 1d2b 16be 80cc 5dbc
00000280: 0038 b13b d84f 983d 842a 01bd 3417 ec3d
00000290: 0a2a 233e dafe 07be 248e 243d 2c9e 06bd
000002a0: 66dc 103e d762 81bd 329d bfbd 00c9 de3b
000002b0: 5409 f03d 7403 07bd 44ed 7ebd 64cb 3c3d
000002c0: 4cb1 603d b8fc be3c f28d 053e d053 47bd
000002d0: 78f5 ccbc 5aae 163e b019 193e 00cb 1a3c
000002e0: 329b 0dbe f4a3 223d ec52 e03d 7c7a bf3d
000002f0: 869a 0e3e 8098 e03d 2c0b dbbd 987c 10be
00000300: bce6 2a3d 503c 40bc 4d2e 0cbe f027 283e
00000310: 42fa 5abd 2639 0cbe e4ae 443d 0065 dd3d
00000320: 60cc 4abc 580a fa3d 29b3 9cbd c696 0a3e
00000330: a0b4 193e 6825 eb3d d0b1 0dbd dc7e 4b3d
00000340: 7ce3 a43d f7c9 c3bd 046a 2a3d 3538 24be
00000350: 7c0f 0c3d 9ad1 003e 80b8 ef3a 2010 683d
00000360: 6c12 2d3d 84f2 343d a06f bbbc 18e3 e23d
00000370: 08dc c2bc f335 f8bd 80f0 96ba cc55 06bd
00000380: 6b21 eabd 1ce2 f63d d132 27be 3020 383d
00000390: f0d2 cb3c b8ab f23d fc0d be3d 3889 f83d
000003a0: 60ca c13c f249 66bd ce6d 103e 47c4 a3bd
000003b0: 04eb 113d f08e 4a3c 6118 d6bd b4a7 6a3d
000003c0: e1a8 b7bd f3f8 86bd c033 2cbd 9ff4 0abe
000003d0: 5af3 05be 9e7e 163e f078 4cbc 6a44 a33d
000003e0: eaf3 fabd 7824 d43d 0484 4cbd e083 4abc
000003f0: 2d32 e9bd be6a 2a3e fc93 263e 7890 133e
-0.039083257 0.071998775 -0.13525797 -0.0003681183 0.03129667 -0.022224903 -0.032820836 -0.020541623
-0.008658811 0.12402868 -0.11466102 0.15252769 -0.09541247 0.09617528 0.11104587 -0.11731841
0.1539985 -0.15801853 0.08838245 0.121264786 -0.16723908 0.09277403 0.027169317 -0.09114975
-0.04484246 -0.13237607 0.16614464 0.05664587 -0.021346375 0.05243939 0.09712449 0.02414453
0.16839704 0.115918696 -0.0584168 -0.1485945 0.13074058 -0.10016185 0.15409613 0.16712177
0.14037755 -0.14850427 -0.051953472 0.02296801 0.012953132 0.092048466 0.09082958 -0.092413776
0.11153254 -0.0146303475 0.0522158 0.00345473 0.10221714 0.15271217 -0.13596284 0.1666655
-0.06536129 -0.07872376 0.03676413 0.14946306 -0.08956371 0.15940234 -0.07656424 -0.077643774
-0.1396249 0.039563686 0.079402834 0.026251927 -0.107255235 -0.053636283 -0.13404849 -0.011242375
0.005683273 0.062051713 -0.08434767 -0.06355772 -0.12057139 0.016432047 -0.08629024 -0.010936901
-0.1536923 0.08115542 -0.10142145 -0.019263789 -0.12021746 -0.0072007626 0.060587242 -0.03426385
-0.01972486 -0.011059582 0.10955119 -0.1267981 0.04077421 0.041753456 -0.14605638 -0.13570358
-0.08042553 0.007364422 0.1440295 0.058529988 0.12218338 0.12946936 0.05548124 -0.11324601
0.006079972 0.12092045 -0.01704605 0.09252763 0.15022627 -0.1610653 -0.066714086 0.03287208
-0.14764237 0.039087206 -0.025565386 -0.10731152 -0.0075122863 -0.08439678 -0.014755368 0.092033595
-0.064867735 0.007452756 0.06415589 0.032526463 0.06302777 -0.045231253 0.12008774 0.06887336
-0.022973254 -0.08479094 0.025519952 0.055585295 -0.13741791 0.029661357 -0.09636847 -0.0007510781
-0.03458993 0.12628597 -0.01958087 -0.15307939 -0.0107667 -0.12392114 0.12480646 -0.089170605
0.13717934 0.0063966513 -0.06289716 0.14500552 -0.04724735 -0.03588961 0.15786213 0.03364508
0.06618056 0.032757968 -0.013015896 0.08750638 -0.1420887 -0.11045736 -0.14664884 -0.013537526
0.005408287 0.07437104 -0.031534687 0.11527863 0.15934005 -0.13280812 0.04017462 -0.03286569
0.14146575 -0.0631768 -0.093561545 0.0067988634 0.11720529 -0.032962278 -0.062237993 0.046092406
0.054856583 0.023313865 0.13042429 -0.048663914 -0.025019392 0.14714947 0.14951205 0.009447813
-0.13828734 0.03970714 0.10953316 0.09349534 0.13926134 0.10966587 -0.1069549 -0.14110029
0.04172395 -0.01173313 -0.13689537 0.16421485 -0.05346132 -0.13693675 0.04801835 0.1081028
-0.012377828 0.12209004 -0.076513596 0.13534078 0.15010309 0.11481744 -0.034593403 0.04968153
0.08051202 -0.09560006 0.04160501 -0.16037066 0.034194455 0.12579957 0.0018289238 0.056656003
0.042253897 0.044176593 -0.022880375 0.11078471 -0.02378656 -0.12119665 -0.0011515766 -0.032796666
-0.11432155 0.12054846 -0.16327979 0.04495257 0.024880856 0.11849159 0.09280011 0.121355474
0.02365607 -0.056222863 0.14104387 -0.07996421 0.03562452 0.0123631805 -0.10453869 0.05728884
-0.08967758 -0.06590452 -0.04204154 -0.13569878 -0.13081113 0.14696738 -0.012480006 0.07972033
-0.12253554 0.10358518 -0.049930587 -0.012360543 -0.113865234 0.16642281 0.16267389 0.14410579

Model.forward_l.seq.1.layers.0.self_attn.in_proj_weight f4 [96, 32]
00000000: 9c35 55be 6b05 b6be 89e2 883f 336c d93f
00000010: 6afa 0f3f c2e4 70bf a3cb 68bf 024f 8e3f
00000020: 99c3 6dbf c196 723f c92b 74bf a1fc 5c3f
00000030: 3bbf 9f3e 763d 8f3f 5017 88bf bd98 63bf
00000040: 0c85 84bf 4007 d4bf 85ad ab3f f4df dd3f
00000050: 1b19 a13f 366f 1cbf c526 97be b9cc bdbe
00000060: 3819 523f 667c 2cbf 7d0c fabf d70e 24be
00000070: 0291 63bf 6177 7b3f 3817 8abf 5ba6 793f
00000080: 3f07 80bf 7b8f 85bd 744c 39bc 48a0 b1be
00000090: d096 e9be d79b 643f 6f0d 23bf 8bf9 1c3f
000000a0: 2c08 713b 5a2a cb3d df1f 873c b196 a53e
000000b0: a21e f43e 05b2 c9be c416 8fbe 7506 b4be
000000c0: cafe d93e b4a9 cbbe f5d1 12bd 1150 423e
000000d0: 8835 d0be 5cf3 76be 62cf a2be e304 973d
000000e0: 6a74 ac3e b212 82bf 1db2 7a3d a12c e63e
000000f0: 45af f3be 64fc a23d 685b 11be ca27 84be
00000100: 0f4e 583f 7154 f23e 5de5 a7bf 0ccc 12bf
00000110: b855 3bbf b9bf 16bf 0a9b 083e 8d6e cabf
00000120: 2163 313f 2523 63bf 1c60 8d3f e7c7 b5bf
00000130: 6879 96bf 62d6 1cbf e6fe e43e 194b a23f
00000140: 815e 2a3f ba4d 073f 7cc8 91be 29fc c9be
00000150: 8330 613d 3cb3 e53f 7527 ac3f 9c25 ca3e
00000160: 2f85 40bf ab8e 613f 275f 063f f2ef 67bf
00000170: 69dc 4e3f 6240 a2bf 901e 093f 2de7 dd3c
00000180: 6953 6abf 0ff7 37bf 64c6 e53e 1e0c 99bc
00000190: 55d1 8c3f 254b 1dbf 55d2 3ebf 4385 463f
000001a0: 2b46 3abf 8a2d 463f 40d0 3fbf f82e a43f
000001b0: cb99 f13e 3c9f 633e 0239 8abe 8e62 4cbf
000001c0: 96f5 02bd 228c 73bf ba1f fe3e 32d5 183f
000001d0: 501d 8abe 508c 48bf 0243 52bf 36f1 8abd
000001e0: 3b5e a33f ddf4 03bf 67c2 38bf ff43 063f
000001f0: 2fd1 64be 547a 3a3f 6c03 dbbe aa91 033f
00000200: 6b7f 09bf 83f9 fc3d b9e0 c9be 5fb3 fb3e
00000210: 13bc d93d 3ee9 c03f 70eb 123f a8d9 c73f
00000220: f215 7fbf fb3b a73d 8b46 0dbe ce5a c43e
00000230: bd5e bd3f 2d6d 6c3f 6447 05bf e5e7 a3bd
00000240: e000 0fbf f5eb 8abe 9233 7a3e c6e5 01bf
00000250: d9f8 c1bd bf55 15bf aa8c acbf b6a0 b2bf
00000260: b4aa 3a3f 305d b1bf cd93 b6bf 3e77 413f
00000270: cead c63d b404 8b3d 6dc7 7cbe ab08 47bf
00000280: 9f1b e8be 362f 063f 8ac1 93be 3501 aebf
00000290: 3846 60bf 9354 8c3e 4d6f 22bd d98c 02bf
000002a0: 692e b73f 44f1 bdbe feea d63e e896 57be
000002b0: 79e7 d23e 9bda a4bf f39c b33e 55df 053f
000002c0: 9a67 dd3e 7814 203f 8e9c 4a3f 7469 57be
000002d0: 5f9f 8f3e 55e7 5e3e 36ed 803d 66fd 0d3f
000002e0: ec9e 6abf d3ca a03e 282b a73f cd35 673e
000002f0: 1744 5e3f b742 6dbf 5b83 f93e 4e24 57bf
00000300: e62b 0ebf 2483 33bf 88df 10bf bcf4 843e
00000310: a134 9dbe dea1 b03f bf8f 5abe 9b88 713e
00000320: 8875 643c 65a2 0cbf ca6d 003f 10fc 2f3e
00000330: c52c 4ebe bf3a 7bbe 83e9 bc3d f2c8 83bf
00000340: 965c 83be 28e1 bcbd 28e0 0a3f e85a 2c3f
00000350: 0e5f 26bf 245d aa3f c692 bc3e b476 933e
00000360: 765c 233f b198 81bc f864 e1bd e1a9 94be
00000370: 7655 96bf 2dad 60be d134 1bbe f86c afbf
00000380: 385a 6cbf e7dc f5bf e62a fe3f f1d3 2340
00000390: 8a65 1340 ae50 b0bf d549 02c0 6b75 4540
000003a0: 42db 0fc0 3651 fd3f c842 1cc0 255c 3b40
000003b0: 61a4 a33f b185 1b40 574f 19c0 d614 45c0
000003c0: fe6e dfbf 4620 2dc0 656f c53f 37b4 2140
000003d0: 820b b53f 1937 50c0 874c 05c0 2670 0fc0
000003e0: 5de5 2140 1395 f6bf 54ef 11c0 7799 c73f
000003f0: 95c0 19c0 7165 2e40 8633 d7bf 90d1 f83f
-0.20821232 -0.3555101 1.0694133 1.6986145 0.56241477 -0.94099057 -0.90935725 1.1117861
-0.92876583 0.9476128 -0.9537931 0.8632298 0.31200585 1.1190631 -1.0632114 -0.88904935
-1.0353103 -1.6564713 1.3412329 1.733397 1.2585787 -0.61107194 -0.29521766 -0.37070253
0.8206973 -0.67377317 -1.9535061 -0.16021286 -0.8889314 0.9822903 -1.0788336 0.97519463
-1.0002211 -0.06521507 -0.011309732 -0.34692597 -0.45622873 0.8930029 -0.63692373 0.6131827
0.0036778552 0.09920187 0.01649469 0.3234153 0.4767962 -0.3939363 -0.27947056 -0.35161176
0.425772 -0.3977791 -0.035844762 0.18975855 -0.4066584 -0.24116272 -0.31798846 0.07373979
0.33682567 -1.0161955 0.06120502 0.44955924 -0.47594658 0.07958296 -0.14195025 -0.25811607
0.8449411 0.4733005 -1.3116871 -0.573426 -0.7317767 -0.58886296 0.13340393 -1.5814987
0.69291884 -0.887255 1.1044955 -1.420163 -1.17558 -0.6126462 0.44725722 1.2679168
0.6655045 0.52852976 -0.2847327 -0.39450195 0.054977905 1.7945323 1.3449541 0.3948182
-0.7520322 0.8810832 0.5248894 -0.906005 0.8080507 -1.2675898 0.5356226 0.027087772
-0.91533524 -0.71861356 0.44877923 -0.018682536 1.1001383 -0.61442786 -0.7453969 0.7754709
-0.7276332 0.7741324 -0.7492714 1.2826834 0.47187647 0.22228712 -0.26996619 -0.7983788
-0.03197249 -0.951357 0.4963358 0.5970031 -0.2697549 -0.783391 -0.82133496 -0.067842886
1.2763132 -0.51545507 -0.72171634 0.52447504 -0.22345422 0.7284291 -0.42776048 0.5139414
-0.5371005 0.12352278 -0.39429262 0.49160287 0.106315754 1.507118 0.573905 1.5613298
-0.9964286 0.08165737 -0.13796441 0.38350528 1.4794537 0.9235409 -0.5206206 -0.08003215
-0.5586071 -0.27133146 0.24433735 -0.5074123 -0.09471292 -0.58333963 -1.3480427 -1.3955295
0.7291672 -1.3856564 -1.4263855 0.75572574 0.09701119 0.067880064 -0.2468545 -0.777476
-0.45333573 0.5241579 -0.28858596 -1.3594118 -0.87607145 0.27408275 -0.039656926 -0.50996166
1.4311038 -0.37098134 0.4197616 -0.2105366 0.41192225 -1.2879213 0.3508068 0.522939
0.43243104 0.6253123 0.79145133 -0.21036321 0.28051278 0.21767934 0.062952444 0.5546478
-0.91648746 0.31404743 1.3060045 0.22579117 0.86822647 -0.92679924 0.4873303 -0.8403977
-0.55535734 -0.7012198 -0.5659108 0.25967968 -0.30704215 1.3799398 -0.21343897 0.23587267
0.013944037 -0.54935294 0.50167525 0.17185998 -0.20134266 -0.24534129 0.09224226 -1.0295699
-0.25656575 -0.09222633 0.54248285 0.6732621 -0.6498879 1.3309674 0.3683073 0.288015
0.6381296 -0.01581988 -0.110055864 -0.29035857 -1.1744831 -0.21941061 -0.15156867 -1.370513
-0.9232516 -1.9208039 1.9856842 2.5598109 2.3030725 -1.3774621 -2.0357563 3.0852916
-2.2477574 1.9790409 -2.441576 2.927499 1.278454 2.4300349 -2.3954675 -3.0793967
-1.7455747 -2.7050948 1.542462 2.5266244 1.4144137 -3.253363 -2.0827959 -2.24122
2.5296242 -1.9264244 -2.2802324 1.5593709 -2.4023793 2.7249415 -1.6812599 1.9438953

Model.forward_l.seq.1.layers.0.self_attn.in_proj_bias f4 [96]
00000000: 851c aabe f428 1ebe 8498 683f 0ba5 323d
00000010: bd61 2fbe 652b bb3e fb3f a83e 533f 5abe
00000020: 53f4 42bf f71e 67be 886d 9c3d 4dd8 3c3f
00000030: a174 5abf 19dd 643f 4ac5 a1be 8a25 b53e
00000040: 4f8c 38bc 4284 71bf df3c 903c 83f3 29be
00000050: 45d3 173f 44a7 0bbf ee4c 483f 7a03 233f
00000060: 90b5 93bf b652 293f 059b 3fbf f170 31bf
00000070: 4dfa 123f 27b9 0d3f f770 35be b8d9 47be
00000080: b6d0 a2bf 4618 8fbe 18b9 b73e 04e1 90bf
00000090: e8ab 2740 0baa 1fc0 3874 9b3f c66e 933f
000000a0: a9da febd 7d33 75bd c332 68bc 6407 6bbf
000000b0: e9b7 adbf 7082 34bf 49a1 b9be e0a1 053f
000000c0: 852f b43f 6aae 333f c10a 893f 9793 d13f
000000d0: e627 7abf 6361 503f cf6c a5bf 91b8 7cbf
000000e0: 5530 0fc0 2fe3 033f c44a 873f ce36 e2bf
000000f0: 6821 0fbf cbb7 6fbf c650 583f 12fa 6f3f
00000100: 55cd b1be 11e1 873e c0cc 843e cdfd 95be
00000110: 3cc4 b0be 5398 36be 6978 18be 71ab 523e
00000120: 3121 7fbe a6b6 ab3e 2cda 8ebe 60e1 4ebe
00000130: 0f88 63be 4793 9bbe c209 37be e800 a83e
00000140: 50c0 803e ff96 8e3e 7ec2 823e 01a4 6cbe
00000150: 5503 133e 4a6a 2ebc 0a6e a73e 7df1 ad3e
00000160: 7294 a8be 16d4 9a3e 1bcc bf3e 3845 afbe
00000170: 3b7d 7cbe b8eb 7c3e 3188 92be aa99 47be
-0.33224884 -0.1544531 0.9085772 0.04361443 -0.17127128 0.36556545 0.32861313 -0.21313219
-0.7615406 -0.22570406 0.07638079 0.7376755 -0.8533421 0.8939987 -0.31595832 0.35380203
-0.011263921 -0.94342434 0.01760715 -0.16596799 0.59306747 -0.545521 0.78242385 0.6367718
-1.1539783 0.6614183 -0.74845916 -0.6931296 0.5741318 0.55360645 -0.17718874 -0.19516647
-1.2719944 -0.27948207 0.35883403 -1.1318669 2.6198673 -2.4947536 1.2144842 1.151818
-0.1244405 -0.059863556 -0.014172259 -0.9180815 -1.357175 -0.7051153 -0.36255863 0.52200127
1.4077002 0.7018801 1.0706407 1.6373166 -0.9771713 0.813986 -1.2923831 -0.98719126
-2.237325 0.5151853 1.0569692 -1.7672975 -0.5591035 -0.9363982 0.8449825 0.9374095
-0.34726968 0.265389 0.25937462 -0.29295197 -0.34524715 -0.17831545 -0.14889683 0.20573212
-0.24915005 0.33537787 -0.27900827 -0.20203161 -0.22219871 -0.303858 -0.17874816 0.3281319
0.25146723 0.27849576 0.2553901 -0.23109438 0.1435674 -0.0106454585 0.3270114 0.33973303
-0.32925755 0.30239934 0.37460408 -0.34232497 -0.24657147 0.24699295 -0.2861953 -0.19492212

Model.forward_l.seq.1.layers.0.self_attn.out_proj.weight f4 [32, 32]
00000000: 25cc 25bf d5c3 b13e 32cb c8bd 7bcb 2ebd
00000010: e019 fe3d cb59 52bf 2bc7 823f 0b3f 7c3e
00000020: b77f 15bf 5b1b 003e d7aa c23e 323f e93e
00000030: 7070 163f eaff 44be e893 a73d 7399 133f
00000040: 35eb 0d3f 1f70 1e3e 12e9 95be 5906 bc3e
00000050: 3449 3fbf fde0 373f bfe3 2dbf a835 5ebf
00000060: 0b9f 08bf 57d2 93be 648b c2be 2bab 38bf
00000070: 667f 77bd 88e8 683f 407c 5e3e 7fc2 61bf
00000080: fd4b 35be 0750 bd3f baf6 903e def4 3cbf
00000090: 5d00 95bf 07ff 8e3f e131 d1bf b854 673e
000000a0: 9b43 a93d d371 803f 58c8 8ebf 3bd0 8b3e
000000b0: ee47 40bf 7559 67be 53db 32bf f6e7 fdbe
000000c0: b145 aabf 9918 1c3d 4a26 883f a3ad 2a3f
000000d0: 3e89 6a3f 128c d8be 3dac 483f febe 803f
000000e0: 255d 253f e078 6c3f 910b 593f 1244 0e3f
000000f0: 30d9 353e 6da7 0bbe 5886 57bf 889c f23e
00000100: 3ab5 823e 14aa 83be 1904 023e 9761 45be
00000110: a571 573d d2de 6a3e 5992 353e 6713 0bbd
00000120: f902 6e3e 7adc 81be 0b53 17bf d3fa e6be
00000130: 43de 08bf 2f1e 143f 18ae 26bf b865 18be
00000140: d278 433f 257e 9fbe 6d26 0ebf a1b7 8fbe
00000150: a34d ac3e 8542 4cbd 19bc 483e 6f26 243f
00000160: eb18 853e 3e91 e5be 62c7 8fbd 4f34 40be
00000170: 8e6e 58be 6bd4 35be aaec ba3e f57d cd3e
00000180: e4b1 b93e c6a5 57bf 3310 11bc a561 d7be
00000190: ce1e 5f3f 3eef 033f e87c 27bf 3853 ccbe
000001a0: 99ac b33e da7e 1cbf a712 793e 05b7 7bbe
000001b0: 24b2 a93c 344d f53e 80c0 a3be b2d3 8abe
000001c0: f456 383e 2d65 52bf a305 8ebd f0dc d13e
000001d0: 040a 923e 5233 28bd d5cf 4fbd 73e3 a9bd
000001e0: f17b bfbe 835c 43bf 8c5f debe 5336 4b3f
000001f0: aee4 dd3d 8f39 ebbe fc31 f43e 12c3 c33e
00000200: 2244 32bf 339b 843e f2b5 d73e df41 0cbf
00000210: 1214 e6be 7d7d 8cbe 48d5 73bf 1bab 153e
00000220: 1939 d6bd c337 543d 8f1d b6bc 3473 6e3b
00000230: c96c 5c3e 2b64 683e 3dc9 0fbf 05c7 7bbf
00000240: ff6a e3be 80fc 03bf 0237 41be fbff b23e
00000250: 7478 0a3e 8c58 643e 8631 0fbe 090d c23c
00000260: ef38 0a3d 866a 31bf ca0c 65be 85af 393f
00000270: 033c e53e 8ada 753d 0773 7ebe 9d5a aabd
00000280: d905 7abe 9edf 953e 6dbf 19bf cd33 2a3f
00000290: cd6d 5a3f cd61 3fbf e2c4 6e3f 4468 153f
000002a0: 7f08 7fbc a564 53bd 81f1 c0bb d84e a93e
000002b0: edfc 913e 44e8 e4be dd18 383f 79f8 90bd
000002c0: 4154 173f 19fd c73e 43e4 38bf e958 ddbe
000002d0: 66db 3bbf d76e 873e d34e 86be 3dc6 14bf
000002e0: f5db 46be 1f90 b13d 0aa5 9abe 875a acbe
000002f0: 1805 3b3d 506c d53c 05c6 d1be 4507 4abf
00000300: bbe3 bfbe bb77 2a3f d58a d03e 6906 df3c
00000310: 6053 7abd 901a 85be 6214 3bbf a68d a5be
00000320: 1072 98bb 72e5 8abd 72de fd3e 9e81 343e
00000330: 98a1 533e e0ba 673e 0157 5ebd 89d4 e1bc
00000340: 9b95 31bd 8293 8e3d e0e5 89be 5d83 313f
00000350: 358a a63e 7a42 843d a796 91be fb46 b0be
00000360: 11b4 ffbe f898 af3e e278 bdbe 984b 673e
00000370: 915d aa3e 8da1 b93d 7f96 a0be ff9a 8fbe
00000380: e385 87be e7df a33e 4300 47be 1d22 a93e
00000390: f6a9 f4be d7e8 18be 8540 2d3f b33e 503f
000003a0: a5e7 c9be c9ca a83d 9812 a53d 6c83 cfbc
000003b0: e409 223f a9d1 87bf d53d 3b3f 0926 b13f
000003c0: 4c7a 8e3e 4123 e33e 9d36 013f 7ed9 a2bd
000003d0: 5642 69be 8a74 c33e 44dc c73d e971 c8be
000003e0: 4e6d a1be 8a78 e83e c7b1 863e 5302 f0bf
000003f0: 9fc8 ba3d 7eb8 c33e 781b 34bf 98a1 5ebe
-0.64764625 0.3471972 -0.098043814 -0.042674523 0.12407279 -0.82168263 1.0217031 0.24633424
-0.58398 0.12510435 0.38020965 0.45556027 0.58765316 -0.19238248 0.08182508 0.5765602
0.5543702 0.15472458 -0.2927938 0.36723593 -0.74721074 0.7182768 -0.6792564 -0.8680062
-0.5336768 -0.28871414 -0.37996972 -0.7213618 -0.06042423 0.90979815 0.21727085 -0.881874
-0.17704768 1.4790047 0.28313237 -0.7381114 -1.1640736 1.1171578 -1.6343347 0.22590911
0.08264848 1.0034736 -1.115489 0.27307305 -0.75109756 -0.22592719 -0.6986591 -0.49591035
-1.3302518 0.038109396 1.0636685 0.666712 0.91615665 -0.42294365 0.78387815 1.0058286
0.6459525 0.9237194 0.84783274 0.5557262 0.17758632 -0.13638087 -0.8418937 0.4738505
0.2552889 -0.25715697 0.12696876 -0.19275509 0.052598614 0.22936562 0.17731608 -0.03395405
0.23243321 -0.25363523 -0.5911109 -0.4511324 -0.53464144 0.57858557 -0.65109396 -0.14882553
0.7635623 -0.31150928 -0.55527383 -0.28069785 0.33652982 -0.049868125 0.19603004 0.64121145
0.25995573 -0.44837373 -0.07020451 -0.18769954 -0.21135923 -0.17756812 0.36508685 0.4013516
0.36268532 -0.84237325 -0.00885396 -0.42066684 0.8715638 0.5153693 -0.65424967 -0.3990724
0.3509262 -0.6113106 0.24323522 -0.24581535 0.020714827 0.47910464 -0.31982803 -0.27114636
0.1800192 -0.8218563 -0.06934669 0.40988874 0.28523266 -0.041064568 -0.050735313 -0.082953356
-0.37399247 -0.76313037 -0.4343227 0.7937977 0.10834633 -0.4594235 0.47694385 0.38234764
-0.6963521 0.25899658 0.42131 -0.5478801 -0.44937187 -0.2743949 -0.95247316 0.14616053
-0.10460109 0.05181099 -0.022230892 0.0036384584 0.21525873 0.22694461 -0.5616644 -0.98350555
-0.4441757 -0.5155716 -0.1886864 0.34960923 0.13522512 0.22299403 -0.13983735 0.023687856
0.033745702 -0.69303167 -0.2236816 0.72533447 0.44772348 0.06002287 -0.24848567 -0.08318064
-0.24416293 0.2927217 -0.6005772 0.6648529 0.8532379 -0.7475861 0.9326917 0.5836222
-0.0155659905 -0.051609654 -0.0058881645 0.33067966 0.2851328 -0.44708455 0.7191294 -0.070786424
0.59112936 0.39060286 -0.722233 -0.43231896 -0.7338165 0.26451752 -0.26232013 -0.5811499
-0.19419844 0.08670067 -0.3020404 -0.33662817 0.045659155 0.026052624 -0.4097139 -0.7891734
-0.37478432 0.66588944 0.4073092 0.027224736 -0.06111467 -0.25996828 -0.73077977 -0.32334632
-0.004652269 -0.067820445 0.49583775 0.1762757 0.20667112 0.22629881 -0.054282192 -0.027567165
-0.043355566 0.06961729 -0.26933193 0.6934107 0.3252732 0.06457992 -0.2843525 -0.34429154
-0.49942067 0.34296393 -0.3700629 0.2258743 0.3327451 0.090640165 -0.3136482 -0.2804794
-0.26469335 0.3200676 -0.19433694 0.3303384 -0.4778592 -0.14932571 0.67676574 0.8134567
-0.39434543 0.08241803 0.08060187 -0.025331222 0.6329634 -1.0610858 0.73141223 1.3839732
0.2782768 0.44362834 0.5047396 -0.079516396 -0.22779211 0.3817485 0.09758809 -0.39149407
-0.31528705 0.45404464 0.26307508 -1.8750709 0.09120297 0.38226694 -0.70354414 -0.2174133

Model.forward_l.seq.1.layers.0.self_attn.out_proj.bias f4 [32]
00000000: f39d 3c3e 7afa ca3e 87ac 98be 3482 c2be
00000010: a7a9 5b3e 3ff5 3bbe 87b1 3a3e a897 b83e
00000020: 206d 983e 4376 8a3e d98d 8ebe 2305 d0be
00000030: 9679 a53e e068 743e 30d9 85be ada4 b23e
00000040: bf0d 99be 78b5 b83e b071 abbe 0ea0 1bbd
00000050: 9fcd 5ebb 8e1d a13e 8221 2dbe ce93 a73e
00000060: 96f5 b3be 12f4 f63e 4eaa 2abe d446 933e
00000070: fb09 89be 33b7 84be 33a9 1cbc e630 8d3e
0.18419628 0.39644223 -0.29819128 -0.37989962 0.21451436 -0.18355273 0.18231784 0.36053205
0.29770756 0.27043352 -0.27842596 -0.4062892 0.32319325 0.23868132 -0.26142263 0.34891263
-0.298933 0.3607595 -0.33485174 -0.037994437 -0.0033997071 0.3146786 -0.16907313 0.32729954
-0.35148305 0.48233086 -0.16666529 0.28764975 -0.26765427 -0.2592102 -0.009561825 0.2757637

Model.forward_l.seq.1.layers.0.fc1.weight f4 [128, 32]
00000000: 986a 62be cb35 13bf e36a 373e 018c 0dbe
00000010: 51c7 c33e 9c1c 933e d2df 903e cd87 1cbc
00000020: 9a34 33bd 5508 10bf 8bfe 953e 6b3b f43e
00000030: 7794 363e 2a58 1abf 42fc d73d 23e1 a03e
00000040: 8e63 11be a13d d33e 00bf ac3e 741d 09bf
00000050: 65ba ce3e aab2 723c 96cc 8e3e a443 2ebe
00000060: cc9b 563e 1e90 823e 7237 c7bb fa8c 4f3e
00000070: 0be5 a03d 244b 1dbf 13b7 5fbe a645 16bf
00000080: d83f 66be 0b0b b3be b3b4 eabc 36b7 16be
00000090: 64ac 083f e2fd adbd d106 4dbd 2568 5fbe
000000a0: bf4f ee3d f005 a73e dcd8 fa3d b5a0 3abf
000000b0: ba46 68be 064c be3e 459d 98be f677 303e
000000c0: bf7c 983e 0cdd d13e d000 00be b53a 2a3f
000000d0: 6d7e ca3e 3781 553e c63f 1c3d fb40 b2be
000000e0: ffcc afbe 3205 6bbf 911f 2f3e a2fe 67bd
000000f0: e67b 87be 7ddc 9e3e ff58 05bd 5f5d 4e3e
00000100: f013 d8be a1ba 623f 0814 f43d cf0e 0fbe
00000110: 67ca a03d a111 16bf 18e1 203d 07e7 1b3f
00000120: c1eb 1b3f c4c3 84be 8501 9e3c d7c6 fc3e
00000130: 7487 cf3e 7bbd e5be b4f8 1abf 61ea 8dbf
00000140: 031a 49be 4951 933e 3e86 9e3e 46ba 9abf
00000150: b251 6c3e 017d 4abf 3881 32be dab1 a83c
00000160: 8b26 8abc 2862 853e fff7 233c e655 c93e
00000170: e125 dfbd 9ec5 71be 3c0d a6be c692 3d3e
00000180: 2e04 58bf 820f 3abe ae5b 50bf db15 c9bc
00000190: 293d 03bf 43ed 43bf 0a68 153f aded edbe
000001a0: 4b28 223f 7fc3 fa3e 3930 803e aa7d 99bf
000001b0: 2d54 07bf 1e2b cabe 3bdc bcbe 5328 3d3f
000001c0: 6a81 043f a92f 213f 726e afbe 7210 27bf
000001d0: 717b 803f 53dd 2e3f 947a a03e f7c1 4fbe
000001e0: fd2d 0bbf 8014 eb3e e71c 033f b61d 32be
000001f0: 60f1 543f 8dda 433d 3425 433f 0ef8 b3be
00000200: f14b 7c3e 8115 ad3e 6c92 113f 204d 54be
00000210: 3644 dc3e 91f1 923e 62a9 4ebe 8ca0 d7bd
00000220: 230b 06bf c0e4 493b c1da 24be eb89 153b
00000230: 1924 503e d2d2 b73e fb8f 9f3e 137d ea3d
00000240: 7f47 9e3d 6433 d53c d5aa 103f 42d7 f03e
00000250: 4286 4cbe b66d 6abe b982 1dbe e4ec 653e
00000260: e61d 9f3e 956a 75be e4af 00bd 3096 d7bd
00000270: c1a8 eebe 8835 c23e 6c82 9e3d 359b 043e
00000280: abcd 80bd 4165 04bf c9be e53e e5bd e33e
00000290: 3a4d fc3d 95f1 033f 6b23 e03d 71c7 a83e
000002a0: ddd5 bfbe ec6d 77be d362 98be 44ef 8abe
000002b0: 6a80 f63e a7d8 e93e 3dd5 cbbe d81b 583e
000002c0: 5f34 4ebe 0d38 783e 6b9c 873e e63c a2be
000002d0: 3b3f aabe 41ea 04bf 9852 e33e 5e2a d43e
000002e0: 237d cb3e ea46 3bbf 03dd 59bc 7846 c4be
000002f0: f7b8 1bbe b723 423e d0c6 0ebe 3407 01be
00000300: 324a 21bf f32f 6ebe 563d 8d3f a3bb 603f
00000310: f116 27bf 4061 203f c718 37bf 3656 5e3e
00000320: 042b c0bf e4cd 9f3e 3093 2fbe 6680 8bbd
00000330: 1564 72be 6d8a a93d 938c 2b3f 0884 29be
00000340: 3310 ac3e eb55 f0be 44c8 a43e 3c04 b23f
00000350: 20e2 18bf 75f7 f2bd ef87 a9be f0a3 a0be
00000360: 3906 683f 1548 78be d9a2 b1bf e1d0 8cbd
00000370: 7ab7 1cbf 545f d5be 185b febf bbf0 76bf
00000380: 6d3b 69bd b5b0 a0be 5a2c 05be 4276 3f3e
00000390: 2b75 983e adc2 81be 262b b33e dd96 143f
000003a0: 2ee0 333e 53ab 9d3d 925e 493d 3b7b e73e
000003b0: bf8b f3ba d5d8 97bd 5a42 ecbe 7d28 943e
000003c0: f0dd b03b 9c7f e0be f6e8 25be 1c37 d9be
000003d0: a06e fc3c a803 c33b 58ba 6bbd eb75 e4be
000003e0: fd41 1d3f 3b58 513e 3297 8ebe de1e 29be
000003f0: cd58 763e 8779 ea3e de34 c0bd 1621 febd
-0.22110975 -0.57503957 0.17911868 -0.13822939 0.38238004 0.28732765 0.2829576 -0.009553862
-0.043751337 -0.56262714 0.29295763 0.47701582 0.17830072 -0.6029078 0.10546161 0.31421766
-0.14198133 0.41257957 0.3373947 -0.53560567 0.40376583 0.014813105 0.27890462 -0.1701799
0.2095787 0.25500578 -0.0060796076 0.20268622 0.078561865 -0.6144278 -0.21847181 -0.58700025
-0.22485292 -0.34969363 -0.028650617 -0.14718327 0.5338805 -0.0849569 -0.05005533 -0.21817072
0.11636304 0.32621717 0.12248394 -0.7290147 -0.2268323 0.37167376 -0.29807487 0.17233261
0.29782674 0.40988958 -0.1250031 0.6649583 0.3954958 0.20850073 0.038146757 -0.348152
-0.34336087 -0.918048 0.17101885 -0.05663932 -0.26461715 0.31027594 -0.032555576 0.20152806
-0.4220271 0.88566023 0.11917883 -0.13970493 0.07851105 -0.5862065 0.039277166 0.60899395
0.60906607 -0.25930607 0.019287834 0.49370453 0.4053303 -0.44871125 -0.6053574 -1.1087152
-0.19638829 0.28772953 0.30961794 -1.2088096 0.2307804 -0.7909699 -0.17432106 0.020592619
-0.016864082 0.2605145 0.010007857 0.39323348 -0.10895897 -0.23610541 -0.32431972 0.18513021
-0.8438138 -0.18169978 -0.8138989 -0.024546554 -0.512652 -0.7653391 0.58361876 -0.46470395
0.6334273 0.48977277 0.2503679 -1.1991475 -0.5286282 -0.3948602 -0.36886773 0.73889655
0.5175997 0.6296335 -0.3426395 -0.6525947 1.0037671 0.68306464 0.3134352 -0.20288835
-0.5436705 0.45914078 0.51215976 -0.17394146 0.8318081 0.04781585 0.7622864 -0.35150188
0.24638344 0.3380547 0.5686405 -0.20732546 0.4302079 0.28699926 -0.20181802 -0.10528669
-0.52360743 0.0030806512 -0.16099073 0.0022817801 0.2032627 0.3590303 0.31164536 0.11449637
0.077284805 0.026025482 0.5651067 0.4703923 -0.1997309 -0.22893414 -0.15381898 0.22453648
0.31077498 -0.23966439 -0.031417742 -0.10526693 -0.46613124 0.37931466 0.0773972 0.12949832
-0.06289228 -0.51717 0.4487212 0.44480816 0.12319417 0.515405 0.109442554 0.32964662
-0.37467852 -0.24163026 -0.29762897 -0.2713567 0.48144847 0.45673105 -0.39811125 0.21104372
-0.20137165 0.24240132 0.26486525 -0.31687087 -0.33251366 -0.51919943 0.44398952 0.41438574
0.3974391 -0.7315508 -0.013297322 -0.38335013 -0.15207277 0.18958937 -0.13943028 -0.12600404
-0.6300384 -0.23260479 1.1034343 0.8778631 -0.6526938 0.6264839 -0.7152218 0.21712574
-1.5013127 0.3121177 -0.17145991 -0.068115994 -0.23670991 0.08278356 0.67011374 -0.16554272
0.3360611 -0.4694055 0.3218404 1.3907542 -0.5972004 -0.11863605 -0.33111522 -0.31375074
0.90634495 -0.24246247 -1.3877822 -0.06875778 -0.61217463 -0.41674292 -1.987155 -0.96461076
-0.05694144 -0.31384817 -0.130052 0.18697456 0.29776892 -0.25343838 0.34993857 0.580427
0.17565987 0.07698693 0.049162455 0.45211205 -0.0018581076 -0.07414404 -0.46144372 0.2893714
0.0053975508 -0.43847358 -0.16202149 -0.42424858 0.030814469 0.0059513636 -0.057550758 -0.44621214
0.61428815 0.20443814 -0.27849728 -0.16515681 0.24057312 0.45795843 -0.093850836 -0.124086544

Model.forward_l.seq.1.layers.0.fc1.bias f4 [128]
00000000: 1966 00be a857 c2be 4742 fc3e bfe0 933e
00000010: f03d ccbd e380 f4bd 52e7 59bf acce bebe
00000020: bd9a abbd 6935 02bf 288a 8cbe c367 1dbf
00000030: 5254 fabe c51a fdbe a445 993d f5cf 1abf
00000040: d91f a5be bfc3 01be b114 8dbd 505d b23e
00000050: 5115 e1be a64b f8be 4745 b63d a2fe 413e
00000060: df1b 0e3d 6d6a 28bf f15e 38bc e7d5 f43e
00000070: ce20 a8be b568 913e 0c7a e3be e0ff 82be
00000080: 0620 2a3e 570f bdbc 6add 9f3e 11a3 033e
00000090: df38 6d3e 1cfb 403e 89d0 e3be 12c8 07bf
000000a0: 2759 11bf ccde 43be 55cc edbd 0e01 0c3e
000000b0: b61e 973e add8 7fbd 443e 103e 0049 1abf
000000c0: 108e 09be 188b 08be 09a6 f53d 4e58 ee3d
000000d0: da80 cfbd ee01 a7be 2528 a8be 0a38 e9be
000000e0: 4c5c 24bf 11fe 353e 13c7 77be 9d45 03be
000000f0: 00ac b53b 8078 dabd aae5 6bbc f632 9bbe
00000100: c1d3 7ebf ac09 473e 248f f1be f23a 063e
00000110: 8b48 d2bd 6629 9e3e ab53 3ebe 4763 44bf
00000120: 49a2 dbbe c0ea 04be b661 2abe 5477 12bf
00000130: 4754 3fbf c3ae c6be acfe 1abf a871 3ebf
00000140: 02d8 1d3d d091 5bbf 46d7 fd3e 0ef1 453e
00000150: c5a5 03be 4963 6cbd 4bcc 8dbc 39d6 c3be
00000160: abc6 2fbf e9bc 683e d153 70bd 9ebe 073f
00000170: 9ee6 4ebd d545 3bbe 3af5 9abe d6f4 7e3e
00000180: 41a2 7dbe e200 323f 9c86 a33d 78c3 d03e
00000190: 5abd c2be 9c4f 8b3e 6e54 183c 27bc dcbd
000001a0: fa20 98be 053a e0be 8fd5 21bf d219 1ebe
000001b0: 623e 2cbd 0e5a 95bf f4d4 33be 2b72 98be
000001c0: 0a6d a83d 3fbc 003e 19a2 c93e cd2d 903d
000001d0: 61cc b63e 858b 473e 4387 2bbe 3fef 903d
000001e0: 2092 c3be 79b3 1b3e 1f2a a73e b213 6cbe
000001f0: 395e b53d 122d 8b3f 1813 b7be c79d 3cbf
-0.12538947 -0.379575 0.49269316 0.28882405 -0.09972751 -0.11938646 -0.8511859 -0.37267053
-0.08379123 -0.5086275 -0.27449155 -0.6148645 -0.48892456 -0.49434486 0.07483986 -0.6047357
-0.3225086 -0.12672327 -0.06888712 0.34836817 -0.43961576 -0.48495215 0.08899932 0.18944791
0.03469455 -0.6578739 -0.011253105 0.47819445 -0.32837528 0.28400198 -0.44429052 -0.25585842
0.16613778 -0.023078604 0.31223613 0.12855174 0.23166226 0.1884579 -0.44495037 -0.5303966
-0.5677666 -0.19127959 -0.11611239 0.13672277 0.29515618 -0.062462498 0.14086252 -0.6026764
-0.13433099 -0.1333431 0.11994559 0.116379365 -0.10131998 -0.3261866 -0.32843128 -0.45550567
-0.64203334 0.177727 -0.24197035 -0.12819524 0.0055441856 -0.10667515 -0.014398018 -0.30312318
-0.9954186 0.19437283 -0.4717952 0.13108423 -0.10267743 0.3089096 -0.18586604 -0.76713985
-0.4289725 -0.12980175 -0.16638836 -0.5721333 -0.7473797 -0.38805208 -0.6054485 -0.74392176
0.03853608 -0.8576937 0.49578303 0.19330236 -0.12856205 -0.057711873 -0.017309329 -0.38249376
-0.6866252 0.22728314 -0.058673684 0.53025234 -0.050512902 -0.18288358 -0.30265218 0.24898085
-0.24768926 0.695326 0.07984659 0.4077413 -0.3803509 0.27209175 0.009297473 -0.10778075
-0.2971266 -0.43794265 -0.6321649 -0.15439537 -0.04205168 -1.1668108 -0.17561704 -0.29774603
0.082239226 0.1257181 0.39381483 0.07039986 0.35702804 0.19486816 -0.16750817 0.070768826
-0.38197422 0.15205182 0.32649323 -0.23054388 0.08855862 1.0873129 -0.35756755 -0.7367825

Model.forward_l.seq.1.layers.0.fc2.weight f4 [32, 128]
00000000: 5a42 7c3e 7c20 303f 1d23 82be 75a9 883f
00000010: 23dc 82be 10a2 01be 4776 87be eee1 abbe
00000020: 03e7 1b3d 4e59 033f 4269 11be 9047 bc3d
00000030: e8ea bd3e 370d ec3d 289c 3ebd 096f c2bb
00000040: dadc f2bd d01b 58bd 9a98 26be 9b58 54be
00000050: 1f54 243f e2af 413e 02bf f2be 5ba4 dbbe
00000060: eaf5 eabe 9e8d 13be 54e4 953d 7914 de3d
00000070: 592b 853d 2f1a 233e 6055 04bf df94 8dbe
00000080: ee9f cabe 719c cdbd efc6 e1be 3827 e9be
00000090: 516d 213f 84f2 e73e 8680 e93e a273 803e
000000a0: 0885 fcbe 0ece b4bd d3b8 173e 3660 ed3e
000000b0: 8171 f63c 5c08 57be 2b75 a7be d753 f0be
000000c0: 18cd 613e 33c4 16bf c2ef 213d beb7 62be
000000d0: cd8d f5bc cb40 5e3c 390d e93e 7190 323f
000000e0: 3ae1 b73e dbb2 be3d 069e efbe a38f 07be
000000f0: 0a9d ca3e 739d a33e 1a31 ed3e 4534 9e3e
00000100: b5a2 ab3d fb55 ad3d 0af5 8ebd 2345 d83e
00000110: 1b44 67be 3578 d53c 21fa 89bf 8ad7 f13e
00000120: 8e7e 2f3e 0cc7 2abe cabb b5bc ad3a 0dbf
00000130: ba9a aa3e d45e 45be 77fb d83d 6a86 c4bd
00000140: 0cb6 50be 213e 8c3e 9d83 2e3c 1a40 5b3e
00000150: e903 cf3e a6a3 b63e a1f2 97be 6c00 b0bd
00000160: c5c1 64be 0374 623d 7229 dbbd 2618 523e
00000170: dd68 85be e65e 553e a193 0c3e b1cf 4d3e
00000180: 3051 063e 4e9e 813e 971f 063c 588e 8fbd
00000190: 95d9 9cbe 536d 30bd 22d0 ec3e fb6c 8d3e
000001a0: 87a7 2d3d 419b 8bbd cd66 5d3e 977a 8bbe
000001b0: 0983 7bbd 2faa 693e 0cb7 5ebb 8994 d6be
000001c0: 584f 39be ba4c cb3d f2c2 c03e e457 803e
000001d0: b4d0 cbbd c4a2 c8bd 39b1 1a3f a3e2 9d3d
000001e0: 8455 cebd 88ab 703e f398 1f3e a083 f7bc
000001f0: d3d3 e2be 9386 c23d b8ac fa3e 4610 f3bd
00000200: cebe f8be ad60 2fbe 9444 8b3e ca18 093f
00000210: 9cc5 7e3e 6adc 903e 8fec ebbd 46aa 1c3e
00000220: c070 b73e b694 693d 9ba0 a63e adcd 013e
00000230: a782 1fbf 11a9 97be 79fd f73e 0d2c 643e
00000240: a5d6 193f a015 cf3e b522 b33e 94f1 be3e
00000250: 8e44 13bf de7f 8dbe cba7 8e3e 9a7e e13e
00000260: 5068 003f c6ac b83e 8faa 1bbd 3f22 543e
00000270: 236f 02bf 8137 f53d 17c8 103f 3d99 c3bd
00000280: e4fd a33e c9dc d7bd 0d39 bb3e 2e15 ed3e
00000290: a51d 1cbe e0c9 c03d c9e7 563f a47c 083f
000002a0: 4f8d c73c be63 b9bc f264 b73e 9094 573f
000002b0: 7391 55be 5aff f63e 3ee0 5f3e b15b 093f
000002c0: 938e 333e 906a afbe 0195 9cbd defc 5d3e
000002d0: 9e83 2e3d 6699 743e 6bc7 d13e a7d8 d93d
000002e0: e7bc 163e c8c2 643e c2e4 8cbc 2b2c 2bbd
000002f0: 139d fd3d b220 13be 0936 24bf 27a1 373e
00000300: 8301 ed3e 0832 0d3f 1447 3f3e ba07 8ebe
00000310: 9850 a53b 00a4 863e 0600 a8bd 8dbd 8a3d
00000320: e454 493f f78f 223f e728 ae3e b359 843e
00000330: 47eb 62bf aeac ba3e ff9e 183f 902c 1d3f
00000340: bc87 d0be 8a64 e0bd 27db f33e c656 933e
00000350: 928b 9b3e 3ef9 873e fe43 813e 28b0 0e3f
00000360: 3d77 be3e c17e 6e3e 8ad6 663e 63fd dd3e
00000370: fbc4 4ebf 9cff e93d 2992 073f e54a b53b
00000380: 161c 63bd e603 26bc 6323 cb3e ce9d be3e
00000390: b642 903e dc0c ec3e a90f 3bbe 0260 b63d
000003a0: 9dda 963d 6247 013d 5661 e93d 0f5f ae3e
000003b0: 0494 bc3e 069c 5b3c c0b9 7a3e da45 e6bd
000003c0: 5d03 073e 09b8 fb3e ed81 f63d 407a 243f
000003d0: 406f cb3e 0844 e13e 7ba7 473e 59ee 673e
000003e0: 5819 2a3e 31cd f1be ed42 133f 1560 8b3e
000003f0: 632d d73d 56ad 8fbe d428 9d3e bf12 5c3f
0.24634686 0.6879957 -0.25417414 1.0676714 -0.25558576 -0.12659478 -0.26457426 -0.33570808
0.038062107 0.51308143 -0.14200309 0.09193337 0.37093282 0.11525958 -0.04653564 -0.0059336466
-0.1185853 -0.0527609 -0.1626915 -0.20736925 0.6419086 0.1891475 -0.47411352 -0.4289883
-0.45890743 -0.14409491 0.07318941 0.108437486 0.065024085 0.15927957 -0.5169277 -0.27652642
-0.39575142 -0.100396045 -0.44097087 -0.45537734 0.6305743 0.45302212 0.45605868 0.2508822
-0.49320245 -0.08828364 0.14816599 0.46362466 0.03008342 -0.20999283 -0.3270658 -0.46938965
0.22050893 -0.58893126 0.03953529 -0.22140405 -0.029974842 0.013565253 0.455179 0.6975165
0.35914022 0.09311458 -0.4680025 -0.13238387 0.39572936 0.31956062 0.46326524 0.30899253
0.08380643 0.08463665 -0.06980331 0.42240247 -0.22584574 0.026058296 -1.0779458 0.47234756
0.1713812 -0.16677493 -0.022184271 -0.5516766 0.33321172 -0.19274455 0.10594838 -0.0959595
-0.20381945 0.2739115 0.010651496 0.21411172 0.4043267 0.3567173 -0.296773 -0.085938305
-0.22339542 0.05528642 -0.107012644 0.20517024 -0.26056567 0.20836982 0.13728191 0.20098759
0.13116908 0.2531609 0.008186243 -0.07009572 -0.30634752 -0.04307301 0.46252543 0.27622208
0.042396095 -0.06816722 0.21621247 -0.27241966 -0.06140426 0.22818826 -0.0033983616 -0.41910198
-0.18096673 0.09926744 0.3764873 0.25067055 -0.09951916 -0.0979667 0.6042667 0.07709243
-0.100749046 0.23502934 0.15585689 -0.03021413 -0.44302234 0.09498324 0.489599 -0.11868338
-0.48583072 -0.17126723 0.27200758 0.5355345 0.2488007 0.28293163 -0.11519729 0.15299329
0.3582821 0.057026587 0.32544407 0.12676115 -0.62308735 -0.29621175 0.48435572 0.22282429
0.60093147 0.40446186 0.34987417 0.37293684 -0.5752648 -0.27636617 0.2786239 0.44041902
0.5015917 0.36069316 -0.038004454 0.20716189 -0.5095083 0.11973477 0.5655531 -0.09550712
0.3202964 -0.10540158 0.36566964 0.4630522 -0.15245683 0.094135046 0.83947426 0.53315187
0.024359373 -0.022630569 0.35819203 0.84211063 -0.20856266 0.48241693 0.21862885 0.53655535
0.17534856 -0.34260988 -0.07645608 0.21678492 0.04260599 0.23886642 0.40972456 0.10637026
0.14720498 0.22339928 -0.017198924 -0.04179017 0.12383475 -0.14367941 -0.6414495 0.17932568
0.46290216 0.55154467 0.18679458 -0.2774027 0.005045008 0.26296997 -0.082031295 0.06774435
0.7864516 0.6350092 0.3401558 0.25849685 -0.88640255 0.3645987 0.5961761 0.6139612
-0.40728557 -0.10956676 0.47628137 0.2877714 0.3037992 0.26557344 0.25247186 0.55737543
0.37200347 0.2329054 0.22542778 0.4335738 -0.8076932 0.11425707 0.529574 0.0055326098
-0.055446707 -0.010132765 0.39675435 0.3722977 0.28175896 0.4610356 -0.18267693 0.08905031
0.07365916 0.031562217 0.113955185 0.340569 0.36831677 0.013403898 0.2448492 -0.11243792
0.13184877 0.49163845 0.120365 0.6424904 0.39733315 0.43997216 0.19497482 0.22649516
0.1661123 -0.4722686 0.57523996 0.27221742 0.10506704 -0.28061932 0.30695212 0.85966104

Model.forward_l.seq.1.layers.0.fc2.bias f4 [32]
00000000: 95a9 3e3d d8ae ec3e e479 7fbe 47e1 69bb
00000010: 0ee6 493d 4430 323e 3609 143e 65f5 1e3d
00000020: 820b f3bd 89a4 483e a57c 54be bcfd d9be
00000030: f7d5 8c3e 2ab5 aabe 46d9 c23e ac0f 6d3d
00000040: 383f 9fbe 3ed2 0abd 294b 5a3e c953 403e
00000050: 4983 61be 210d 433c 8bc3 943e 2862 6d3d
00000060: 6532 dcbe 6e2a cc3e 6957 8a3e 2318 843e
00000070: 930c 4b3d 66a2 93be 7d1e 0fbe e7a8 5fbe
0.046548445 0.46227145 -0.24948841 -0.0035687254 0.049291663 0.17401224 0.14456639 0.038808245
-0.11867429 0.19594015 -0.20750673 -0.42576396 0.27506992 -0.33341342 0.3805639 0.057876274
-0.3110292 -0.03389191 0.21317734 0.18781962 -0.22022738 0.011904986 0.29055437 0.057954937
-0.43007198 0.3987612 0.27019814 0.25799665 0.04957254 -0.28834838 -0.13976474 -0.21841775
