pretrained_model/A2_MulT_a_pretrained_model.pth (torch, 323894 bytes, 34 tensors)

Model.proj_l.weight f4 [40, 768, 1]
00000000: 68fd de3c 6f1f 0bbd 50c8 7e3c 24c0 263c
00000010: 2820 203c f0a2 ff3c 48b9 d1bb 436d 01bd
00000020: 822b d73c c0cf 73bb 41df b0bc e84d b7bb
00000030: 734a bcbc a8b9 36bc d0ad 9b3b f76b 11bd
00000040: e229 b9bc 5457 6abc 4804 733c 3265 9e3c
00000050: 9029 d63b 609e 0d3d 7afd 32bc 0c0d 06bd
00000060: e401 833c 0e11 0f3d 3006 053d 308b 0e3c
00000070: ac02 e83c 80ae 31ba 80fc ed3c 4edb a33c
00000080: 4747 0bbd 9003 de3c cc8b 6abc 5264 a1bc
00000090: b8bc 30bc f4b2 fd3c e035 d6bb 00f8 e938
000000a0: 3cd9 503c 2e28 0d3d d448 99bc 58a7 87bb
000000b0: be88 023d c889 463c 3807 90bc 9113 e2bc
000000c0: 38c5 103d 280d 0d3c dc9e f83c 7aa2 b93c
000000d0: 1b62 bfbc 18c1 c23b c8fb 3d3c e8e7 55bc
000000e0: 94c7 a73c c668 133d 2eea 06bd d432 69bc
000000f0: 74c8 d83c e82b 98bc 06f2 c2bc c8c1 3d3c
00000100: e095 b8bc 187b 073d d0ee 9cbb c204 123d
00000110: b16d 90bc fc3c 553c 0401 0ebd deab a43c
00000120: 708a b83c 6083 0fbc b0ab b7bc 9881 b43b
00000130: 9471 8c3c 04ce 043c 40b3 1cbb 10ec 163b
00000140: 1e7d b8bc a408 fc3c 102e 3cbb 3cec 3ebc
00000150: 80c3 1fbb 807e f03c 8832 ee3b 02d2 043d
00000160: e0a2 813a 72a0 d03c bc03 32bc 20a2 483c
00000170: d0c4 52bc ccb2 b83c 02ce b53c 6c95 c43c
00000180: d8be ddbc 208c 9bba 1cf9 763c 9174 91bc
00000190: de2c 0ebd 543e 03bd c64b c7bc e259 afbc
000001a0: 7665 893c f840 9ebb 4097 3ebb c88c b4bb
000001b0: 2ad5 0d3d 4657 113d 242f ea3c c907 0bbd
000001c0: 0088 1738 a497 443c 8006 2cba bc6c 993c
000001d0: d8f3 00bc a0e6 da3a dc70 cfbc 81bf 13bd
000001e0: a0b0 e43a 2023 8fba a8e1 32bc 6d3f f9bc
000001f0: b433 dd3c cc72 ff3c 9e1b 0c3d 9b4c 05bd
00000200: e048 703b 6023 273c 30ba 043b 505a dabc
00000210: 4085 3b3c b22a edbc 10c1 6a3b e85e da3c
00000220: 2827 573c 1c85 6e3c 1037 f53c c4d1 06bc
00000230: 0b7b 9fbc 3fff cebc fce3 d03c 52fe 0a3d
00000240: ecb5 6d3c 248c e1bc 2e2c b5bc 60a7 063c
00000250: 41a0 9bbc 76c2 bdbc 40cc 433b f0ca 7b3c
00000260: b788 96bc 008c 3aba 7e08 c2bc 30d5 e93b
00000270: a3d1 09bd aeb6 b33c 7c2a 03bd 7c52 ae3c
00000280: 74c4 023d 806d ccbc 58e4 dc3c 72a6 abbc
00000290: b4bc dd3c 64a9 de3c 00c9 0c3a 2c1f 293c
000002a0: 24e8 8b3c 9345 03bd 8ce8 063d 1e3b a93c
000002b0: 80e6 e23b 0834 133d 34c0 993c 104e 77bb
000002c0: 2ee2 ab3c ae20 b83c 3c49 663c 6004 ea3c
000002d0: 298c eebc 3ebe 973c 69d0 91bc d240 cc3c
000002e0: 7b77 0cbd 865a d53c e0a4 c83a 6e8b 60bc
000002f0: 009a 1339 8cb0 ee3c c84c d2bc 9c86 7dbc
00000300: a820 ca3b f625 cf3c c830 063d eed8 38bc
00000310: 8686 0b3d 0fa9 0bbd 8cfb 82bc 2420 203c
00000320: 9046 bcbc 387c f43c 50e0 823b 1045 23bb
00000330: 84fb b9bc ac9d 0d3d 00cc 073b e4ad d73c
00000340: 446d a33c 5851 243c 2ed0 ca3c 5cac 9cbc
00000350: 8026 96bc a022 d2ba 9ea5 d4bc 1096 8abb
00000360: fe13 cc3c c870 9cbb 345a 0b3d f877 20bc
00000370: 02c3 cb3c bcfa 5f3c 10d5 363b d006 7a3c
00000380: 801c beba 6886 21bc fc84 0d3c ccde 0a3c
00000390: a657 003d d9b0 07bd c6dd 053d 7cf2 fa3c
000003a0: bcf4 363c b084 dc3c 28cd ca3c 1489 d83c
000003b0: fe6f 833c 8af5 c0bc daf6 c73c 9856 083d
000003c0: 1cc5 293c 80b1 e7bb 7891 143c e0c6 133d
000003d0: 9cce 883c 003f 8fba dc5f 8c3c 84e2 ef3c
000003e0: 202c 9abb 56a6 35bc 7c6e a93c 484b 6d3c
000003f0: 204a b63a 1a21 71bc 40b5 58ba 12d4 9f3c
0.027220443 -0.033965524 0.015550688 0.010177646 0.009773292 0.031205624 -0.006400261 -0.03159834
0.026265863 -0.0037202686 -0.02159083 -0.005594004 -0.022984719 -0.011152662 0.0047509447 -0.035503354
-0.02260298 -0.014303047 0.014832564 0.019335363 0.0065357164 0.034574866 -0.010924691 -0.032727286
0.015992112 0.034928374 0.032476604 0.008700177 0.028321587 -0.00067780167 0.029051065 0.020002034
-0.034003522 0.027101308 -0.014315557 -0.019701157 -0.010787182 0.03096912 -0.006537184 0.000111564994
0.012747105 0.034462146 -0.018711485 -0.004139822 0.03186869 0.012117811 -0.017581567 -0.02759722
0.035344332 0.008609094 0.030349188 0.022660483 -0.02336221 0.0059434287 0.011595674 -0.013055779
0.020480908 0.03598859 -0.032938175 -0.01423331 0.026462771 -0.018575624 -0.023797046 0.011581846
-0.022532403 0.033076376 -0.004789211 0.03564907 -0.01763043 0.013015028 -0.034668937 0.020101484
0.02252695 -0.00875935 -0.022420734 0.005508613 0.017144002 0.008105759 -0.0023910552 0.0023028888
-0.022520598 0.030765839 -0.0028713979 -0.011653002 -0.0024378002 0.029357195 0.0072692074 0.03242684
0.000989046 0.025467131 -0.010865148 0.012245685 -0.012864307 0.022546194 0.022192959 0.023997031
-0.02706854 -0.0011867322 0.015074041 -0.017755779 -0.034710757 -0.032041863 -0.024328124 -0.021405164
0.016772013 -0.004829522 -0.0029081851 -0.0055099465 0.034627117 0.03548362 0.028586932 -0.03394297
3.6127865e-05 0.011999045 -0.0006562248 0.018728606 -0.007870637 0.0016700812 -0.02532237 -0.036071304
0.0017447658 -0.0010920502 -0.010918058 -0.030425752 0.027002193 0.03118267 0.034206025 -0.03254376
0.003666453 0.010201305 0.0020252578 -0.026654392 0.0114453435 -0.028951023 0.003582064 0.026656583
0.013131894 0.014558103 0.029933482 -0.008228723 -0.019467851 -0.025268195 0.025499336 0.033933945
0.014508706 -0.027532645 -0.022115793 0.008218616 -0.018997313 -0.023164015 0.002987638 0.015368208
-0.018375738 -0.00071161985 -0.02368569 0.0071360096 -0.03364719 0.021937694 -0.032022938 0.021279566
0.031925634 -0.024954557 0.026964352 -0.02095339 0.02706752 0.027180381 0.00053705275 0.010322373
0.017078467 -0.032048773 0.032936618 0.020658072 0.0069244504 0.035938293 0.018768407 -0.0037735738
0.020981874 0.02247652 0.014055546 0.02856654 -0.029119568 0.018523332 -0.017799573 0.024933252
-0.034293633 0.026044142 0.0015307926 -0.013705118 0.00014076382 0.029136918 -0.025671378 -0.015473988
0.0061684437 0.025286656 0.032761365 -0.011282189 0.03406384 -0.034096774 -0.015989088 0.009773288
-0.022982866 0.029844388 0.0039940253 -0.002491299 -0.02270294 0.034574196 0.0020720959 0.026328035
0.019949563 0.0100291595 0.024757471 -0.019125156 -0.018328905 -0.0016032048 -0.025957879 -0.0042293146
0.024911877 -0.0047741868 0.03402157 -0.009794228 0.02487326 0.01367062 0.0027897991 0.015260413
-0.0014504343 -0.009858705 0.008637663 0.0084759705 0.031333588 -0.03312764 0.032682203 0.030633204
0.011166748 0.02691874 0.02475603 0.026432551 0.016044613 -0.023554582 0.0244097 0.033285707
0.010361936 -0.00707072 0.009067886 0.036078334 0.016700082 -0.001092881 0.017135553 0.029282816
-0.004704967 -0.011087021 0.020682566 0.0144832805 0.0013907589 -0.014717365 -0.00082667544 0.019510303

Model.proj_a.weight f4 [40, 74, 1]
00000000: b411 4640 ffcf b33f 6b70 94c0 344c 32c0
00000010: 002c 9bbe e527 0cbf d094 58bf 14b5 b03e
00000020: 3428 1840 ab37 6140 758b 28be d72b 083f
00000030: 4712 d0bf d2aa 7040 2fa3 80bf 1fe3 18c0
00000040: 623b 3940 8647 4bbe cdec 8b40 2480 8ec0
00000050: eafc 1ec0 c5c0 8c40 b4f3 76c0 e7e0 a740
00000060: f676 1fc0 a289 0ec0 f1d5 90bf 960c e640
00000070: d96a a9c0 5e91 42be ee10 24c0 4a5a e0be
00000080: 7111 5140 3a9e 27c0 04df 5540 f7e0 b03f
00000090: 4453 bd3e a146 b1c0 9df5 80c0 41b7 aabf
000000a0: ac4f 0a40 4d1d 13c0 6b79 cbbf c80c 1f3e
000000b0: 7e84 7140 f4e6 b1be d166 3dc0 fb4d afbf
000000c0: c561 843f 11f1 b9be 5d88 61bf 3f46 a1bf
000000d0: bd5b ab40 e31e d8bf 7c16 5b3f b780 f03c
000000e0: 5e0b fe3f 0369 853f c9b9 78bf 3eec 72c0
000000f0: 8d98 a33f bfb1 533f 4ec7 9dbf 2ab6 ebbf
00000100: 33de 03c0 9c2d 14c0 c42d 86c0 a249 57c0
00000110: 847f acbf 9cfc dbbf a069 c0bf 05d0 b6bf
00000120: 1db3 9e3d b2ce d7bf 6951 b03f 2c84 3d3f
00000130: e35c b43d d627 973f e0ec 2a40 e501 1bbf
00000140: bc44 e33f dcb8 153f f9b8 f5bf b087 cc3f
00000150: acdc 973f 2524 84bf c1b0 0540 afbc 96c0
00000160: e3f0 70c0 865a 843e 5077 8c40 8f04 f43f
00000170: 18b3 b4c0 2086 88bf 8f3f c03f aaef b6c0
00000180: ac42 e040 4a28 10c0 ce2d 5b40 e825 6040
00000190: ef91 a73e ee35 3cc0 d361 6340 392f dfbf
000001a0: 2f6e f7bf 16de 1fbf 327f ad40 e2ef 93c0
000001b0: 1230 39c0 642b 3140 d78b 30c0 0c92 d9bf
000001c0: 95de 99bf 43c4 b0bf 5be8 2b40 d593 0640
000001d0: 845f 1fc0 0ef1 75bf d140 0440 0120 4e40
000001e0: ec3f b7bf 5681 d33f c2bc 3ec0 4bbe c6be
000001f0: 0d07 bdc0 77ed 90c0 1d21 8040 3caf 3f40
00000200: 4d43 8fbf 9a83 8cbf 5fc6 b0bf 3f85 6d40
00000210: e695 21bf ef4c 5b40 73c4 4bc0 e3e0 03bf
00000220: e6da d5bf 57a6 c6bf 82ec c1bf eeed afbf
00000230: 5208 45bf 3168 433f 975c f83e c454 6540
00000240: fb7a 5d40 cfbc 9e40 70fd 9240 ab84 8e40
00000250: 0661 2240 b223 a5bf 42e7 ee3f 0cae 16bf
00000260: 1cc6 d2bd 5b3d cabf 0fe9 e6bf fc32 d1c0
00000270: 0569 7040 431f b4bf 5c95 20c0 ed91 9fbf
00000280: ee72 6840 d838 4f40 57fc 3e40 afb7 873f
00000290: 035b e6bf b9a4 f3bf 6f1e 0441 d50d 5dc0
000002a0: f7ef 96bf a14b 4040 ebc6 c8c0 7aee 9240
000002b0: 593f f7be e968 1fc1 a602 0e41 c1c7 afc0
000002c0: b79b 22c0 0534 0e41 cc44 bbbf 8e9c 6740
000002d0: ad48 d7c0 fc47 783f 9c73 e53f cea1 d73f
000002e0: 282b 27bf 9029 d53e 15ca d73f 2582 86c0
000002f0: 080f 30c0 9ca0 5e40 f0bc 41c0 efd5 7740
00000300: 8655 8640 4159 283e de2f 9dbd f5aa 823f
00000310: 43ad fd3f 316e 6d40 8aa5 ed40 2002 0a41
00000320: d7a7 cec0 22bd 89c0 5de8 b2bf e726 3140
00000330: a255 2fc0 1c4c 92bf ccc2 0d40 b22b 713f
00000340: 8858 ec3f 0b61 003f 3a40 2a3f 6be2 6e3f
00000350: 34f0 933f 851d afbf 6984 22c0 ca51 dac0
00000360: 48e9 ecc0 b058 36c1 9290 2dc1 482c 1ec1
00000370: c97c e9c0 6b93 90c0 935e 5f40 abcf dd3f
00000380: f25d 26c0 dee0 6b3f 94f3 64c0 9844 e9bf
00000390: 89fa 6dbf 96c6 8340 1528 a53f f57d 7f40
000003a0: ef7d 27bd c274 9540 503b 91bf 3387 3b3f
000003b0: c3b2 99c0 b429 6ac0 e313 a940 e616 7f3f
000003c0: 817e e6bf cceb febf ef80 38c0 a54e 9340
000003d0: c8ce 8b3f f368 d6bd 385c 8dc0 3416 0441
000003e0: e48b d1bf 0cc3 1940 b8c1 8ac0 4ff9 f1be
000003f0: 4cd5 6e3f 66b1 74c0 07af c840 bd53 f7c0
3.0948305 1.404785 -4.638723 -2.785901 -0.30307007 -0.54748374 -0.8460207 0.34513152
2.3774538 3.5190227 -0.16459449 0.53191894 -1.6255578 3.760426 -1.00498 -2.3888624
2.8942494 -0.19851503 4.3726563 -4.453142 -2.4841866 4.3985314 -3.8586245 5.246204
-2.4916358 -2.2271504 -1.131529 7.1890364 -5.294293 -0.19000766 -2.5635333 -0.43818885
3.2666895 -2.6190324 3.3417368 1.3818654 0.3697759 -5.5398717 -4.029982 -1.3337175
2.1611128 -2.2986634 -1.5896429 0.1553222 3.7737117 -0.34746516 -2.9594004 -1.3695673
1.0342337 -0.36316732 -0.880987 -1.2599562 5.3549485 -1.6884426 0.85581183 0.029358251
1.9847219 1.0422672 -0.97158486 -3.795669 1.278093 0.82693094 -1.2326448 -1.8414967
-2.060437 -2.3152838 -4.1930866 -3.3638692 -1.3476415 -1.7186465 -1.5032234 -1.4282233
0.07749007 -1.6859953 1.3774844 0.74029803 0.08806779 1.1809032 2.6707077 -0.60549766
1.7755351 0.584852 -1.9197074 1.5978909 1.1864219 -1.032353 2.0889132 -4.7105327
-3.7647026 0.25850314 4.3895645 1.9063891 -5.646862 -1.0665932 1.5019397 -5.716756
7.0081387 -2.252459 3.4246707 3.5023136 0.32728526 -2.9407916 3.5528457 -1.7436286
-1.93305 -0.6244825 5.421777 -4.6230326 -2.893559 2.7682734 -2.7585351 -1.6997695
-1.2021052 -1.3809894 2.6860569 2.102773 -2.4902048 -0.96070945 2.066456 3.2207034
-1.4316382 1.6523845 -2.9802709 -0.38817057 -5.9071107 -4.5289874 4.004042 2.9950705
-1.1192414 -1.0977662 -1.3810538 3.7112577 -0.6311935 3.4265707 -3.1838653 -0.51515025
-1.6707428 -1.5519513 -1.5150301 -1.3744485 -0.7696582 0.7633086 0.4850814 3.5832987
3.4606311 4.960548 4.593437 4.453695 2.5371718 -1.2901518 1.8664324 -0.58859324
-0.102916926 -1.5799974 -1.8039874 -6.5374737 3.75641 -1.407204 -2.5091162 -1.2466408
3.6320148 3.2378445 2.9841516 1.0602931 -1.7996525 -1.9034644 8.25743 -3.4539692
-1.1791981 3.004616 -6.274282 4.591611 -0.48290518 -9.963113 8.875647 -5.493134
-2.540754 8.8877 -1.463037 3.6189303 -6.7276216 0.9698484 1.7925906 1.6846254
-0.65300226 0.41633272 1.6858546 -4.203387 -2.7509174 3.4785528 -3.0271568 3.8724325
4.19794 0.16440298 -0.076751456 1.0208422 1.98185 3.7098505 7.4264574 8.625519
-6.4579883 -4.3043375 -1.3977162 2.7679994 -2.7396016 -1.1429477 2.2150145 0.942073
1.8464518 0.50148076 0.6650425 0.93314236 1.1557679 -1.3680884 -2.5393317 -6.822484
-7.4034767 -11.396652 -10.8477955 -9.885811 -7.2964826 -4.5179954 3.4901474 1.7329
-2.599484 0.92139995 -3.5773668 -1.8224058 -0.9296041 4.1179914 1.2902857 3.9920628
-0.040891584 4.6705027 -1.1346226 0.7325317 -4.8030715 -3.6587954 5.2836776 0.99644315
-1.8007356 -1.991571 -2.8828695 4.60335 1.092248 -0.10469236 -4.417507 8.255421
-1.6370816 2.4025297 -4.3361473 -0.4726052 0.93294215 -3.8233275 6.2713656 -7.728972

Model.proj_v.weight f4 [40, 35, 1]
00000000: b057 c13c 1070 8a3c d483 543d 7ade 9e3d
00000010: 48ee c03d d88a d03d a86c d4bc cd31 88bd
00000020: 5c79 6f3d a0b9 0b3e c437 de3d 28b6 aa3c
00000030: 9c70 bb3d fcf7 f33d 007c 63bc d617 0e3e
00000040: e406 263d cc3c cebd 7242 8f3d bef4 293e
00000050: 64f7 2b3e 8090 c7ba bfd2 9dbd ce48 163e
00000060: 844a 2a3e 70d3 0dbd 1a22 63bd 20db 73bd
00000070: 10e7 e33d 4022 be3b 1866 d83c 8470 c4bd
00000080: 907a e83d 0034 8dbc 30c3 5bbd 1581 a1bd
00000090: 401a 42bd 5a1d 6bbd b44c a1bd 91c7 d6bd
000000a0: b82f f33d 9848 e23d 28b7 473d 2547 d7bd
000000b0: 9297 e7bd 104b b1bd 173f 01be 3a37 243e
000000c0: 38fc 183d 3c25 9ebd 64e9 b13d 2046 e63b
000000d0: 2642 24be bc9d e23d ef12 c5bd 263b 1d3e
000000e0: f0ed be3c 1eb0 d5bd dd3a 26be 81db 82bd
000000f0: ec69 783d 6072 8cbb 3ce2 093e 0c3d 933d
00000100: 9f6c ddbd 9c66 28be e027 f03d 7a66 c9bd
00000110: 5c6f 05be 5453 743d 44d9 f43d caf7 85bd
00000120: 3eea 95bd 102b 9bbd 71d7 8cbd 3c83 02bd
00000130: 4038 1a3e 40a0 df3b f87f 883c c46c 313d
00000140: c0bf 2d3b 2893 2a3e 10a9 163c 6a3e 233e
00000150: f223 27be e40d 173e a0ae 8d3c c846 c9bc
00000160: ccfd 5ebd 7e1e c4bd 004a 993d 00db bc3d
00000170: 1af8 91bd 18fb 1d3e c46e cb3d 8070 5a3b
00000180: 40c2 083c 98cb dabc 4087 0fbb 271e d8bd
00000190: 5cab 593d 9777 03be 6880 87bd 469a a33d
000001a0: e4cc e43d 989e 99bc 0a9a 1d3e 6088 dcbd
000001b0: ec87 5c3d 00da 10bb 8c97 493d cdf5 cabd
000001c0: 04e7 6e3d f063 64bc 9c25 eb3d 6ce7 373d
000001d0: 308f 8cbc 33f5 d9bd ff1a c8bd 74b3 92bd
000001e0: 5f21 02be fc51 e6bd 88c5 213e 4128 25be
000001f0: ce5b 63bd f6e3 9a3d 54ce cd3d 80a4 f73d
00000200: dae8 fbbd e7a0 bfbd c81c be3d c259 253e
00000210: 9c20 0ebe 6052 5c3c a07d 2cbe 281c 7d3d
00000220: 2af1 6bbd 701b 76bc f4e8 4c3d 9803 a23c
00000230: d05f f93d 53c2 15be fcf6 f93d 000b e1ba
00000240: f0bc 933c ec95 05bd 48ae 043e af00 1bbe
00000250: fe00 26be a8ec 183e e4eb bf3d fb2a bcbd
00000260: 4057 6dbc 282e 04bd a8e8 08be e06a d43d
00000270: 302c ec3c 4035 093e 7cdd 133e 8731 0ebe
00000280: e8e1 503d 8893 083e 162e 103e 57fc 98bd
00000290: 1894 253e c692 67bd fc14 dbbd 4884 05bd
000002a0: 6e51 81bd cd87 dabd ab74 96bd 3ca5 033e
000002b0: c2aa a5bd eae7 1f3e 2a21 17be a8f0 c23c
000002c0: 4818 5d3d acdd cebd 54bf 1fbd e679 0bbe
000002d0: f4d0 163e 4037 9d3d b30c bdbd b0f1 233d
000002e0: a81b 993d 5044 eebd 49d4 b5bd ac43 8f3d
000002f0: 18ce e0bc 54c1 11be 6067 e13c d6dd 34bd
00000300: 366d bfbd c447 873d 1c9a 10be 0882 35bd
00000310: dc03 013e acdb c93d d5ac a7bd 94b3 d7bd
00000320: bbc2 c6bd a5b5 07be a8fc 293e 6c65 453d
00000330: 2929 9bbd b038 c73d 00cf 5eba e0ca bbbc
00000340: 544a 073e 58d6 b13c 373e 9bbd 9037 073c
00000350: 82fe 2a3e a028 3a3d a903 2dbe a7c2 8bbd
00000360: aa76 15be 6c64 073e 160e 223e c029 c33c
00000370: b9f7 1ebe dcac 05be aa87 a23d 207d 073e
00000380: 8c2f f63d 7c7e 1bbe acde 0e3e fcc5 263e
00000390: 5e22 16be e960 9abd 20bf 2d3c 867e f6bd
000003a0: b42e 0dbd 5c8f e0bd 6499 13bd 740e 03be
000003b0: 8436 633d eac1 1abe b06c 36bc e05b 043d
000003c0: b4d9 c73d 095b 13be 80d9 f4bb d80b 1e3e
000003d0: 0052 85bc 00db 47bb 081b 07be ce6f 8f3d
000003e0: 825a 42bd a0ac 01bc 80c2 44bb 1861 90bc
000003f0: 8a6a 073e bce4 243e f039 7fbc 30a2 3d3d
0.023601383 0.016899139 0.051883534 0.07757278 0.094204485 0.10182732 -0.025930718 -0.06650124
0.058465347 0.13645029 0.1085048 0.020838812 0.09152338 0.11912534 -0.013884544 0.1387628
0.040533915 -0.1007019 0.06995095 0.16597268 0.16793591 -0.001522556 -0.07706212 0.1467621
0.16629988 -0.03462547 -0.055452444 -0.059535146 0.11128056 0.0058024228 0.02641587 -0.09591773
0.11351502 -0.01723671 -0.053652942 -0.078859486 -0.047388315 -0.05740104 -0.07875958 -0.10487283
0.11874336 0.110490024 0.048758656 -0.105116166 -0.113082066 -0.08656895 -0.12621723 0.16036692
0.03734991 -0.07721946 0.08687094 0.0070274025 -0.16040859 0.11065242 -0.09622752 0.15354595
0.023306817 -0.10433982 -0.16233392 -0.06389523 0.06064789 -0.0042860955 0.13465208 0.07189378
-0.108117335 -0.16445392 0.117263556 -0.09833999 -0.13030761 0.05964978 0.11955503 -0.06541403
-0.07320069 -0.07576573 -0.0687703 -0.031863436 0.1506052 0.006824523 0.016662583 0.043316618
0.0026511997 0.16657698 0.009195581 0.15941778 -0.16322306 0.14751393 0.017295182 -0.024569884
-0.05444126 -0.095761284 0.074848175 0.092214584 -0.071274 0.15427816 0.09933236 0.0033331215
0.008347094 -0.02670841 -0.0021900684 -0.10552626 0.053141937 -0.12838589 -0.066162884 0.0798841
0.11171892 -0.018752381 0.15390792 -0.10768199 0.053840563 -0.0022102594 0.049216792 -0.09910164
0.058325782 -0.013939843 0.11481783 0.044898435 -0.01715812 -0.10642471 -0.09770774 -0.07163134
-0.12708043 -0.11246106 0.15798008 -0.16128637 -0.055507474 0.07563011 0.100491196 0.12091923
-0.12300272 -0.093568616 0.09282833 0.16147521 -0.13879627 0.013447374 -0.16844797 0.06179443
-0.05760304 -0.01502119 0.05002685 0.019777104 0.12176478 -0.1462491 0.12205312 -0.0017169416
0.018034428 -0.03261368 0.12957108 -0.1513698 -0.16211316 0.14934027 0.093711644 -0.091878854
-0.014486134 -0.03227058 -0.13370001 0.10371947 0.028829664 0.1339922 0.14439958 -0.1388608
0.05099669 0.13337529 0.1408008 -0.07470005 0.16169775 -0.05653646 -0.10697362 -0.032596856
-0.063143596 -0.10670433 -0.073464714 0.12856 -0.0808921 0.15615812 -0.14758745 0.023796394
0.053978235 -0.10100874 -0.039000824 -0.1362072 0.14728147 0.07676554 -0.09230938 0.040025413
0.07475978 -0.11634123 -0.08878381 0.06995329 -0.027442023 -0.14233905 0.027515113 -0.04415687
-0.09347002 0.06605485 -0.14121288 -0.04431346 0.12599128 0.09856352 -0.08187262 -0.10532299
-0.09705111 -0.13252886 0.16600287 0.048192427 -0.0757621 0.09727609 -0.00084994733 -0.022923887
0.13211948 0.021708652 -0.07580226 0.008252993 0.1669865 0.0454489 -0.16895927 -0.06824236
-0.14596048 0.13221902 0.15825686 0.023823619 -0.15524186 -0.13054222 0.07936032 0.13231325
0.120207876 -0.15184969 0.1395213 0.16286463 -0.14661548 -0.075380154 0.01060465 -0.12035851
-0.034468368 -0.10964844 -0.036034957 -0.12798482 0.055471912 -0.15113035 -0.011134312 0.03231418
0.097583205 -0.14390196 -0.007472217 0.15434206 -0.016274452 -0.0030495524 -0.13193905 0.07003747
-0.047449596 -0.007914692 -0.0030023158 -0.017624423 0.13224235 0.1610288 -0.015577778 0.046297252

Model.forward_a.seq.1.layers.0.self_attn.in_proj_weight f4 [120, 40]
00000000: 54a7 053e c510 8cbf 9dc0 9a3b f3c2 e7bf
00000010: 3dcc 63c0 6097 9dbf 1372 2940 9a55 5640
00000020: 988f 6740 d4fe 0340 9fa0 4a3f 3943 373f
00000030: abb7 02c0 7c62 0e3f 52ee 8a3f f715 febe
00000040: 6bc7 3340 6b14 dabf cb3f 24c0 8bd7 8c40
00000050: 5b72 6d40 721f 60c0 00da c33f b8ea 1cc0
00000060: 055e 14bf c6c7 43be 900d b03f 9073 1abf
00000070: 7e9f dfbf 2f46 de3f 5745 05c0 f23a 2b40
00000080: ddcd 913e 62db b5be aa3b 30c0 79da 55bf
00000090: 7bf0 b43f 3b31 01bd 87b7 5ebf d71a 313c
000000a0: f379 19bf f631 d63f bc04 08c0 6192 8f3e
000000b0: ca86 1640 b2f7 52be 7db7 e2be 5d18 8fc0
000000c0: 2331 8ec0 2a26 65c0 2456 b5bf 6577 0ac0
000000d0: b26f 2b3f 334b 7a3f 90aa a4bf 04b5 3bbe
000000e0: ded7 a2c0 ab6e 1f3e 36e8 7240 4911 8fc0
000000f0: 2ae5 67c0 8c3f a840 fc2a e6be 3169 b5bd
00000100: 1330 8abe 4d3b 0d3f a87c 03c0 8405 34bd
00000110: 0db6 9d3f e583 e43d 8897 903f 1e14 4bc0
00000120: df1e 87bd a907 00bf e542 3a3e bfd5 e43f
00000130: 3c6c ffbf 17cf 583f 4d56 83c0 9562 263f
00000140: a545 ebc0 3c82 f6c0 ea2b 4dbf a2b1 5ec0
00000150: 9234 ecbf cf50 6dc0 4555 9140 987d bd40
00000160: 2fdf 8540 de26 8d40 167f 8540 ec20 ea40
00000170: 5504 9c40 fc1c b6bf 6a5b d33e 1158 bac0
00000180: 1581 8c40 a915 0540 04f4 c43e f116 d840
00000190: c14a 0a41 dc99 f4c0 2a5a cf40 e80f 84c0
000001a0: 262a afc0 9036 a540 d40c 9040 86eb 25c0
000001b0: 6c6f d0c0 90b7 8340 8b31 bcc0 a6ce 9b40
000001c0: 709b c3c0 379c 3dc0 509d 1540 fde5 853f
000001d0: 591a af40 d84d 2540 4932 0bbf 6d51 f7c0
000001e0: c341 743f fb1e 2cbe c8cd 3dbf 17bd 6dbf
000001f0: 2805 71c0 eaee 9fbf 030b 4b40 0b55 d03e
00000200: 413d 1640 6618 153f c1a1 d7be 7273 8abe
00000210: bd6b 29c0 476a 073f 7f3a 4a3f bd01 e9be
00000220: fd3b 5cbe c687 45bf d3b4 fdbf 3a18 cb3f
00000230: 5c65 453f 6c38 b6bf 14f3 9c3e d37f 53c0
00000240: e853 78bb 2a7f 5fbf 34b0 f1be f205 fbbf
00000250: 1723 3bbe a175 0740 2108 bdbf c6d5 303f
00000260: 90bc c23f 585f 88bf 3c0e 3dc0 c266 a23e
00000270: 7fbe 623f 40bc de3f 7c33 f0bf c4b8 683f
00000280: e4e4 0ec0 a77d 99bd 44fd 4ac0 5b61 dbbf
00000290: 3e3c ccbf f7c3 d0bf c4ea 8240 29d5 163f
000002a0: 9a49 adbf a171 5ac0 0100 4b3e 5896 97bf
000002b0: c7b8 a4bf 8f0a 55be 24d4 cfbf 9a2a 0fc0
000002c0: 7eb7 d0bf 929b 273e f186 743f 35dd da3e
000002d0: 2c08 923f 0bb5 593f 7200 1140 de17 61c0
000002e0: be03 29bf 57c0 7040 6d50 9abf a1b4 81bc
000002f0: 5408 693e 3f8d a03f 3273 59c0 da47 543e
00000300: dc63 ba3f 2433 523e 52cc 41c0 9f7f e13f
00000310: a1ae d13e 6143 b3be 8e6c 57c0 49f2 7fbf
00000320: c24a a0bf 8e52 96bf 9ab4 a9bf ae32 bdbf
00000330: f700 333f a825 febd a869 f0bf 55b0 d53f
00000340: f656 853f 01a1 db3f 90e0 4cbf fa9f 943f
00000350: 4ce9 c23f ef0f 54c0 d3b6 d73f c500 49bf
00000360: 3da7 e93e d493 2b40 779a 2440 e487 1140
00000370: e24d 9d3f 1258 59bf 9cf7 f3be caf3 ff3e
00000380: e646 c83e e3cf 953f b02f 11bf 73f2 9f3f
00000390: a8c7 e43e aed2 463f 09b3 8e3f dd96 5cbf
000003a0: 8ee2 bebf 4f93 943d b76a 9340 f56d 0040
000003b0: 4b18 2bbf 64f1 0b40 9ccb c13f c599 ecbf
000003c0: a56c d0c0 9f6f dcc0 5801 93c0 724b 7fc0
000003d0: a777 5d3d fe2f 5bc0 17c0 8640 d7d5 ac3f
000003e0: 2b03 7940 acf3 7e40 dba3 ab40 1cb6 e940
000003f0: 83e7 d940 41fc 2340 47dc c73e f325 81c0
0.13052112 -1.0942618 0.0047226683 -1.8106369 -3.5593407 -1.2311821 2.6475875 3.3489747
3.6181393 2.0624285 0.7915134 0.7158695 -2.0424602 0.55619025 1.085398 -0.49626133
2.8090465 -1.7037481 -2.5663936 4.4013114 3.7101047 -3.5019193 1.5300903 -2.451826
-0.5795596 -0.19119176 1.3754139 -0.60332584 -1.7470548 1.7365168 -2.0823572 2.6754727
0.28477374 -0.35518938 -2.7536416 -0.8353649 1.4135889 -0.03154109 -0.8699879 0.010809622
-0.59951705 1.6733997 -2.125289 0.28041366 2.3519769 -0.20602301 -0.44280615 -4.471724
-4.443498 -3.5804543 -1.4166913 -2.1635373 0.6696731 0.97770995 -1.2864552 -0.1833077
-5.088851 0.1556956 3.795423 -4.47086 -3.623362 5.257757 -0.4495467 -0.08857954
-0.26989803 0.5516861 -2.0544834 -0.043950573 1.2321182 0.111579694 1.1296244 -3.1731029
-0.06597685 -0.5001169 0.1818958 1.787773 -1.9954906 0.84690994 -4.104285 0.64994174
-7.3522515 -7.7033978 -0.8014513 -3.4795918 -1.8453543 -3.7080572 4.541659 5.9215813
4.183494 4.4109945 4.1717634 7.316519 4.875529 -1.4227595 0.4128068 -5.8232503
4.390757 2.079447 0.3846742 6.7528005 8.64325 -7.6437817 6.4797564 -4.1269417
-5.473895 5.1629105 4.501566 -2.5925002 -6.5136013 4.1161575 -5.8810477 4.8689756
-6.1127243 -2.9626596 2.3377266 1.0460812 5.4719663 2.5828762 -0.54373604 -7.7286897
0.95412844 -0.16808693 -0.7414212 -0.92866653 -3.7659397 -1.2494786 3.172547 0.40689883
2.3474886 0.58240354 -0.42115596 -0.27041203 -2.6472008 0.5289654 0.7899551 -0.4550914
-0.21507259 -0.771603 -1.9820808 1.5866768 0.7710779 -1.4235969 0.30654204 -3.3046768
-0.003789181 -0.8730341 -0.47204745 -1.9611189 -0.18275104 2.1165545 -1.4768106 0.6907619
1.5213795 -1.0654097 -2.9539938 0.31719023 0.88571924 1.7401199 -1.8765712 0.9090693
-2.2327204 -0.074946694 -3.171708 -1.7139086 -1.5955884 -1.6309804 4.091158 0.58919007
-1.3538086 -3.4131854 0.1982422 -1.1842756 -1.286889 -0.20804809 -1.6236615 -2.2369752
-1.6305997 0.16367939 0.95518404 0.42746893 1.1408744 0.85041875 2.2656522 -3.5170817
-0.66021335 3.7617395 -1.2055794 -0.0158332 0.22757083 1.2543105 -3.397656 0.20730534
1.4561725 0.20527321 -3.0280957 1.7617072 0.40953544 -0.35012344 -3.3660007 -0.9997907
-1.2522814 -1.1743944 -1.325824 -1.4781091 0.6992335 -0.12409526 -1.8782244 1.6694437
1.0417163 1.715851 -0.80030155 1.1611321 1.5227447 -3.3134725 1.6852669 -0.785168
0.45635405 2.6808977 2.5719278 2.273919 1.2289393 -0.8490001 -0.47649848 0.49990684
0.3911659 1.1704067 -0.5671339 1.2495865 0.44683576 0.7766522 1.1148387 -0.861677
-1.4912889 0.072546594 4.6067767 2.0067112 -0.66833943 2.1866083 1.5140262 -1.8484427
-6.5132623 -6.8886256 -4.593914 -3.9889798 0.054069187 -3.4248042 4.2109485 1.3502759
3.8908184 3.9836226 5.363752 7.30348 6.8095107 2.5622714 0.39035246 -4.0358825

Model.forward_a.seq.1.layers.0.self_attn.in_proj_bias f4 [120]
00000000: 8945 81bf 48d4 753f 3600 6940 e978 80bf
00000010: 4b60 1140 9c12 2340 4b4b 31c0 37e0 15c0
00000020: 54d9 43c0 9b69 723f dc86 8bbf be04 1c3f
00000030: e1d0 ca3f e69b 3fbf 8904 d03f d594 90bf
00000040: 9bb7 e4bf e414 bbbf e022 bfbf d450 95bf
00000050: c93c 243f bb6f 9d40 cb4d 893e 8715 af3f
00000060: 86d6 9cbe 2527 c2bf 8a69 15be 4018 a43f
00000070: 7156 1dc0 0eaa 09c0 4942 1cbf 152e 0140
00000080: 79bf 853e c068 833f d201 bf3e b52d aa3e
00000090: 1d8b 85bf 3cc6 87be fd36 39c0 38cf e4bd
000000a0: ec70 2840 be60 56c0 9a9d f63f 79f6 3440
000000b0: 19f8 8abe fdf7 84c0 6c43 c23f 4766 7440
000000c0: d975 5e3f 3a0c b23f b0f0 e5be c85b 4ebf
000000d0: 6d7a bcbf f028 733f 0284 153f 17fc d9bf
000000e0: db83 a440 5e98 83c0 5b25 45c0 1af2 903e
000000f0: 82c1 ea3e ca3a 89be 32f6 20be 41af 98be
00000100: e4e3 0fbf b7a5 a73f 9314 423f f816 4a3f
00000110: 2951 32bf 6ca2 703f 0b0a f33f 325e dbbf
00000120: 0c06 f8be 0979 eebe bbf4 143d df41 79be
00000130: 1664 0dbf 33b1 89bf a95e 8d3f 5d71 71bf
00000140: a689 48bf c8a3 74bb abb6 97be cbb0 133e
00000150: a52f 91be f758 0f40 c7a9 b83f 2f21 35c0
00000160: 5315 363f 4f10 543f 4822 1d3f e69e 60c0
00000170: 7486 35c0 8c97 a23e 2afd 4fc0 f505 32c0
00000180: c37d d23f c2fc 6cbf f3af 573f b5d9 6e3f
00000190: 0d99 b6bf 1843 04c0 1065 c53e 64b0 1fc0
000001a0: 4379 bd3f 7191 e63f 3e3b bc3f 0993 2b40
000001b0: cc0f a9bf 90e9 1840 9167 3c40 dbf1 d23f
000001c0: e2f6 2bc0 65b8 a2bf 240f debf fe57 8abf
000001d0: 74ed 813f f752 753f 7803 903f 89bf 99be
-1.0099345 0.9602704 3.6406379 -1.0036899 2.2715023 2.5480108 -2.7702205 -2.34181
-3.0601397 0.9469239 -1.0900531 0.60944736 1.5844995 -0.7484726 1.6251384 -1.129542
-1.7868532 -1.461575 -1.4932518 -1.1665292 0.6415525 4.919889 0.26817164 1.3678445
-0.30632418 -1.5168196 -0.14591041 1.28199 -2.458401 -2.1510043 -0.61038643 2.0184376
0.26122645 1.0266342 0.37306076 0.33237997 -1.0433079 -0.26518428 -2.8939812 -0.11172336
2.6318922 -3.3496547 1.9266846 2.8275435 -0.27142408 -4.155272 1.5176826 3.8187425
0.8689857 1.3909981 -0.44910192 -0.806088 -1.4724861 0.9498434 0.5840455 -1.7030057
5.1410956 -4.1123495 -3.080405 0.2830971 0.4585076 -0.26802665 -0.15718916 -0.29821208
-0.5620711 1.3097447 0.75812644 0.789413 -0.6965509 0.93997836 1.898744 -1.7138121
-0.48442113 -0.46576717 0.036366206 -0.24341534 -0.55230844 -1.0757202 1.1044513 -0.94313604
-0.78335035 -0.0037329067 -0.29631552 0.1442291 -0.28356662 2.239805 1.4426812 -2.8301504
0.7112629 0.82837385 0.61380434 -3.5096984 -2.8363314 0.31756246 -3.249827 -2.7816136
1.644463 -0.9257318 0.8425285 0.93300945 -1.4265457 -2.066595 0.38553667 -2.495141
1.4802631 1.8013135 1.4705579 2.6808493 -1.3207946 2.3892555 2.9438212 1.6480058
-2.6869435 -1.2712523 -1.734837 -1.0808103 1.015059 0.9582972 1.1251059 -0.30028942

Model.forward_a.seq.1.layers.0.self_attn.out_proj.weight f4 [40, 40]
00000000: 6c69 61be 38d9 9cbe 59d8 a2bd 8699 e4be
00000010: 4b93 9cbf 74dd a23f bac0 213e 04f1 36c0
00000020: 8d91 c43e f5b4 bf3f 9803 bfbf 0e70 69bf
00000030: 00da 16c0 b740 f1be 63fe 393e 0ddc 0bc0
00000040: a315 0240 1a63 53c0 92bc 7abf c719 d63f
00000050: c5bc 2ac0 36a9 c7bf 2b25 b03f bbcc 5ec0
00000060: 2184 9540 5317 5bbf 9249 7540 40d5 5a40
00000070: ba52 0dc0 e0f1 7740 8a1d b53f b58a 2240
00000080: 154f b7bf 66e1 0fc0 a87c 4ac0 24f3 bbbf
00000090: 73a4 4040 faef e53f 3e14 4740 909b 983f
000000a0: b65d 52c0 d05b a6bf 7c3b 1fbf 77de 7d3f
000000b0: 032b ae3f 3c5c 1a40 217d 82be 0899 87c0
000000c0: 2993 e23f 69ce 923f 69a1 a4be 0d95 09bf
000000d0: 13ef 5fbe b274 b2bf ea05 0d3d 2246 86bf
000000e0: 1cd2 5c3f c098 e6bf 0fe0 0dbf 0f03 973e
000000f0: b7f0 abbf 57bf dbbf ee67 6b3f c336 c3bf
00000100: 6328 1a40 a054 e9bf f015 c43f f375 a03f
00000110: 909d 26bf 378b bf3f 12ec b43e b47f d83f
00000120: 3c01 1bbf c840 2cbf 2da5 0ac0 5ffa 4fbf
00000130: 89f1 41be 5182 343f da5d 603e aef8 703f
00000140: d877 1bbe 3268 aebf 5038 0abf 744e 7a3f
00000150: fd57 a63e 7363 a43f db56 9ebf 576d eebf
00000160: 5c11 2440 40b4 1a3f bb81 17c0 f1a3 943f
00000170: 6386 323e 2315 dfbf 3308 1440 a4d7 8abf
00000180: 37f6 953f 1bdb a0be e18f a5bf 0364 83bf
00000190: 4c1b b3bf 23db 00bf 62a1 ebbf f80f 15c0
000001a0: 7714 913e c045 99bf a299 1640 3eec 4e40
000001b0: 1ef6 ffbf 15aa 8140 48c3 44be 3834 d03d
000001c0: 6dab 0140 4608 15c0 9452 d53e f262 f23c
000001d0: 8180 de3f 5d81 403f f30c b53f 6e4d 1d3f
000001e0: abdb 8fc0 0c75 5440 61f5 3a40 fb2e 39c0
000001f0: a334 dabf 4837 b03f d1f3 45bf 9dee eabf
00000200: d13b 0540 57c7 65c0 a455 5f40 8d4f ab3f
00000210: f97e 7740 0e69 8abe e806 be3f 4942 9640
00000220: 5c91 3ec0 23bc 17c0 8c8a 4c40 69f8 bb3f
00000230: 0b69 78bf 40f7 2d40 81c5 3a40 2954 1340
00000240: 64d3 74c0 15d8 cf3e 892b cdbf a92f 0bc0
00000250: 1b52 2440 eea3 94bf 35bf 14c0 1ee0 10c0
00000260: 60fc 0540 7691 5a40 5de9 ab3f 46dc 9340
00000270: 67c6 30c0 d7b3 82c0 f32a 83c0 ac07 60bf
00000280: d154 1b40 e554 f2bd e1a5 06bf f660 db3f
00000290: cd3d 1440 e10e b73e a5de 8a40 0dff 9bbf
000002a0: cb2d 1ebf 5120 3c40 db38 8cbf 24f6 c0c0
000002b0: 3fde 9ac0 7573 5440 3ad6 abc0 d76f 47c0
000002c0: 17bd b13f ba4c a33e 37fd 02c0 f0d6 c03e
000002d0: 81f5 eb3f 88fc adc0 cc31 59c0 0454 073e
000002e0: 2a33 3440 c78d c13f 3958 403f ea87 1e40
000002f0: bc17 fdbe bfe6 f53f a897 a340 fc8c 0d40
00000300: 465c a1c0 53c0 35c0 ce04 21c0 4def 89c0
00000310: 2747 a33f a7e9 2e40 8b86 0940 268d cdbe
00000320: 5890 8bc0 d623 953f 06e2 4cbe b602 dc3e
00000330: 1bf8 063f d78c 3640 fb0d dd3f 02c3 89c0
00000340: 901d 9abe 3676 7b3f 62e3 9e3f 12cd 3bc0
00000350: 5e9b ddbf b1f1 82be 7e03 34c0 3e0d 9bbf
00000360: b157 1c3f 1dba c0bf f4d4 623f e770 5e3f
00000370: 02bb f0bf 0049 ebbf 67b6 14bc 9fa0 4dbf
00000380: 1d76 ce3f f293 323f ce6f 0d3f af45 1940
00000390: 6ee6 0bbf 81be 0b40 eef9 cb3f ebbc b23f
000003a0: 5951 e2bf ac16 14bf c801 1dc0 3880 023c
000003b0: 2473 643e ca95 0c3f 9b97 36be e11a 403c
000003c0: dcff 6bc0 a177 cebe f055 c63d ab27 633f
000003d0: caf0 9a3e 7094 1040 32e0 b73e ffe9 7ec0
000003e0: 9739 383d 4956 fa3f 8a7e 2ebf 689c b7bf
000003f0: 8d42 47c0 9fd1 633f 5b27 59be a19c b9bf
-0.22012872 -0.30634475 -0.07951421 -0.4464838 -1.223245 1.2723832 0.15796176 -2.8584604
0.38392296 1.4977099 -1.4922972 -0.91186607 -2.3570557 -0.47119686 0.18163447 -2.1853058
2.0325706 -3.3029237 -0.97943985 1.6726617 -2.6677716 -1.5598514 1.3761343 -3.4812458
4.672379 -0.85582465 3.8326154 3.4192657 -2.2081742 3.8741379 1.414964 2.539716
-1.4321009 -2.2481322 -3.1638584 -1.4683576 3.0100372 1.796386 3.1106105 1.1922474
-3.2869697 -1.2996769 -0.6220014 0.9916758 1.3606876 2.4118795 -0.2548609 -4.2374306
1.770116 1.1469241 -0.32154396 -0.5374306 -0.21868543 -1.3941863 0.03442947 -1.0490153
0.862581 -1.8015366 -0.5542001 0.2949452 -1.3432835 -1.7167767 0.9195546 -1.5251087
2.408715 -1.822895 1.5319195 1.2535995 -0.6508417 1.496436 0.35336357 1.6913972
-0.6054876 -0.6728635 -2.1663315 -0.8124141 -0.18939795 0.7051135 0.21910802 0.94129455
-0.15182436 -1.3625548 -0.53992176 0.9777596 0.32489005 1.284285 -1.2370256 -1.8627118
2.5635595 0.6043129 -2.3672931 1.1612531 0.17434077 -1.7428325 2.3130004 -1.0847058
1.1715764 -0.31417164 -1.2934533 -1.0264896 -1.3992705 -0.50334376 -1.8408625 -2.3290997
0.28335926 -1.1974411 2.353127 3.233169 -1.9996984 4.052012 -0.19215119 0.1016621
2.026088 -2.32863 0.41664565 0.029588196 1.7382966 0.7519739 1.4144577 0.61446273
-4.495565 3.319644 2.9212267 -2.8934925 -1.7047313 1.376687 -0.7732516 -1.8354069
2.081776 -3.5902917 3.489602 1.3383652 3.8671248 -0.27033275 1.4845858 4.6955914
-2.977622 -2.370858 3.1959562 1.4685184 -0.9703528 2.718216 2.9183047 2.3020117
-3.8254023 0.40594545 -1.6028911 -2.174784 2.5675113 -1.1612527 -2.3241704 -2.263679
2.0935287 3.4151282 1.3430592 4.620639 -2.7621095 -4.084453 -4.098993 -0.87511706
2.4270518 -0.118325986 -0.5259686 1.7138965 2.316272 0.3575354 4.3396783 -1.218721
-0.61788625 2.9394724 -1.0954851 -6.0300465 -4.8396297 3.319547 -5.3699007 -3.1162012
1.3885831 0.31894475 -2.046705 0.37663984 1.8434297 -5.4370766 -3.3936644 0.13215643
2.8156228 1.5121392 0.7513462 2.4770455 -0.4943217 1.9211043 5.1122627 2.21173
-5.042514 -2.8398635 -2.5159183 -4.3104615 1.2756089 2.733011 2.1488369 -0.4014675
-4.36137 1.1651561 -0.20008096 0.42970818 0.5272233 2.8523462 1.7269892 -4.3050547
-0.3010068 0.9822725 1.2413142 -2.9343915 -1.7313039 -0.2557502 -2.8127131 -1.2113416
0.61071306 -1.5056797 0.8860619 0.86891025 -1.880707 -1.8381653 -0.009076691 -0.80323213
1.6129795 0.69756997 0.55248725 2.3948781 -0.5464848 2.1835024 1.5935647 1.3963903
-1.7681075 -0.57847095 -2.4532337 0.00796514 0.22309548 0.5491606 -0.1783127 0.011725158
-3.6874914 -0.40325645 0.0968436 0.88732404 0.30261832 2.25906 0.35913235 -3.983032
0.044976797 1.9557582 -0.68161833 -1.4344606 -3.113437 0.8899173 -0.21206419 -1.4500924

Model.forward_a.seq.1.layers.0.self_attn.out_proj.bias f4 [40]
00000000: 3119 00be 3fab 48bf 1103 1c40 918e 4abf
00000010: 0ab0 ae3f c685 f83f 5297 ba3e 5dcc 85bf
00000020: 596c 9b3f bc5f 373f b4ac 0fbe 7dd3 493e
00000030: 68f5 be3d 41c5 2fbe 1871 e63f 7804 f93f
00000040: eb5f 21bf a554 e63f c1fe 0d3f b4ab 0cc0
00000050: 1356 c83e e78a b2bf ac23 743f e08d 4fbf
00000060: 51e0 393e 1cfc 82bf b515 0dc0 947e 1d40
00000070: 9c36 e63f 0a18 1dc0 f871 4fbe 0c67 883f
00000080: 1dbe 6b3f 435b 2f3f ad5c 09c0 504b 873f
00000090: f25b bc3d 96e3 f3bf 033f 5f3f a173 363e
-0.1250961 -0.783863 2.4376872 -0.7912379 1.3647473 1.9415824 0.36443573 -1.0452992
1.214244 0.71630454 -0.14030725 0.19709583 0.09324151 -0.1716509 1.8003263 1.9454489
-0.63036984 1.7994581 0.5546685 -2.19798 0.3912817 -1.394864 0.9536693 -0.8107586
0.18151976 -1.0233188 -2.20445 2.4608507 1.7985415 -2.4545922 -0.2025832 1.0656447
0.92086965 0.6849863 -2.1462815 1.0569859 0.09197225 -1.9053829 0.87205523 0.17817546

Model.forward_a.seq.1.layers.0.fc1.weight f4 [160, 40]
00000000: d823 51bf d61b 6940 a18f ea3d 57a3 243f
00000010: 7fbf 363f 19be b7bf 3fc7 50c0 0982 2540
00000020: 393c a6be 98c7 88be 30de de3e 0a22 613f
00000030: 08d2 b73f 2bec 92c0 5a54 f7bf f05e 1cbe
00000040: 6538 1cbf c93d a9bf 4de1 ecbe 3633 193f
00000050: 608e 30bf b190 9e40 a12c fe3d 04e2 c3bf
00000060: 8149 babf c71f 6b3f b744 ae3f f78e e2bf
00000070: b95d 40c0 a534 0340 3cfd 48c0 53ba 673e
00000080: 1038 da3f 16c6 753f bbdf dcbf b47b 3140
00000090: 44e7 80be eaaf b23f d7a2 2840 6099 4cc0
000000a0: 14a7 75bf 811a c93e 9bae 48c0 90c8 5ac0
000000b0: 2a92 d83f 3771 03c0 aeed e63e 0381 13bf
000000c0: 695d 1dbf f550 51bf 2fd6 333e 085b cb3f
000000d0: 959f e03f bfae b13f 26b0 06bf 0e4b 72bf
000000e0: 7e39 c4bf 886b 17be e062 84bf ef95 0e40
000000f0: 0ccd c83e 9cfa bebf 0a1f cb3e 946a b0bf
00000100: 33d0 613e 4086 e43f f543 2ebf bfc2 f5bf
00000110: 18e1 a9be 9e24 523f ccf2 b63e a263 c53f
00000120: 53ab 80bf 3651 c03f 5e90 983f 0769 c1bd
00000130: 4801 d23f c89c c73f 8602 f1bd d2b2 9abf
00000140: eaa2 853d 2c14 ef3f 883b 9f3f b83f a3bf
00000150: aedb a3bf 8c2a 51c0 2f68 68bf 89be 1540
00000160: 6213 b1bf 8f96 9fbf a7a1 f6be aa01 283f
00000170: 0e72 5e3f a3a1 9abf 476b 7bbf 1d69 a5bf
00000180: f6d2 9ebf 2056 42bf ba9f a1bf c94e 3040
00000190: 1b9d 383f 573b 0740 a301 213e 1a8c ddbd
000001a0: a8d3 25c0 db9a cf3f 65aa 853f 910a 11c0
000001b0: e714 433f 107d 2140 cd48 a7bf 2665 9a3e
000001c0: c693 1040 6eba dd3f 6784 2fbd 8d6b debf
000001d0: 9f8b cd3e b2aa 2440 eed0 333f 4f7e 0140
000001e0: 1b6f e1be 9143 ebbe 07bd 10c0 7c7f eebe
000001f0: 9795 b83f bc4c 25bf 1aef fc3f 8bc9 77bf
00000200: 714e 353d 1f03 7740 b7b9 97bf 2e89 12c0
00000210: ace7 c9bd 9c48 7640 83ef ab3e 7888 5f3f
00000220: 0581 4dc0 ab64 a33d d742 b53d 77f3 1cc0
00000230: fe67 273f eb85 69c0 e81e c13e 5ce8 9dbd
00000240: 7b36 f53f 878d 623f 6a1d c6be b803 913f
00000250: e75d fabe 7946 153e 855d 2c40 b15a 0b3f
00000260: a25f 21bf ba29 82c0 c286 58bf 82cd 5fbe
00000270: d721 66bf f721 e9bf a248 8840 4ba6 39c0
00000280: 1c50 0cc0 5057 13be b027 08c0 06c9 a3be
00000290: edad 38c0 56b5 4fc0 e822 2e40 3340 febe
000002a0: b550 9bbf 305a d33e b032 b13d f7a1 8fbf
000002b0: 793f f7be 06ae 6840 0765 1b3f 5f0a a8bf
000002c0: cbf2 98bd 68c7 26c0 3e2c ba3f ca11 66be
000002d0: 6719 b63f 56da 3d40 e9a6 27bf 7f47 84be
000002e0: 087d 18c0 f1e0 893f f165 6640 32ec 0fbe
000002f0: f9b5 8cbf 9d52 4540 7681 1640 7b95 8cbd
00000300: 3554 7d3f e0e7 883e 72bc 0dc0 0bb0 a13f
00000310: fd31 c8be 08d9 533f 699b 2640 0f50 a0bf
00000320: a75a 8a3f 1a00 863f 3f40 073f 28fd 8abf
00000330: f4fb af3f faf9 87be b310 f2bd 7a67 fc3f
00000340: b83c 9abf a4b8 55bf c7bf 71bf e2fb 21bf
00000350: 28cf 32be 69ae 383e 8ee5 66bf 4684 cbbf
00000360: 4545 5abf 5a99 36bf 3735 eebf df36 1a3f
00000370: 647c 9e3f a5c4 4c3f f2dc 1c40 2426 2e3f
00000380: ddc1 0b3f 63bd 21be 746d 1b3f 6ba1 00bf
00000390: f4c4 a33f 07cc 763f fc7d c63e 46ab 42bf
000003a0: ef66 a9be e3f4 473f 54d3 183f f8cc adbf
000003b0: 14fe 913f 5a2d ce3e 24fe 04c0 5c6f 903f
000003c0: d274 7f3f 3fe2 113f 3a22 33be 65f4 1abf
000003d0: f583 af3e f39f 29bf 6faf 2d3e deaa 1440
000003e0: cd14 433e b8e0 dabe db84 45bf 97bb 433f
000003f0: 938e 0ebf 788b 113f fdaa 9ebe d5e3 983e
-0.8169532 3.642324 0.11453176 0.64311737 0.7138595 -1.4354888 -3.262161 2.5860617
-0.3246782 -0.26714778 0.4352889 0.87942564 1.4360971 -4.591329 -1.9322617 -0.15270591
-0.6102355 -1.322198 -0.4626564 0.59843767 -0.68967247 4.9551625 0.12410856 -1.530335
-1.4553682 0.91845363 1.361472 -1.769988 -3.0057204 2.0500882 -3.1404562 0.22629671
1.7048359 0.9600538 -1.7255777 2.7731752 -0.25176442 1.3959935 2.634939 -3.1968613
-0.95958066 0.39278033 -3.135657 -3.4184914 1.6919606 -2.053785 0.4510321 -0.5761873
-0.6147066 -0.81764156 0.17562173 1.5887156 1.75487 1.3881453 -0.5261253 -0.94645774
-1.5330045 -0.14787114 -1.0342674 2.2279012 0.39218938 -1.492023 0.39672118 -1.3782525
0.22052078 1.785347 -0.68072444 -1.9200057 -0.33179545 0.82087123 0.35732114 1.542103
-1.0052284 1.5024784 1.1919057 -0.094438605 1.6406641 1.5594721 -0.117680594 -1.2085822
0.06525214 1.8678031 1.2440042 -1.275382 -1.2801416 -3.2682219 -0.9078397 2.3397543
-1.383404 -1.2467822 -0.48170206 0.6562754 0.86892784 -1.2080578 -0.9821057 -1.2922703
-1.240813 -0.75912666 -1.262687 2.7548087 0.72114724 2.1129968 0.1572328 -0.10817738
-2.5910435 1.6219133 1.0442625 -2.26627 0.7620377 2.5232582 -1.3069092 0.30155295
2.2590194 1.7322519 -0.042850878 -1.7376572 0.40145585 2.5729184 0.70240676 2.0233343
-0.4403008 -0.45949987 -2.2615373 -0.46581638 1.4420651 -0.6457021 1.9760468 -0.96791905
0.04426426 3.8595655 -1.1853551 -2.2896228 -0.09858641 3.8481817 0.3358117 0.8731761
-3.2109997 0.07978185 0.08850639 -2.45236 0.65393054 -3.6487987 0.37718892 -0.07710335
1.9157251 0.88497204 -0.38694316 1.132926 -0.48899767 0.14577664 2.693208 0.5443526
-0.6303655 -4.0675936 -0.84580624 -0.21855739 -0.89895386 -1.821349 4.2588663 -2.9007747
-2.1923895 -0.14388776 -2.1274223 -0.31989306 -2.8856156 -3.2454429 2.7208805 -0.49658355
-1.2134005 0.41279745 0.08652246 -1.1221303 -0.48290613 3.6356215 0.6070103 -1.3128165
-0.07468184 -2.6059208 1.4544752 -0.22467723 1.4226502 2.9664512 -0.6548906 -0.25835797
-2.3826313 1.0771772 3.599972 -0.14054945 -1.0993034 3.0831673 2.3516517 -0.06864449
0.98956615 0.26739407 -2.2146268 1.2631849 -0.39100638 0.8275304 2.6032355 -1.2524432
1.0808915 1.0468781 0.52832407 -1.0858507 1.3748765 -0.26557904 -0.118195914 1.9719079
-1.204978 -0.83484864 -0.94433254 -0.6327497 -0.17461836 0.18035282 -0.9019402 -1.5899742
-0.85261947 -0.71327746 -1.860999 0.60239977 1.2381711 0.79987556 2.4509854 0.6802695
0.54592687 -0.15794902 0.6071389 -0.50246304 1.279448 0.9640507 0.38767993 -0.7604259
-0.33086345 0.7810804 0.5969746 -1.3578176 1.1405663 0.40268975 -2.0780115 1.1283984
0.9978763 0.5698585 -0.17493525 -0.60529166 0.34280363 -0.6625969 0.16961454 2.322929
0.19050904 -0.42749572 -0.77155846 0.76458114 -0.556863 0.5685344 -0.3098983 0.29861322

Model.forward_a.seq.1.layers.0.fc1.bias f4 [160]
00000000: 6e92 cebe aaac 3abe 1ba7 a7bf 764d dc3f
00000010: 70c4 7e3f 9301 c9bf 2d8b afbf 9610 003e
00000020: f611 efbe 5ec4 c9bf 363c 47c0 a87e 643f
00000030: 17e1 4abe 7f72 2fc0 b1e7 debf 18cc cabe
00000040: 15c7 71bf 04e3 16c0 9b5d eebf 5fc7 e5bf
00000050: f815 15bf fb23 5bbe 4527 1dbf ad88 b8bf
00000060: 29de 28c0 8851 5cbf 74f2 b4bf 37bd efbf
00000070: 8f20 a0bf 8f59 03c0 4401 e9bd 6152 f7be
00000080: 6353 e9be 02ea 483f b9b4 b9bf 1108 dabe
00000090: 7a33 c2be 45d9 88bf 262e 843e 3a2d 1dc0
000000a0: 4115 63be c9b5 e6bf 6b5d f2bf 52a8 04bf
000000b0: dfb1 c23e 9dc0 a040 9c58 c63f e8c6 61bf
000000c0: 0554 9abf 38fb 24c0 84da 00bf e24b 42be
000000d0: 565e 96bf ba02 45bf bc5b 0cc0 17ac b2bf
000000e0: cedc 2cc0 20e4 44bf a6e4 09bf 69c5 ddbf
000000f0: 6344 c33e b8e1 90bf e11c 703f 1c89 4dbf
00000100: 8ac7 a4bf a46b b8bf aa26 c0bf d956 64bf
00000110: 8c18 11c0 b665 d33e 1512 ecbf 4c8d 3cbd
00000120: 540b f6bf 11dd b3bf 1188 15bf 301c 4ebf
00000130: a70c babe e54a 37be d468 fabf db91 97bf
00000140: 238f 05c0 1cc1 64bf d4b1 aabf e431 a83f
00000150: 44d2 47bf fb4d 9ebf 998b 89bf c178 3fbf
00000160: 2b8e e7bf 2b7b 203e df89 39bc c810 b4be
00000170: 02db 8d3d 733f 8ac0 daa0 c1bf ccc0 6e3e
00000180: ef04 24c0 6c5a 22bf 820b 47bf 01cb 9bbf
00000190: 5b88 bebf ad15 dbbf 7716 8dbf 7c59 69bf
000001a0: bdf3 65bf c747 13bf ab9b 0ec0 d1fb d03f
000001b0: 0394 c1be 4587 a8be 51bb babe a518 6fbf
000001c0: 6ca3 c0be 82fc e8bf dd2e c4bf ce64 02bf
000001d0: f39f 1cbf 2364 cdbe d77c 06c0 6cc7 f1bf
000001e0: dfff 09c0 dfd1 4bbf 7d6f dcbf 740b 30bf
000001f0: 8283 62bf d715 97bf 41f7 2dc0 5930 86bf
00000200: 7522 e1bf ce7f 333f 24d2 06bf 763c 04bf
00000210: cbd5 efbf 55f6 7fbf fe0d 5c40 afad 35bf
00000220: 8842 6fc0 c0da 863f bdc1 883f 5bd1 4f3f
00000230: dd41 11c0 ea15 02c0 8ae7 86be 4e3a 29bf
00000240: 50c8 2fbf f2c9 223d 54fa 4ebf 1910 c2bf
00000250: 1651 4ac0 1585 20bf ac4f c83e 7798 d8be
00000260: 5a96 95bf af66 abbf 0e83 25bf 129a 72c0
00000270: 6f8f 23c0 d013 e4bf 7de8 63bf 5de3 aa3d
-0.40346092 -0.18229929 -1.3097872 1.7211139 0.9951849 -1.5703605 -1.3714348 0.12506327
-0.4669339 -1.5763052 -3.11305 0.8925576 -0.19812427 -2.7413633 -1.7414457 -0.39608836
-0.944444 -2.357606 -1.8622316 -1.7951468 -0.58236647 -0.21400444 -0.61388046 -1.441671
-2.6385596 -0.86061907 -1.4136491 -1.8729619 -1.2509936 -2.0523412 -0.113771945 -0.48305038
-0.45571432 0.7848207 -1.4508277 -0.4258428 -0.37929899 -1.0691305 0.25816458 -2.4558854
-0.22176076 -1.8024226 -1.8934759 -0.51819336 0.3802633 5.0235124 1.5495791 -0.8819413
-1.2056891 -2.5778332 -0.5033343 -0.1897426 -1.1747539 -0.76957285 -2.193099 -1.3958768
-2.7009768 -0.7691059 -0.53864515 -1.732587 0.38138112 -1.1318884 0.93794066 -0.8028734
-1.2873394 -1.4407849 -1.5011799 -0.8919502 -2.2671232 0.41288537 -1.8443018 -0.04603319
-1.9222207 -1.4051839 -0.58410746 -0.8051176 -0.36337778 -0.17899664 -1.9563241 -1.1841387
-2.0868614 -0.8935716 -1.3335519 1.3140225 -0.78055215 -1.2367548 -1.0745727 -0.7479363
-1.8090261 0.15671985 -0.011324375 -0.35169053 0.06926538 -4.3202453 -1.5127213 0.23315734
-2.5628011 -0.6341922 -0.77751935 -1.2171327 -1.4885362 -1.711599 -1.1022481 -0.9115217
-0.8982504 -0.575314 -2.2282512 1.6326848 -0.37808236 -0.32915702 -0.36471036 -0.9339698
-0.3762468 -1.8202059 -1.5326802 -0.50935066 -0.61181563 -0.4011546 -2.1013696 -1.8888984
-2.1562421 -0.7961711 -1.7221524 -0.68767476 -0.88481915 -1.180354 -2.7182162 -1.0483505
-1.758864 0.7011689 -0.526644 -0.51654756 -1.873712 -0.9998525 3.438354 -0.70968145
-3.7384357 1.0535507 1.0684124 0.81178826 -2.269645 -2.0325875 -0.26348525 -0.6610459
-0.6866503 0.03974337 -0.8085072 -1.5161163 -3.161199 -0.6270307 0.39123285 -0.4230382
-1.1686509 -1.3390712 -0.646531 -3.7906537 -2.5556295 -1.7818546 -0.89026624 0.08344147

Model.forward_a.seq.1.layers.0.fc2.weight f4 [40, 160]
00000000: 8340 23bf dd11 8ebf a4d6 823e d26d 06c0
00000010: d9a2 c1be 5231 ae3d 8f7f ebbe 6e0c 773d
00000020: ca00 973d 8a8d 3e3e 5d27 f93f 58a7 f53e
00000030: 5e30 6dbe 6ce5 a7be 6040 153d 29da 74be
00000040: c7dd 823d 70c7 fc3e 263b 97bf 8a2c 253f
00000050: 8325 963e 47f5 853d 88c8 4d3e 1429 ac3e
00000060: 0e17 b73d 1086 efbd 0d96 c53f b888 36bf
00000070: f3c7 aa3e 6be7 0cc0 753c edbf 2d3c 9fbd
00000080: 296f 31bf b165 8b3d 399a 173e be9e bc3e
00000090: 7f35 563f 54aa 85be a5f8 02bf eab2 a73e
000000a0: 9300 9b3d f363 0e40 4188 2d3f 1bfd 433f
000000b0: 2e41 46be f9a0 43bf a917 23bf 5307 e6be
000000c0: ed67 d53e ded5 023f a0b5 e43c 9e5b 1cbe
000000d0: 4696 e53d 031b 853e 9b3a 2b40 7925 5e3e
000000e0: 17b7 75bd 5821 933f 551b 4cbd cdf3 553e
000000f0: 83bd bc3e 843e 5fbe 5dc5 a13f cd85 2fbe
00000100: fed5 55c0 0003 c3bf e919 dd3e dafe 6f3f
00000110: 614c 9ebf a031 61bf a653 2ebf 7ae6 843e
00000120: f01a 123f e328 2c3e 190c 2cbf 8eb8 ae3c
00000130: 7ee2 c0be 00d1 94bd b32f c33e 7936 f7be
00000140: 716a 693e 2e25 1abf b0c6 993e c63d 9c3e
00000150: e615 163f 362b 473d 80ad d4be 89ff 89bf
00000160: 8461 f4be 4db3 973f 2c63 66be 2664 0f3e
00000170: 784b 2ebb b0d1 c9bf 6681 eebe d4d2 7ebf
00000180: dbc8 093f 29d2 2a3f 393c 68bf 6105 f1bf
00000190: 7f3c 513f 63a8 4fbf 1281 9d3e 8b17 263e
000001a0: dba4 533e 2ed7 a7be b7c4 debe 9441 acbf
000001b0: c41a a13e 700e 70be 8da3 0fc0 665f eebf
000001c0: e31d 0fbf 3ea3 953e 7e68 a2bf 4f6d 9ebe
000001d0: 4f33 c13e e108 da3e 6416 9ebe c7ab 15bf
000001e0: 8cbb e5be 5753 2dbf 2818 0dbd 99be 0a3f
000001f0: 7ffe 1b3e 6ce7 843e fc97 d63e 30fe 12be
00000200: 1c9b 8c3f b07e ec3d 2769 dc3d 84bd 7e3e
00000210: f8f5 313c cd0c 2c3d 43f8 fd3f db35 21be
00000220: 9987 833f fde1 113d 0c49 8dbf b465 90bf
00000230: 900a df3d 3e41 333f bb91 20be aa0b b43e
00000240: 14d5 ffbe 0367 bfbe f332 27bf 60dc a0be
00000250: 7e45 bdbf 6db5 76bd 8ed8 393f b0f9 86bd
00000260: 444f 85be 531b da3e 3587 9ebe a28b 22bf
00000270: adc8 ea3e 8e9d 09bf 41f7 4fbe 70aa a6bf
00000280: 5c57 07be 3ed1 cf3e f15c 19bf 8a24 81bf
00000290: 9495 e7bf 1b7d 82be 1fe6 f5be 513a 00bf
000002a0: 1bb7 b3be fce0 883f c3be ccbf a740 fbbe
000002b0: b648 a5bf 501e b6bf dd82 d5bf 04cf 20bf
000002c0: aedb 94be 14e8 94be 013b 98bf c5f1 7e3d
000002d0: 6e2e e03c 2ef6 823d 0094 b3be 5dad 37bf
000002e0: c78e 113f 8c1b 3cbf 6b7d 9bbf 938f 08bf
000002f0: c2d2 76bf d97a 50c0 0af0 963f 7921 403f
00000300: 26df 0d3f b057 3dc0 e16a b7be 0413 64bf
00000310: 6b60 92bd 3426 eabf b1c4 91be 7b7a 0d3e
00000320: d420 2c3e 4552 f0bf 3d88 e4bd 04be 20be
00000330: 0dfa 90bf 1fe3 9bbf a21b 9ebf 5f5c 043d
00000340: 5755 3bbf 4b0b aebf da52 6dbe ef9b 9cbd
00000350: 5e88 92bf 3074 87bf c483 03c0 21e0 97be
00000360: 735c 413e 9987 53bd 0830 10bd 5b46 b6bd
00000370: 853b edbe c63c 9e3e daa3 20bf 3e22 9dbe
00000380: 2f9f c8bf 2c26 a3bc d74d b1bd 4b5f 2abf
00000390: d2c7 41bf e289 08bf 3ae2 15bf 6d9e e7be
000003a0: 39e6 573f bc11 2dbf b5e9 f43e c094 3cbd
000003b0: 1ce4 5dbe 90e8 acbf 021b 55bf 8e44 43be
000003c0: 2af3 afbf debb 90bf b0d6 5bbf 0e07 9ebf
000003d0: 92c8 eebe 1e8e 5cbf c093 083f fa2a a0bf
000003e0: 2c23 e53c 6cb1 92be ea21 5f3f 50af 1dbf
000003f0: 9a66 82bf 907e 783f 2796 94bf 51d7 58be
-0.6377031 -1.1099201 0.25554383 -2.100453 -0.37819555 0.08505501 -0.45995757 0.06031459
0.073731974 0.1860868 1.9465138 0.47979236 -0.23162982 -0.32792222 0.036438346 -0.23911346
0.06389957 0.4937091 -1.1814926 0.64521086 0.29325494 0.065409236 0.20096028 0.3362509
0.08939944 -0.11695492 1.5436417 -0.71302366 0.33355674 -2.2016246 -1.8534075 -0.077751495
-0.6931024 0.068065055 0.14804925 0.3683986 0.8367538 -0.26106513 -0.5116065 0.32753688
0.07568469 2.2248504 0.6778603 0.76558083 -0.19360802 -0.764175 -0.6370798 -0.44927463
0.41680852 0.51107585 0.027918637 -0.15269324 0.11210303 0.2599717 2.675452 0.21693982
-0.05998906 1.1494551 -0.049830753 0.20893784 0.36863336 -0.21801192 1.2638355 -0.17140885
-3.341186 -1.523529 0.4318383 0.9374825 -1.2367059 -0.87966347 -0.6809639 0.2595709
0.57072353 0.16812472 -0.6720596 0.021328237 -0.376728 -0.07266426 0.3812233 -0.48283747
0.2279451 -0.6021298 0.300344 0.3051588 0.58627164 0.048625194 -0.4153862 -1.0781108
-0.4773065 1.1851593 -0.22498769 0.14003047 -0.0026595276 -1.5767117 -0.46583098 -0.9954045
0.53822106 0.6672693 -0.9071689 -1.8829767 0.81732935 -0.8111631 0.30762535 0.16219918
0.20668356 -0.32781357 -0.43509457 -1.3457513 0.31465733 -0.23443007 -2.2443573 -1.8622863
-0.5590498 0.29226106 -1.2688138 -0.3094277 0.37734458 0.425849 -0.30876458 -0.58465236
-0.4486965 -0.6770529 -0.034446865 0.5419708 0.15233801 0.2595781 0.4191283 -0.14354777
1.0984836 0.11547601 0.10762244 0.24876982 0.010861866 0.042004395 1.9841388 -0.157432
1.0275756 0.03561591 -1.1037917 -1.1281037 0.108906865 0.70021427 -0.15680592 0.3516515
-0.49967253 -0.3738328 -0.6531212 -0.31418133 -1.4786832 -0.060231615 0.7259606 -0.06590593
-0.26037037 0.42598972 -0.3096253 -0.6349431 0.45856228 -0.53756034 -0.20309164 -1.3020763
-0.13216919 0.40589327 -0.5990744 -1.0089276 -1.8092523 -0.25486073 -0.4802713 -0.50088984
-0.35100636 1.069366 -1.5995716 -0.49072763 -1.2912815 -1.4228001 -1.6680561 -0.6281588
-0.29073852 -0.29083312 -1.1893007 0.06224229 0.02736589 0.06394611 -0.35073853 -0.71748906
0.56858486 -0.73479533 -1.214765 -0.53344077 -0.9641534 -3.257498 1.1792004 0.75051075
0.5541862 -2.958477 -0.3582373 -0.89091516 -0.071472965 -1.8292909 -0.28470376 0.13816254
0.16809398 -1.8775107 -0.11158798 -0.15697485 -1.132631 -1.2178687 -1.2352183 0.032314654
-0.73177093 -1.3597196 -0.23176137 -0.076469295 -1.1447866 -1.0582333 -2.0549173 -0.29663184
0.18882923 -0.051642988 -0.035202056 -0.08900138 -0.46334472 0.3090574 -0.6275002 -0.30690187
-1.5673579 -0.019915663 -0.08657425 -0.66551656 -0.75695527 -0.5333539 -0.5854832 -0.45238057
0.84335667 -0.67605186 0.47834554 -0.046040297 -0.21669048 -1.3508472 -0.83244336 -0.1906912
-1.3746083 -1.1307333 -0.8587446 -1.2345903 -0.46637398 -0.86154354 0.5335045 -1.2513115
0.027970873 -0.28650987 0.87161124 -0.6159563 -1.0187562 0.9706812 -1.1608323 -0.21175887
