pretrained_model/A3_MulT_i_pretrained_model.pth (torch, 414510 bytes, 58 tensors)

Model.proj_l.weight f4 [36, 768, 1]
0	0xbc11ffd0	-0.008911088
1	0x3c71d78c	0.014760863
2	0xbcd15257	-0.025551958
3	0x3c821918	0.015881106
4	0x3c604ef8	0.013690703
5	0xbbe5fe54	-0.0070188437
6	0xbb7a8e00	-0.0038231611
7	0x3cae0eca	0.021247286
8	0x3ae2bb60	0.0017298274
9	0x3cb66214	0.022263564
10	0xbc8ed8d3	-0.017437374
11	0x3d119ed6	0.03555187
12	0x3cbec7c6	0.023288619
13	0xbd05c6f8	-0.032660455
14	0x3d04b6d4	0.03240092
15	0x3d074450	0.033024132
16	0x3d050f98	0.032485574
17	0xbc639882	-0.013891341
18	0xbc60e7dc	-0.013727155
19	0x3c4d8aec	0.012545329
20	0xbca5508a	-0.020180006
21	0x3b9f1038	0.0048542283
22	0xbd031470	-0.032001913
23	0x3cf9f72c	0.030513369
24	0x3c9f5d36	0.019453626
25	0x3c9da98c	0.019245885
26	0xbccfde34	-0.02537451
27	0x3ca6a29e	0.020341214
28	0xbc3c6b1c	-0.011500146
29	0xbc7195e2	-0.0147452075
30	0xbc9053f4	-0.017618157
31	0xbc5033a8	-0.012707628
32	0x3cbb37ec	0.022853814
33	0x3d0b921a	0.03407488
34	0xbb197fa0	-0.0023422018
35	0xbb5b4760	-0.003345929
36	0xbc318c42	-0.010836663
37	0x3d0312a6	0.032000206
38	0xbbfac494	-0.0076528285
39	0x3ca049da	0.019566465
40	0xba809cc0	-0.000981234
41	0xbb9efff4	-0.0048522893
42	0xbcaabfa2	-0.02084333
43	0x3d079e70	0.033110082
44	0xbca02add	-0.019551689
45	0x3c489c44	0.012244288
46	0x3c5579dc	0.013029542
47	0xbcd067a1	-0.02544004
48	0xbc2f3e7a	-0.010696048
49	0x3c8dd5e8	0.017313913
50	0xbc9dce00	-0.019263268
51	0xbbc23554	-0.0059267674
52	0x3cbb2ffe	0.022850033
53	0xbc487cc2	-0.012236776
54	0x3a275b80	0.0006384179
55	0xbc4e6db8	-0.012599401
56	0x3c15677c	0.009118911
57	0x3cd95740	0.026530862
58	0xbc97e0d0	-0.018539816
59	0xbc326380	-0.01088798
60	0x3c6bfc40	0.014403403
61	0xbc448582	-0.011994721
62	0x3ce5cba8	0.028051212
63	0xbcb1809d	-0.021667773
64	0xbcb65d0e	-0.022261169
65	0xbd05f46b	-0.0327038
66	0x3cdf30ac	0.027244888
67	0x3cf9202c	0.030410849
68	0x3cd87fc4	0.02642811
69	0xbd07780a	-0.033073463
70	0x3beedb78	0.0072893463
71	0xbd016b42	-0.03159643
72	0xbd0e8c7c	-0.034801945
73	0xbd0db9f2	-0.03460116
74	0xbc652492	-0.01398577
75	0xbcc3fce4	-0.023924299
76	0x3ce04208	0.027375236
77	0x3cb3e51e	0.021959838
78	0xbce7b510	-0.02828458
79	0xbc469314	-0.012120027
80	0x3b9c9178	0.0047780834
81	0x3ca14cae	0.019689884
82	0xbcfde7a0	-0.030994236
83	0xbcdd4156	-0.027008694
84	0xbcc1b740	-0.02364695
85	0xbc6f32b4	-0.014599491
86	0x3be2daa0	0.006923035
87	0xbca9f8da	-0.020748544
88	0x3cb7f844	0.02245725
89	0x3c86f5fc	0.016474716
90	0x3a713d80	0.00092025846
91	0x3cbfaf00	0.023398876
92	0x3c82766a	0.015925605
93	0x3c02d448	0.007985182
94	0x3d07c8cc	0.03315048
95	0x3c201004	0.009769443
96	0xbcd9d156	-0.026589077
97	0x3c5a00f0	0.013305888
98	0xbab589c0	-0.0013850257
99	0xbce7f886	-0.028316747
100	0xbd0b3b47	-0.03399208
101	0x3bcf5720	0.006327525
102	0x3c6e6e3c	0.014552649
103	0xbc2414a2	-0.010014685
104	0x3c811062	0.015754882
105	0xbc9d0be9	-0.019170718
106	0xbbc7f8f8	-0.0061026774
107	0x3c680d34	0.014163304
108	0x3c87fe7c	0.01660084
109	0xbc051ef2	-0.008125054
110	0x3cbbe240	0.022935033
111	0x3c9ac47c	0.01889252
112	0x3d10e0c8	0.035370618
113	0xbc3215c2	-0.010869445
114	0x3c4affd8	0.0123900995
115	0xbd02cf47	-0.031935956
116	0xbbaf0ef0	-0.005342357
117	0x3cc853e2	0.024454061
118	0x3b3ebe10	0.0029104985
119	0x3d0c5324	0.034258977
120	0x3c9e9cde	0.01936191
121	0xbcfe8269	-0.031068044
122	0xbcb9585c	-0.02262514
123	0x3ca8bfbc	0.020599239
124	0xbd0fefbe	-0.035140745
125	0x3c89de1a	0.01682954
126	0x3c0dc6d4	0.008653361
127	0xbcc04b3d	-0.023473376
128	0x3b1e9350	0.0024196692
129	0x3b403e70	0.002933409
130	0x3c13d034	0.009021807
131	0x3cba5372	0.022744868
132	0x3c0e230c	0.008675348
133	0x3c851084	0.016243227
134	0xbcf16fa1	-0.029472174
135	0x3b8f70e8	0.004377473
136	0x3cfa17e0	0.030528963
137	0xbce8ad4a	-0.028402943
138	0xbb1c5370	-0.0023853444
139	0xbb9032e0	-0.004400596
140	0xbcca29fc	-0.024678223
141	0xbcf4aee0	-0.029868543
142	0xbc5076a6	-0.0127236005
143	0xbcd355c5	-0.025797734
144	0xbb37aaa0	-0.0028025284
145	0x3d095246	0.033525728
146	0xbbbf544c	-0.0058389064
147	0x3cd03dec	0.025420152
148	0x3c4518cc	0.012029838
149	0x3c4704fc	0.012147184
150	0xbcd5e83f	-0.02611172
151	0x3b2f6440	0.0026762635
152	0x3c72bff0	0.014816269
153	0xbc88b93d	-0.016689891
154	0x3cf56158	0.029953644
155	0xbd109a73	-0.035303544
156	0x3cfd30c8	0.03090705
157	0xbca1fd0f	-0.019773988
158	0x3b6ee010	0.003644947
159	0x3aca6740	0.0015442148
160	0xbcea99f6	-0.028637867
161	0xbbc0a9e8	-0.0058796294
162	0x3aa1aa60	0.0012334101
163	0x3b70b490	0.0036728717
164	0xbc8557e1	-0.016277255
165	0x3af01320	0.0018316247
166	0x3b9d38f8	0.004798051
167	0xbbb0b80c	-0.005393034
168	0xbbcda2b8	-0.006275501
169	0xbc7e48e8	-0.015520312
170	0xbc7acc20	-0.015307456
171	0x3beb4a20	0.0071804672
172	0x3bd8e768	0.0066193826
173	0x3a8c1f80	0.001069054
174	0x3c580878	0.013185613
175	0x3cc4bb84	0.024015196
176	0x3c403e90	0.011733666
177	0x3b6dc4b0	0.0036280565
178	0x3c987ee6	0.018615197
179	0x3d112b72	0.035441823
180	0xbc89edab	-0.016836962
181	0xbc90ddf3	-0.017683959
182	0x3b1e4f90	0.002415631
183	0xbc6b146e	-0.014348133
184	0xbad55120	-0.0016274787
185	0xbca06d65	-0.019583413
186	0x3cc826c4	0.024432547
187	0xbd0e2a5c	-0.034708366
188	0xbc856158	-0.016281769
189	0xbd1389f9	-0.036020253
190	0xbca48e07	-0.020087255
191	0x3d11764e	0.035513215
192	0x3ca8e7ee	0.020618405
193	0xbcd7b870	-0.026333064
194	0x3ced38f8	0.028957829
195	0xbd102137	-0.035187926
196	0x3af7e280	0.0018912107
197	0x3d0e76a8	0.03478113
198	0x3ad21c00	0.0016030073
199	0xbbf41dc4	-0.0074498374
200	0x3cf85958	0.03031604
201	0xbc813478	-0.01577209
202	0xbcac8004	-0.021057136
203	0x3b5e17c0	0.0033888668
204	0xbb91d7a0	-0.0044507533
205	0x3cb718b4	0.022350647
206	0xbce1f28c	-0.027581476
207	0x3c867be0	0.01641649
208	0x3c8f40a4	0.017486878
209	0x3be75b30	0.007060431
210	0xbc838b84	-0.016057737
211	0xbb026f40	-0.0019902736
212	0x3d01e674	0.031713918
213	0x3c0d7880	0.0086346865
214	0xbab8fb40	-0.0014112964
215	0x3d03afec	0.032150194
216	0x3d0121fa	0.031526543
217	0x3c9d605c	0.019210987
218	0xbc86912f	-0.01642665
219	0x3ba499c0	0.0050232112
220	0xbcf3412c	-0.029694162
221	0xbc62ce22	-0.013843091
222	0xbb649dc0	-0.0034884065
223	0x3cdb519c	0.026772313
224	0x3d09658c	0.03354411
225	0xbca9923c	-0.020699613
226	0x3cd98948	0.026554719
227	0x3c805b94	0.015668668
228	0xbca1c27e	-0.019746061
229	0xbc870399	-0.016481208
230	0xbcb52e1c	-0.022116713
231	0xbc3b3180	-0.011425376
232	0xbc4acc0e	-0.012377752
233	0x3c1a20a8	0.0094072
234	0x3c937e4a	0.018004555
235	0xbce15df4	-0.02751062
236	0x3d05d0d6	0.032669865
237	0xbd03e727	-0.032202866
238	0x3c2cc768	0.010545589
239	0x3c56a9c8	0.013102002
240	0x3d021582	0.031758793
241	0xbc41b294	-0.0118223615
242	0x3ced8364	0.028993316
243	0x3d089532	0.03334541
244	0x3bea7570	0.007155113
245	0x3d0f397e	0.03496694
246	0x3c8ded0a	0.017324943
247	0x3ce31160	0.027718246
248	0x3ce9f7b8	0.028560504
249	0xbb8cfde8	-0.004302729
250	0xbced7044	-0.028984196
251	0x3ca58e48	0.020209447
252	0xbd06ff3c	-0.032958254
253	0xbce3f7dd	-0.027828151
254	0xbb683430	-0.0035431497
255	0xbc4834aa	-0.012219587

Model.proj_a.weight f4 [36, 74, 1]
0	0xba5a8f80	-0.0008337423
1	0x3dc86780	0.09785366
2	0xbaf84780	-0.0018942207
3	0x3da12f30	0.078703284
4	0xbc1ca9b8	-0.0095619485
5	0xbd1193dc	-0.0355414
6	0x3dcec1c0	0.10095549
7	0x3d2e0ac4	0.042490736
8	0x3d1290b8	0.035782546
9	0x3d34f904	0.044182792
10	0xbd867486	-0.06565194
11	0xbdbae6ae	-0.0912603
12	0xbda8bade	-0.08238767
13	0xbcc38ee4	-0.023871846
14	0x3d280ec4	0.041029707
15	0xbddbef01	-0.10738946
16	0x3d933188	0.07187182
17	0x3dcb11ca	0.09915502
18	0xbd222590	-0.039586604
19	0x3dec6f54	0.11544672
20	0x3d4b25dc	0.049596652
21	0x3cecf8e8	0.028927281
22	0xbdc5a04d	-0.096497156
23	0x3ca64500	0.020296574
24	0x3d724804	0.05915071
25	0xbdb2e6de	-0.08735441
26	0xbdd0ba3d	-0.10191772
27	0x3c3836d0	0.011243537
28	0xbda4992f	-0.0803703
29	0xbc986d0c	-0.018606685
30	0x3d388ad0	0.045054257
31	0xbde7f7bf	-0.11326551
32	0xbccdecf0	-0.025137395
33	0x3da0175c	0.078169554
34	0x3c4229f0	0.011850819
35	0x3c92ff40	0.017943978
36	0x3d8d5e6e	0.06902777
37	0xbdd0d9af	-0.1019777
38	0xbdcaa4b0	-0.09894693
39	0xbdb84b3e	-0.08998726
40	0xbc5d2218	-0.013496898
41	0x3c6954f0	0.014241442
42	0xbd4a10f6	-0.04933258
43	0x3ddb5e4c	0.10711345
44	0x3da466ca	0.08027418
45	0xbd6fd300	-0.058550835
46	0xbc7c7b50	-0.015410259
47	0x3bbfbc80	0.0058513284
48	0x3d5ad014	0.053421095
49	0xbdacc895	-0.084366955
50	0x3d8b15f4	0.067912966
51	0xbd0ad0f6	-0.033890687
52	0xbc9689ec	-0.018376313
53	0x3d2a80d8	0.04162678
54	0xbd62711f	-0.055283662
55	0x3da37b32	0.07982482
56	0xbd2b980c	-0.04189305
57	0x3d89d5d2	0.06730236
58	0xbd188ab2	-0.037241645
59	0xbc6f88a0	-0.014619976
60	0x3dbd4618	0.09241885
61	0xbc972aac	-0.018452965
62	0x3c342e10	0.01099731
63	0x3d9f016e	0.077639446
64	0x3c320e50	0.01086767
65	0x3d31dd70	0.04342407
66	0xbc233f70	-0.009963855
67	0xbdad6e22	-0.08468272
68	0xbd564b74	-0.05231805
69	0xbd187b4e	-0.037226968
70	0x3d4f8080	0.050659657
71	0x3d981d72	0.07427491
72	0xbdc92e8d	-0.09823332
73	0xbd359a78	-0.044336766
74	0x3d1f6550	0.03891498
75	0x3c9b3fb8	0.018951282
76	0xbde419fb	-0.11137768
77	0xbdaa70a4	-0.08322266
78	0x3de3aa06	0.11116414
79	0xbd00e06e	-0.031464033
80	0x3d75f258	0.06004557
81	0x3d7be6b4	0.061499313
82	0xbdc65565	-0.096842565
83	0xbce7868c	-0.0282624
84	0xbdd1a2db	-0.1023614
85	0xbd356c20	-0.04429257
86	0x3b97d580	0.0046336055
87	0xbd9491cd	-0.07254372
88	0xbb9da090	-0.0048104003
89	0x3d3756f0	0.044760644
90	0xbcd1b118	-0.02559714
91	0x3d49a770	0.049231946
92	0xbd36a27e	-0.04458856
93	0xbccd2f40	-0.025046945
94	0x3c78c050	0.01518257
95	0x3d838650	0.064221025
96	0x3c6cec10	0.014460579
97	0xbd4c3ee8	-0.04986468
98	0xbd9a1909	-0.07524306
99	0xbc7b6880	-0.015344739
100	0xbd9fed58	-0.078089416
101	0x3da5bbd2	0.080924645
102	0x3d3ca2d4	0.046053723
103	0xbba94060	-0.005165145
104	0x3de210ec	0.11038384
105	0x3d5aed40	0.053448915
106	0x3ce7fb78	0.028318152
107	0x3de256f6	0.11051743
108	0xbd493944	-0.04912688
109	0x3db02200	0.08600235
110	0x3cb9cd40	0.022680879
111	0xbd337332	-0.04381103
112	0x3b21bb80	0.002467841
113	0xbdb79c0d	-0.08965311
114	0xbd6eba73	-0.05828328
115	0x3d084b48	0.03327492
116	0xbdb38541	-0.087656505
117	0xbdeb250a	-0.11481674
118	0x3c2df8b0	0.010618374
119	0x3d0399e0	0.03212917
120	0xbd4da0a2	-0.05020202
121	0x3b38c6c0	0.0028194636
122	0xbdb09404	-0.08621982
123	0xbbc177e0	-0.005904183
124	0x3aa07cc0	0.001224421
125	0xbda1ae93	-0.078946255
126	0x3c737b70	0.014860973
127	0x3d3ddec8	0.04635504
128	0x3d6b9e20	0.057523847
129	0x3cde31d0	0.027123362
130	0xbc444ee8	-0.011981703
131	0x3d896272	0.0670823
132	0x3da6a9e0	0.0813787
133	0x3dc1f38a	0.094702795
134	0xbc09f0c8	-0.008419223
135	0xbd8e9ba6	-0.06963281
136	0x3db2131e	0.086950526
137	0x3dbbbf26	0.09167318
138	0xbd89ca1a	-0.06728001
139	0xbc0967c8	-0.00838656
140	0x3d99d4fe	0.07511328
141	0xbdcfd866	-0.101486966
142	0xbd09d0d0	-0.033646405
143	0x3ad46800	0.0016205311
144	0xbcd9831c	-0.026551776
145	0xbcbf6e74	-0.023368098
146	0xbde64df1	-0.11245335
147	0xbce64c5c	-0.028112583
148	0x3cff4448	0.031160489
149	0xbda774b9	-0.0817656
150	0x3d157a54	0.036493614
151	0x3cfcaf58	0.03084533
152	0x3dbe1c50	0.09282744
153	0xbdb6444e	-0.08899747
154	0x3dbb49e6	0.091449544
155	0x3d9f526c	0.077793926
156	0xbd08bc20	-0.033382535
157	0x3cf94458	0.030428097
158	0x3d35b1e0	0.044359088
159	0xbdb25ef0	-0.08709514
160	0xbdc9de1b	-0.098568164
161	0xbd5fe76a	-0.054664053
162	0xbd12942c	-0.03578584
163	0x3c341810	0.010992065
164	0xbc1f4518	-0.009721063
165	0x3ddd6cf4	0.10811797
166	0x3dc439c6	0.09581332
167	0x3c185320	0.009297162
168	0xbca58d0c	-0.020208858
169	0xbb3f5ce0	-0.0029199645
170	0x3de86de8	0.11349088
171	0x3dbb6ffc	0.09152219
172	0x3d1d32ac	0.038378403
173	0xbc7bb978	-0.015364043
174	0xbb3fe340	-0.0029279739
175	0xbd64abcc	-0.0558279
176	0xbc53b5d8	-0.012921773
177	0xbdd90778	-0.10597128
178	0xbd322336	-0.04349061
179	0xbdba2110	-0.090883374
180	0xbd1e20ae	-0.038605385
181	0x3da86caa	0.08223851
182	0x3db9b9a6	0.09068613
183	0xbd233a8a	-0.03985075
184	0x3d1a722c	0.03770654
185	0x3d9108e6	0.07081775
186	0xbd53763e	-0.051626436
187	0x3c391da0	0.011298567
188	0x3dcac374	0.09900561
189	0x3dbd8e44	0.09255651
190	0xbd4b5c06	-0.049648307
191	0xbc8311e4	-0.015999742
192	0xbd059820	-0.03261578
193	0x3d2f1114	0.042740896
194	0xbd15cf30	-0.036574543
195	0x3d9ede04	0.0775719
196	0x3c291140	0.010319054
197	0x3d7ed8e0	0.062218547
198	0xbd91ab40	-0.071127415
199	0x3c5624e0	0.013070315
200	0x3db24ed8	0.087064445
201	0xbcfa340c	-0.030542396
202	0xbd0d03b0	-0.034427345
203	0x3d10941c	0.035297498
204	0xbdba5c94	-0.09099689
205	0x3d8e1840	0.06938219
206	0xbbdaf3b0	-0.006681882
207	0x3dd4e124	0.10394505
208	0x3d8fdcb4	0.07024518
209	0x3d5054c0	0.050862074
210	0x3d5a9970	0.053368986
211	0xbd0d5158	-0.034501404
212	0xbdb58802	-0.08863832
213	0xbd3ffc80	-0.046871662
214	0x3cb27998	0.021786496
215	0xbdeb3b83	-0.1148596
216	0x3dc12a88	0.0943194
217	0x3d850bd4	0.06496397
218	0xbdc30327	-0.09522086
219	0xbcda02d0	-0.02661267
220	0xbb86cc20	-0.004113689
221	0x3c9efc50	0.019407421
222	0xbde42c01	-0.111412056
223	0xbde0e357	-0.10980862
224	0xbd7c2718	-0.06156072
225	0x3daac966	0.08339195
226	0x3c0ce278	0.008598916
227	0x3d654934	0.055978015
228	0xbb813e30	-0.003944181
229	0xbd935faf	-0.071959846
230	0xbc8b1ecc	-0.016982459
231	0xbd1f3828	-0.038871914
232	0x3d19b26c	0.037523672
233	0x3dd869ba	0.10567041
234	0xbd3d1d38	-0.046170443
235	0xbd4695ee	-0.048482828
236	0x3c306f50	0.0107687265
237	0x3db839a8	0.08995372
238	0xbde09b01	-0.10967065
239	0xbcff0bac	-0.031133495
240	0xbd2e673c	-0.04257892
241	0x3a607980	0.0008563027
242	0x3d797c08	0.0609093
243	0x3dcdba46	0.100452945
244	0xbd9fe9db	-0.07808276
245	0xbd350ba4	-0.044200554
246	0xbcc76004	-0.024337776
247	0x3dae0c42	0.08498432
248	0x3db642f0	0.08899486
249	0x3dc30b10	0.095235944
250	0xbc996030	-0.018722624
251	0x3d674710	0.056464255
252	0x3dd6cc5a	0.10488196
253	0xbd0d3dd8	-0.034482807
254	0xbde4df55	-0.1117541
255	0xbdcd63b7	-0.10028785

Model.proj_v.weight f4 [36, 35, 1]
0	0x403b45d5	2.9261372
1	0xbf37fb75	-0.7186807
2	0xc024df32	-2.5761228
3	0xc05da7cf	-3.4633672
4	0xc011bbf8	-2.2770977
5	0xc096dad6	-4.7142134
6	0xbf8cdaea	-1.1004307
7	0x3f94f25b	1.1636461
8	0xc078a5be	-3.885116
9	0xbf844e28	-1.0336351
10	0xc02d0898	-2.7036495
11	0xbfe4d30a	-1.7876904
12	0x3f578c3e	0.8419837
13	0xbff94366	-1.9473693
14	0xc091037b	-4.531675
15	0xbff49c66	-1.9110229
16	0x3c5296b4	0.012853313
17	0xbf900950	-1.1252842
18	0x3f6388e9	0.88880783
19	0xbeb7af36	-0.35875863
20	0xc05056a6	-3.2552886
21	0x3e752a04	0.23941809
22	0xc0474ac0	-3.1139374
23	0xc0685116	-3.629949
24	0x3ea92cc9	0.3304198
25	0xc09ba8d3	-4.8643584
26	0x3f9da41f	1.2315711
27	0xc00d30d1	-2.2061045
28	0xc04d66cf	-3.2094
29	0xbf37c654	-0.71787
30	0x403ca66b	2.9476573
31	0xbf9c8f87	-1.2231301
32	0x407fd6df	3.9974897
33	0xc00c6ea5	-2.1942532
34	0x3f87a164	1.0596128
35	0x3f9de7bc	1.2336345
36	0x402edf15	2.7323658
37	0x3d925932	0.07145919
38	0xc00bd57c	-2.184905
39	0xbf057dbb	-0.52144974
40	0xbf246dc1	-0.6422997
41	0x3f9b8467	1.2149781
42	0x406473ee	3.5695758
43	0xbc54d26f	-0.012989624
44	0xbf268b79	-0.6505657
45	0xbfbbfb42	-1.4686053
46	0xbfda643b	-1.7061838
47	0xbfabd649	-1.342477
48	0x3fbc2c01	1.4700929
49	0xbf8f102d	-1.1176811
50	0xbfc8cadb	-1.5686907
51	0xc00d096c	-2.2037
52	0x400e4f48	2.223589
53	0x3f96a520	1.1769142
54	0x3ffbfea8	1.968709
55	0xc02bd811	-2.6850626
56	0x3f75d85a	0.9603325
57	0xbe9e0ee0	-0.30870724
58	0x3ff88daf	1.9418238
59	0xbf7b2248	-0.98099184
60	0x409b450d	4.852179
61	0x4084e237	4.152614
62	0xbfc066cc	-1.5031371
63	0xc018620a	-2.3809838
64	0xbf9cca2b	-1.2249197
65	0xbfb59ca3	-1.4188427
66	0x403aa399	2.9162352
67	0xc02fb2ba	-2.7452836
68	0xc081c3de	-4.0551596
69	0xbf498c2e	-0.7872952
70	0x403bad7b	2.9324634
71	0xbe7bd9d1	-0.24594809
72	0xbf5f5aea	-0.872481
73	0xbfa3813f	-1.2773818
74	0xbfe8f668	-1.8200197
75	0x4024c273	2.5743682
76	0x3d847618	0.06467837
77	0xbf13d715	-0.57750064
78	0x3f83379f	1.0251349
79	0x407c0347	3.9377
80	0x3e83c2d3	0.25734577
81	0xbfad0741	-1.3517839
82	0xc044817b	-3.0704029
83	0x3fc7f29d	1.5620915
84	0xc03ad029	-2.918955
85	0x3f9d1648	1.2272425
86	0xc037c8c0	-2.8716278
87	0xbfbb7547	-1.4645165
88	0xbf329c16	-0.6976942
89	0xc0552e7f	-3.330963
90	0xbfd7ff53	-1.6874794
91	0xbefe7993	-0.4970213
92	0xc00a3e15	-2.1600392
93	0x3f64dbe9	0.89398056
94	0x40595cda	3.3962922
95	0xc038fcac	-2.8904219
96	0x4011b752	2.276814
97	0xbfa82c7f	-1.3138579
98	0xbfbf1ded	-1.4931008
99	0x3fe31374	1.7740312
100	0x3f4e85f0	0.8067312
101	0x400485eb	2.0706737
102	0xc064c8ce	-3.5747561
103	0xbf26818c	-0.6504142
104	0x3faaae4f	1.3334445
105	0xbc8a44d9	-0.016878532
106	0x403f5600	2.989624
107	0xc0da81d6	-6.828349
108	0xbf08807b	-0.53321046
109	0x3ff6f069	1.9292117
110	0xbfc574dd	-1.5426289
111	0x3f2d1e74	0.6762459
112	0x3f8d80e1	1.1054956
113	0xbe1a9925	-0.15097483
114	0xbfe5aaef	-1.794279
115	0xbfdf3e99	-1.7440978
116	0xc098e318	-4.7777214
117	0xbfab325a	-1.3374741
118	0xc00591f2	-2.0870328
119	0xbdd750b8	-0.10513443
120	0x3dfb3595	0.12266079
121	0xc09b9132	-4.861474
122	0x400e71b2	2.2256894
123	0xbfd7b88c	-1.6853194
124	0x3ec5f2e1	0.38661864
125	0xbd98a17e	-0.07452677
126	0x3f80169e	1.0006902
127	0xc04b3385	-3.1750195
128	0x4001dcfd	2.029113
129	0x3fdb7e60	1.7147942
130	0xbf506aba	-0.8141285
131	0xc03873f3	-2.882077
132	0x3ead5815	0.33856264
133	0xc09aa6e1	-4.832871
134	0x402a9132	2.665112
135	0x3edc22af	0.4299521
136	0x4033226d	2.7989762
137	0xc02d91a0	-2.7120132
138	0xbf82532f	-1.0181636
139	0xc014f323	-2.32734
140	0xc02edb07	-2.7321184
141	0xc08023a0	-4.0043488
142	0x3f800a2d	1.0003105
143	0xbfcaad98	-1.5834227
144	0x4019edce	2.4051394
145	0xbeb89493	-0.36050853
146	0x409dd940	4.93277
147	0x40bb1df6	5.8474073
148	0xc00febe3	-2.2487724
149	0xc09cac81	-4.8960576
150	0x40cf2cc1	6.474213
151	0xc00b13d2	-2.1730847
152	0x3f9ab0b0	1.2085171
153	0xc034258c	-2.8147917
154	0x40109a46	2.259416
155	0x3f7e662d	0.9937466
156	0xbfa27efa	-1.2695
157	0x3f85d295	1.045489
158	0xbf6f7491	-0.9353724
159	0x40672e9b	3.6122196
160	0xbf91fbe0	-1.1404991
161	0x3d81103b	0.06301924
162	0x401e8f93	2.477513
163	0xbeb1feff	-0.3476486
164	0x4045f9c7	3.0933702
165	0xbe8568f4	-0.26056635
166	0xc038db84	-2.8883982
167	0x407fa5c2	3.994492
168	0xc0100b99	-2.2507079
169	0xc01ee873	-2.4829376
170	0xbfb0802a	-1.3789113
171	0x40910518	4.531872
172	0x40af5889	5.4795575
173	0xc013426e	-2.3009295
174	0xbf2f25d7	-0.68417114
175	0x4006f230	2.108532
176	0x405a2a09	3.4088156
177	0xbfb90234	-1.4453797
178	0xbfc5139a	-1.5396607
179	0x3fa6af98	1.3022337
180	0xbfbd2439	-1.4776679
181	0x3f0342e4	0.5127394
182	0x3f85dc15	1.0457789
183	0xbf1a58ef	-0.6029195
184	0xbe57da72	-0.21079424
185	0x3de92c45	0.11385397
186	0x4019679a	2.3969483
187	0x40501a81	3.2516177
188	0xbffdf00f	-1.9838885
189	0xbd39f82e	-0.0454027
190	0x3fa33eb0	1.2753506
191	0x4093e0d1	4.6211934
192	0xbebd32b8	-0.36952758
193	0x408fe26b	4.496389
194	0xbd0d9a36	-0.034570895
195	0xbf5d2951	-0.8639117
196	0x4066a22f	3.603649
197	0x40897714	4.295786
198	0xc04f6df1	-3.2410853
199	0xc0dd15d9	-6.908917
200	0xbf4612f7	-0.7737269
201	0x3e16f7bf	0.14742945
202	0x401df8a8	2.4683018
203	0xbf86095b	-1.0471605
204	0xbf3ba916	-0.7330488
205	0xbe9f5631	-0.31120446
206	0xbe059bb2	-0.13047674
207	0x40ac2f45	5.38077
208	0x40072338	2.1115246
209	0x3fac8cc6	1.3480461
210	0x3fa34c76	1.2757709
211	0x4003ac2a	2.057383
212	0xbfc04011	-1.5019552
213	0xc027fa8f	-2.624668
214	0xc04e6a75	-3.2252476
215	0xc03ef7ab	-2.9838665
216	0xbfb411af	-1.4067897
217	0x3f275e7d	0.6537855
218	0xc093f650	-4.6238174
219	0xbf0051a3	-0.5012457
220	0xbf93883d	-1.1525952
221	0xc0493fce	-3.1445193
222	0xbf8e2399	-1.1104614
223	0xc08985e7	-4.2975955
224	0xc03280b4	-2.7891054
225	0xbd82e858	-0.06391972
226	0xc0178f6d	-2.368129
227	0xc0808373	-4.016046
228	0x3f8e0ada	1.1097062
229	0xbf57cfd6	-0.8430151
230	0xc0890ab6	-4.2825575
231	0xbfc1d432	-1.5142882
232	0xc04b1ed2	-3.1737561
233	0xc072db89	-3.7946494
234	0x3ff7460c	1.9318252
235	0xc05b5629	-3.4271338
236	0x3ff6937f	1.9263762
237	0xbf40c0ab	-0.7529399
238	0xc0afb493	-5.4907928
239	0x3f351e45	0.7074931
240	0x404cd4fb	3.2004993
241	0x404ab663	3.167382
242	0xbfc58c34	-1.5433412
243	0x3fde022d	1.7344414
244	0x3fcd94c4	1.6061025
245	0xbe639b88	-0.22227299
246	0x407b515b	3.9268405
247	0x3fa0d3de	1.2564657
248	0x4000b283	2.0108955
249	0x3fad78a2	1.3552439
250	0xbfcdc67c	-1.6076198
251	0x402c18ae	2.6890063
252	0xbf089e93	-0.53366965
253	0x4037713d	2.8662865
254	0xbf77821a	-0.96682894
255	0x3e951a0c	0.29121435

Model.forward_v.seq.1.layers.0.self_attn.in_proj_weight f4 [108, 36]
0	0x3f8d1150	1.1020908
1	0xbec3d142	-0.3824559
2	0x3f13bb88	0.57708025
3	0x3f9dee36	1.2338321
4	0xc0587168	-3.3819218
5	0x40139108	2.305727
6	0x404f1467	3.2356203
7	0xc04cbfca	-3.1992059
8	0xbf0a83d9	-0.54107434
9	0x3e2f5d6c	0.17125481
10	0x401de42c	2.4670515
11	0x3c997a33	0.018735027
12	0xbf7b26e2	-0.98106205
13	0xbf3d2515	-0.7388471
14	0xc00fed04	-2.2488413
15	0x3fc1817d	1.5117642
16	0x3dcac8e2	0.099015966
17	0xbfa87aaa	-1.3162434
18	0x3fe00c18	1.7503691
19	0xbd21aacc	-0.039469525
20	0xbfb342fc	-1.4004817
21	0xbf8ba610	-1.0910053
22	0x3f217180	0.6306381
23	0x3fa8b864	1.3181272
24	0xc0335543	-2.802079
25	0x3fc05ce8	1.5028353
26	0xc0275199	-2.6143553
27	0x401f6740	2.4906769
28	0x4061be17	3.5272272
29	0xc00a34fa	-2.1594834
30	0xbfa3ff2e	-1.281225
31	0x3fb2b05e	1.3960073
32	0x3fcddf2a	1.6083729
33	0xc017ed45	-2.3738568
34	0x3f80e143	1.0068744
35	0x40834c33	4.1030517
36	0x40ad21be	5.410369
37	0x3f6819a6	0.90664136
38	0x401138fe	2.2691035
39	0xbd9573e3	-0.07297494
40	0x3fba56d5	1.4557749
41	0xbf993447	-1.1969079
42	0x40b6b974	5.7101383
43	0xbfb5e56f	-1.4210643
44	0x4013d7b6	2.310041
45	0x3d7b0390	0.061282694
46	0xbee7c858	-0.45270038
47	0x3dfa8ac1	0.122334965
48	0xc03d6939	-2.9595473
49	0x403e375f	2.9721296
50	0xbf037cb9	-0.51362187
51	0x3f3a5d97	0.72799057
52	0xbec19119	-0.37806013
53	0xbfba9b89	-1.4578716
54	0xbf410d2e	-0.75410736
55	0x401e92d9	2.4777129
56	0x3f29d954	0.6634724
57	0xbfdd1d44	-1.7274556
58	0xbfec334a	-1.8453152
59	0x3fd64ef1	1.6742841
60	0xc0303d09	-2.7537253
61	0x3ff61622	1.9225504
62	0xbf61c552	-0.8819171
63	0x3f8c4d38	1.0961065
64	0x3fcfaba0	1.6224251
65	0xc0274b6c	-2.6139784
66	0xbe7446af	-0.23855089
67	0x3eb4d563	0.3531905
68	0xc00dc1ab	-2.2149456
69	0xc02efcff	-2.7341917
70	0x3fed7279	1.8550559
71	0x40202f58	2.5028896
72	0x407033b7	3.7531564
73	0x3e7d9078	0.24762142
74	0x3ff67be0	1.9256554
75	0x3f220489	0.6328817
76	0x40356dcf	2.8348272
77	0xc04f630a	-3.2404199
78	0x40713e9c	3.7694464
79	0x3e5a3a61	0.21311332
80	0x3f083d8a	0.532189
81	0x3fdbd3ce	1.7174013
82	0xc019fc0a	-2.4060082
83	0x3eeeb014	0.46618712
84	0xc0597b55	-3.3981526
85	0x40af440c	5.4770565
86	0x3f5697b5	0.83825237
87	0xc0198dc3	-2.3992774
88	0xbe40e58a	-0.18837562
89	0x3f8ac2ce	1.08407
90	0xc0c87850	-6.2646866
91	0x402a95a0	2.6653824
92	0x3f4fb356	0.8113302
93	0xbf6cbd40	-0.9247627
94	0xbfc6bd38	-1.5526495
95	0x3f831d99	1.0243407
96	0xbf6cd721	-0.9251576
97	0x40897242	4.2951975
98	0x3fdea236	1.7393253
99	0x3eace071	0.33764985
100	0xbf86bc34	-1.0526185
101	0xbfb0ee24	-1.3822675
102	0x3e077986	0.13229951
103	0xc0255795	-2.5834706
104	0xc0235b99	-2.5524657
105	0xbfc3a85c	-1.5285754
106	0xbe361990	-0.17783189
107	0xbf653652	-0.8953601
108	0x4098e840	4.778351
109	0x40135d4c	2.3025694
110	0x402ae6ea	2.6703439
111	0xbda264b2	-0.07929362
112	0x400d5105	2.20807
113	0xc020f78f	-2.5151098
114	0x40bbfc85	5.874575
115	0xbfc7d37d	-1.5611416
116	0x403b6259	2.9278777
117	0xbe449fb9	-0.19201554
118	0xbfabc6d6	-1.3420055
119	0x3f6f96bd	0.93589383
120	0xbfe11925	-1.7585799
121	0x3f063e96	0.5243925
122	0xbf83be3d	-1.0292431
123	0x3f136a4f	0.5758409
124	0x3ebe44ac	0.37161767
125	0xbfc7b5f3	-1.5602401
126	0xbef34a6e	-0.47517723
127	0x402eccbc	2.731246
128	0x3eb8fdfc	0.36131275
129	0x3eb10c75	0.34579816
130	0xc077944b	-3.868426
131	0x3f9f57d3	1.2448677
132	0xc00b4d87	-2.176607
133	0x408869cb	4.262914
134	0x3eafb47d	0.3431739
135	0x3f84ffcf	1.0390567
136	0x401d37c3	2.4565284
137	0xc0555e97	-3.3338983
138	0xbf84dd4d	-1.0380036
139	0x3ec1a8f2	0.37824208
140	0xc044125f	-3.0636213
141	0xc04935d7	-3.1439111
142	0x40227625	2.538461
143	0x4002b0ce	2.0420413
144	0xc01302db	-2.2970493
145	0xbf0dd5e0	-0.5540447
146	0xbfafcee4	-1.3735013
147	0x3f5599e8	0.8343797
148	0xc06d9802	-3.7124028
149	0x3ece8194	0.40333235
150	0xbfcf90cf	-1.6216067
151	0x3ef94a55	0.48689523
152	0x3f7088dc	0.9395883
153	0xbfe92d48	-1.8216944
154	0x4043d2ca	3.0597405
155	0xbfcde09c	-1.608417
156	0x407d1381	3.9543154
157	0xc09c2a50	-4.880165
158	0xbe5abd89	-0.21361364
159	0x408c58fc	4.3858624
160	0x3f170a96	0.5900053
161	0xc088c003	-4.273439
162	0x40af019c	5.4689465
163	0xc0c45032	-6.1347895
164	0x3eb679a4	0.3563968
165	0xbc03ef9b	-0.008052732
166	0x3f9f921a	1.2466462
167	0x3ef4445f	0.47708413
168	0xbef6f592	-0.4823423
169	0xbf4d93ab	-0.8030345
170	0xc0425fcc	-3.037097
171	0x3e3fbf7b	0.18725388
172	0x40648838	3.5708141
173	0xbdd56aab	-0.10420736
174	0xbf964b73	-1.1741775
175	0x40b077d3	5.514627
176	0x3fb3b228	1.4038744
177	0xbee6f656	-0.45109814
178	0x4018d5a6	2.38804
179	0x40383dbb	2.8787677
180	0xbff57580	-1.9176483
181	0xbfc577e5	-1.5427214
182	0xbfba5664	-1.4557614
183	0xc00c45c8	-2.191759
184	0x40aa0b94	5.3139133
185	0x3ebdfc55	0.37106577
186	0xc039b7ea	-2.9018502
187	0x401f376a	2.4877572
188	0xbec1f0f6	-0.3787915
189	0x3e3ca835	0.18423541
190	0xc094858a	-4.641301
191	0xbf690776	-0.9102701
192	0x3e9154c8	0.28384995
193	0x4020c703	2.5121467
194	0x403140e1	2.769585
195	0xc07534c3	-3.8313453
196	0xbf8a6135	-1.0810915
197	0x4046e7c8	3.1078968
198	0xc089e833	-4.3095946
199	0xc00202d8	-2.0314236
200	0x4099d976	4.8077955
201	0x3f2c2c8f	0.6725549
202	0x40275c83	2.6150215
203	0xc04ecca0	-3.2312393
204	0x402958eb	2.6460521
205	0xc074afd9	-3.823233
206	0x40af3086	5.4746733
207	0xc0860a70	-4.188774
208	0xc0a11c4f	-5.0347056
209	0x4004cfea	2.07519
210	0x402c51b7	2.6924875
211	0xbfe5a05e	-1.7939565
212	0xbf415c44	-0.7553141
213	0x40753d5a	3.8318696
214	0xc03afa63	-2.9215324
215	0xc064c42d	-3.5744736
216	0xc042a34b	-3.0412166
217	0xbf9f52cb	-1.2447141
218	0xc0022640	-2.0335846
219	0xbec3da32	-0.38252407
220	0x3fd650b0	1.6743374
221	0x404804fc	3.1253042
222	0xc0359425	-2.837167
223	0x4041a3f9	3.025633
224	0x3eeb35dc	0.4593953
225	0x3f125d77	0.57173866
226	0x3feffe3b	1.874946
227	0xbf1b4a88	-0.606606
228	0x40526e02	3.2879643
229	0xc029cf97	-2.6532953
230	0x3f5ce243	0.8628275
231	0x3d22c759	0.039740894
232	0x3f47fb88	0.7811818
233	0xc0235048	-2.551775
234	0x40867621	4.20192
235	0xbf8de4a6	-1.1085403
236	0xbffc00ee	-1.9687784
237	0xc001720d	-2.022586
238	0x3fb0bed6	1.3808239
239	0xbff45a0b	-1.9089979
240	0x4007e70d	2.1234772
241	0xc05e80c9	-3.4766104
242	0xc05b8fc2	-3.4306493
243	0x3fc6ae2f	1.5521907
244	0x40646819	3.5688536
245	0x4041e1a9	3.0293982
246	0xbe520b52	-0.20512131
247	0x3fa5001d	1.289066
248	0xbb9d9989	-0.0048095626
249	0x3f2cf070	0.6755438
250	0xbfd0eea7	-1.6322831
251	0xc07e966a	-3.9779305
252	0x3f346e56	0.7048086
253	0x407a8c01	3.9147952
254	0x3fb6e6e0	1.4289207
255	0x3ff25d1e	1.8934667

Model.forward_v.seq.1.layers.0.self_attn.in_proj_bias f4 [108]
0	0xbf08cf32	-0.53441155
1	0x3d1b8388	0.037967235
2	0xbea9fd7c	-0.33201206
3	0xbf3d5ac9	-0.7396665
4	0xbee28917	-0.44245216
5	0x3fd76d42	1.6830218
6	0x3fa22d8a	1.2670147
7	0xc0154cdc	-2.3328161
8	0xbeb77d44	-0.35837758
9	0x400eef8a	2.2333703
10	0x3f66ee89	0.90207726
11	0x3f8e75b4	1.112967
12	0x402319ea	2.5484567
13	0xbed43d36	-0.4145295
14	0xbf68e497	-0.909738
15	0xbd19ade1	-0.03751934
16	0xbf70c244	-0.94046426
17	0xbf8ba391	-1.0909292
18	0x404e89ec	3.227168
19	0x3fb3e774	1.4055009
20	0x402132e6	2.5187316
21	0x3f43847e	0.7637404
22	0x401d7d18	2.46076
23	0x3fd0bca1	1.6307565
24	0x3ff80c7a	1.9378808
25	0x3e9b5fd4	0.3034655
26	0xbfeff9f5	-1.8748156
27	0x3ece406c	0.40283525
28	0xbd949bef	-0.072563045
29	0xbdb961ec	-0.0905188
30	0x3f512cf7	0.81709236
31	0xbf5b28e3	-0.85609263
32	0x3f6fff6e	0.9374913
33	0x3f06141b	0.5237443
34	0x401f9515	2.4934742
35	0x400f15b3	2.2356994
36	0x3fa4d35e	1.2877004
37	0x3edab7b7	0.42718288
38	0xbf48bad7	-0.78410095
39	0xbcfb29e3	-0.030659622
40	0x3f0cdd96	0.55025613
41	0xbfccf9fd	-1.601379
42	0x3f9c5718	1.2214079
43	0xc0215ccf	-2.5212896
44	0xbd08b345	-0.03337409
45	0x401535c8	2.3314075
46	0x3f058336	0.52153337
47	0x3ee508ca	0.44733268
48	0x3f36cd94	0.7140744
49	0xc0049b56	-2.071981
50	0x402b78de	2.6792521
51	0x3fae7a0a	1.3630993
52	0x40123b44	2.2848673
53	0xbf97465b	-1.1818346
54	0xbfdc88eb	-1.7229284
55	0x3f124ede	0.5715159
56	0xbf438507	-0.7637486
57	0xc02e9ba2	-2.728249
58	0xc01205bd	-2.2816002
59	0xbe1218bf	-0.14267252
60	0x409ef6d3	4.96763
61	0x3fe77723	1.8083233
62	0xc07ac9ad	-3.9185593
63	0xbeed69b5	-0.4636971
64	0xbff19ae8	-1.8875399
65	0x3f92d9e1	1.1472741
66	0x3e8d4715	0.27593294
67	0xbfbf2d1e	-1.4935644
68	0xbe96b982	-0.29438406
69	0xbe9014d4	-0.2814089
70	0xbfe23c93	-1.7674736
71	0xbfb5e96a	-1.4211857
72	0xbeb1f923	-0.3476039
73	0x3e836ba6	0.25668067
74	0x3c72beaf	0.01481597
75	0xbdf20328	-0.11817008
76	0x3ec224bf	0.3791866
77	0x3df3af82	0.1189871
78	0xbe340233	-0.17578964
79	0x3ea79266	0.3272888
80	0xbf51b96d	-0.8192356
81	0x3f63bbab	0.88958234
82	0x3f06559c	0.5247438
83	0xbf0932b5	-0.53593
84	0x3efb1740	0.49041176
85	0xbd681273	-0.05665822
86	0x3eb8ebba	0.36117345
87	0x3e666cd4	0.22502452
88	0x3f631eb2	0.8871871
89	0xbf740022	-0.953127
90	0x3db47386	0.08811097
91	0xbd066365	-0.032809634
92	0x3ed1284a	0.4085105
93	0xbe5d0978	-0.21585643
94	0xbe6ead29	-0.23308243
95	0x3f03c4ba	0.51472056
96	0xbf6e0332	-0.92973626
97	0xbf5cd3d9	-0.86260754
98	0xbf9cd30a	-1.2251904
99	0xbeb975cb	-0.3622268
100	0x3eb94e3c	0.361925
101	0xbe9177ee	-0.28411812
102	0x3e6d8ff1	0.2319944
103	0x3f50e76d	0.8160313
104	0x3eb622f2	0.35573536
105	0x3f8a3ad0	1.0799198
106	0x3e0e85e1	0.13918258
107	0x3f64fe64	0.8945067

Model.forward_v.seq.1.layers.0.self_attn.out_proj.weight f4 [36, 36]
0	0x3e8c7e3d	0.27440062
1	0xc0271d8f	-2.611179
2	0x3f518e3b	0.8185765
3	0x3ccc756e	0.024958339
4	0xbe9f4dbe	-0.31114
5	0xbe8e7bb5	-0.27828756
6	0xbf3f0e63	-0.7463133
7	0xc022220f	-2.5333288
8	0x3fa5c09b	1.2949404
9	0x3f5e8653	0.8692371
10	0x3f1eeb64	0.6207793
11	0x3fe6a28b	1.8018354
12	0xc04d5666	-3.2083983
13	0xc08202eb	-4.062856
14	0x3f582fcc	0.8444793
15	0xc04cdc6e	-3.200954
16	0x3b0245d9	0.0019878058
17	0xbfb4c877	-1.4123677
18	0xbebb2f69	-0.3655961
19	0x3ee49af8	0.44649482
20	0xbfd61559	-1.6725265
21	0xbf9fb766	-1.2477844
22	0x3faf27ec	1.3684058
23	0xbfb5fb61	-1.421734
24	0x400fca9f	2.246742
25	0x3f4c61ac	0.79836535
26	0x3fa92237	1.3213567
27	0x3e39aa9f	0.18131493
28	0x3f494c37	0.7863192
29	0xbf241542	-0.64094937
30	0xc0668f49	-3.6024954
31	0x3fdec577	1.7404011
32	0x408d0b6c	4.4076443
33	0x3f7314c1	0.9495354
34	0x402d078c	2.7035856
35	0x3fb64741	1.4240495
36	0xbe83e8c4	-0.25763524
37	0x3f34c930	0.7061949
38	0xbf2bb60d	-0.6707466
39	0xbf130342	-0.57426846
40	0x3fb62ca2	1.4232371
41	0x3b092692	0.002092753
42	0x3f279172	0.65456307
43	0xbe008f31	-0.12554623
44	0x3ec40e22	0.38292032
45	0x3dc3b598	0.09556121
46	0x3f7ee173	0.9956276
47	0x3e860c37	0.26181194
48	0xbed1843b	-0.40921196
49	0xbe1846f1	-0.14870812
50	0xbe3a1770	-0.18173003
51	0x3ebdf5bf	0.37101552
52	0x3f2eb29b	0.6824128
53	0xbf9122bf	-1.1338729
54	0xbf71ff4d	-0.94530183
55	0xbf82cd8f	-1.0218982
56	0xbbc2dcfb	-0.005946753
57	0xbf071820	-0.52771187
58	0x3de66662	0.11249997
59	0x3ea222fc	0.31667316
60	0xbe5261ed	-0.20545168
61	0x3cd65e66	0.02616806
62	0xbf71e97d	-0.944969
63	0x3f9d3e4c	1.2284636
64	0xbf8ab127	-1.0835313
65	0x3e5a853f	0.21339892
66	0xbf906d42	-1.1283343
67	0x3dc7d82b	0.09758028
68	0x3fbc6fba	1.4721596
69	0xbf141c46	-0.5785564
70	0x3f49f9ed	0.7889698
71	0x3dbcadd1	0.0921284
72	0xbf8d10a1	-1.10207
73	0x3e9bc587	0.3042414
74	0x3fec8d15	1.8480555
75	0x3fdb5eb7	1.713828
76	0x3f6b455e	0.9190272
77	0xbfd69464	-1.6764035
78	0xbf98d767	-1.1940736
79	0xc0056659	-2.0843718
80	0xbfb0a03f	-1.3798903
81	0x3e861398	0.26186824
82	0x3eae12ee	0.33998817
83	0x3fa7efdb	1.3120073
84	0xbf4ce130	-0.8003111
85	0xbf3a8647	-0.7286114
86	0x3f7d823f	0.99026865
87	0xbf6e9edc	-0.9321115
88	0xbdbe651b	-0.09296628
89	0x3e82c3c6	0.25539988
90	0xbf228935	-0.6349061
91	0x4000fc7a	2.01541
92	0xc002dd52	-2.0447583
93	0xbf7ac69b	-0.979593
94	0x403f8021	2.9921954
95	0xc00fac41	-2.2448885
96	0x3fac29f8	1.3450308
97	0xbec468da	-0.38361245
98	0x401870b9	2.38188
99	0xbf83803f	-1.0273513
100	0x3fa52345	1.2901388
101	0xbfbf9420	-1.4967079
102	0xbfaca249	-1.3487025
103	0xbff73a0a	-1.9314587
104	0xbf10f42b	-0.5662257
105	0xc019a28e	-2.4005466
106	0x3ec6798f	0.38764617
107	0xbf082f84	-0.53197503
108	0x3de220f9	0.11041445
109	0x3fa0c0e4	1.2558866
110	0x3fbe29f3	1.4856552
111	0x3fac9281	1.348221
112	0x400d22b2	2.2052426
113	0xbfe934ba	-1.8219216
114	0xbf865511	-1.049471
115	0xbedfc9e8	-0.4370873
116	0xbfd037e9	-1.6267062
117	0x3f87597d	1.0574185
118	0x3e0ab32c	0.13544911
119	0x3fd756a8	1.682332
120	0xbfae9b95	-1.364123
121	0xbfb25605	-1.3932501
122	0x3f02b1be	0.51052463
123	0xbf95ab30	-1.1692867
124	0x3fc31a00	1.524231
125	0xbff8c2b3	-1.9434417
126	0xbfa70f0d	-1.3051468
127	0xbebb451e	-0.3657617
128	0xbff4cfc2	-1.9125903
129	0xbfdab383	-1.7086033
130	0x407c6478	3.9436321
131	0xbfe5c2d9	-1.7950088
132	0x3febe964	1.84306
133	0x3ec6bae4	0.3881446
134	0x3f952ac3	1.1653675
135	0x3d8a4d74	0.06753054
136	0x3e870f24	0.2637874
137	0xbf39575e	-0.72398937
138	0xc0196b28	-2.3971653
139	0xbf355193	-0.708276
140	0x3fe12860	1.7590446
141	0xbfe0371b	-1.7516817
142	0x3fe3e67b	1.7804712
143	0xbef19bf7	-0.47189304
144	0xbf2f8d80	-0.68575287
145	0xbee93d06	-0.4555437
146	0x3f9c3ef9	1.2206718
147	0x3fac656b	1.346845
148	0x3f5615a8	0.83626795
149	0xbfd059d3	-1.6277412
150	0xbf8c3e23	-1.0956463
151	0xc04e453f	-3.2229764
152	0xbe821ca7	-0.25412485
153	0x3f57c0f4	0.842788
154	0x3fa172ee	1.2613199
155	0x401f2886	2.4868484
156	0xbfef0bf5	-1.8675524
157	0xbff0f920	-1.8826027
158	0x3fb4d351	1.4126989
159	0xbffab222	-1.9585612
160	0x3f6e16f7	0.9300379
161	0xbf80b15b	-1.0054125
162	0xbf10235b	-0.5630395
163	0x3f945a4c	1.1590056
164	0xbfb65fe4	-1.4248013
165	0xbf916835	-1.1359926
166	0x401c6975	2.4439366
167	0xbfbf9ab8	-1.4969091
168	0x40037b10	2.0543861
169	0x3e6873c8	0.22700417
170	0x3fd5d1a8	1.6704607
171	0x3eb7f54e	0.3592934
172	0x3eebcc92	0.46054512
173	0xbf9e134f	-1.2349643
174	0xc02edfb3	-2.7324035
175	0xbf864197	-1.0488766
176	0x3f82ad31	1.0209104
177	0xbfd263ac	-1.6436667
178	0x40009197	2.008886
179	0x3f17ce00	0.59298706
180	0x3f440cb9	0.76581913
181	0x4011a622	2.275765
182	0xbfc898c0	-1.5671616
183	0xbfaa3390	-1.3296986
184	0x3fcfc869	1.6233035
185	0x3ec9e990	0.39436007
186	0x3fbaa36e	1.4581125
187	0x3f996b32	1.1985838
188	0xbf237e53	-0.6386463
189	0x3ee61972	0.44941288
190	0x3f9a4475	1.2052141
191	0x3e963438	0.29336715
192	0x3f2d29b3	0.6764175
193	0x3f8838d0	1.0642338
194	0xbf73e5ad	-0.9527233
195	0x400a8ced	2.1648514
196	0x3ff4c1a8	1.9121599
197	0xc01f856f	-2.4925191
198	0xbef9f9b6	-0.48823327
199	0xbf9a4f6a	-1.2055485
200	0x3ecf5b5a	0.40499383
201	0x3f237dc9	0.6386381
202	0xbf89ee47	-1.0775841
203	0x3f5e29e7	0.8678269
204	0xc01da930	-2.4634514
205	0x3e6ee86e	0.23330852
206	0xc0a117cc	-5.034155
207	0x3fd35bc0	1.6512375
208	0xbfbe1e08	-1.4852915
209	0x405245d7	3.2855127
210	0xbf4fdc07	-0.8119511
211	0x3f87afa3	1.0600475
212	0x3fe3dc6d	1.7801644
213	0x3f8aec00	1.0853271
214	0x3f6fb271	0.93631655
215	0xbcbc88c5	-0.023014436
216	0x3edef5dd	0.43546954
217	0xbf72c528	-0.94832087
218	0x3f711d9b	0.941858
219	0x3e9def71	0.30846742
220	0x3ec9cf06	0.3941576
221	0xbe59f3a7	-0.21284352
222	0x3e4e0805	0.20120247
223	0x40130011	2.296879
224	0xc0460e9f	-3.0946424
225	0x403863fe	2.881103
226	0x3fff8bd7	1.9964551
227	0x3f8f16bf	1.1178817
228	0xbfd7fa43	-1.6873249
229	0xbff8ff38	-1.9452887
230	0x3e88b0a0	0.26697254
231	0xbf7d4a8d	-0.9894188
232	0x3fa7c5a6	1.3107193
233	0xc00f8d6d	-2.243007
234	0xc00ffebd	-2.249923
235	0xbf437d36	-0.7636293
236	0xbfa60331	-1.2969724
237	0xbfcc1738	-1.5944586
238	0xbf5ff961	-0.87489897
239	0xbef38461	-0.47561935
240	0x3f701823	0.9378683
241	0x3f1c9900	0.6117096
242	0xbd3a781c	-0.0455247
243	0x3d2c1f84	0.042022243
244	0x3e24d92d	0.16098471
245	0xbdf226bb	-0.118237935
246	0xc0071142	-2.1104283
247	0x3fa00f31	1.2504636
248	0x4091c387	4.555118
249	0x3f10c1c6	0.56545675
250	0x401eac72	2.4792752
251	0x3d6aa350	0.057284653
252	0xbf8b7e1f	-1.0897864
253	0x3fe99f0e	1.8251665
254	0x3f971dc5	1.180596
255	0x40083a18	2.1285458

Model.forward_v.seq.1.layers.0.self_attn.out_proj.bias f4 [36]
0	0x3e64a8f1	0.22330071
1	0x3ea92648	0.3303702
2	0x3e3b9269	0.1831757
3	0xbec56ed4	-0.38561118
4	0x3e8bdebf	0.2731838
5	0xbe77c364	-0.2419563
6	0xbea81746	-0.32830256
7	0x3e9f0f43	0.3106633
8	0xbe8f4c54	-0.2798792
9	0x3e8449ea	0.25837642
10	0x3e2c5096	0.16827616
11	0x3ea9aec8	0.3314116
12	0x3ebca502	0.3684464
13	0x3eb07915	0.34467378
14	0x3ea07fa5	0.31347385
15	0xbe8d619b	-0.2761353
16	0x3e8e94c7	0.27847883
17	0xbe9b2208	-0.302994
18	0x3ea8c82f	0.32965228
19	0x3e9d6b91	0.3074613
20	0xbe312ef2	-0.17303064
21	0x3e965ae5	0.29366222
22	0xbe816029	-0.25268677
23	0x3e9fe180	0.3122673
24	0xbeba90b2	-0.3643852
25	0xbeaff2fb	-0.34365067
26	0xbec6b544	-0.3881017
27	0xbe7bcdc2	-0.24590209
28	0x3ea8c6e7	0.3296425
29	0x3e7cdc42	0.24693397
30	0xbe9f6f88	-0.3113978
31	0x3ec5853d	0.38578215
32	0x3ea80b66	0.32821196
33	0x3e951542	0.2911778
34	0x3e9c0855	0.30475107
35	0xbe86dcd5	-0.26340356

Model.forward_v.seq.1.layers.0.fc1.weight f4 [144, 36]
0	0x3f8ed402	1.115845
1	0xbf0aec82	-0.5426713
2	0xbec9d7de	-0.39422506
3	0x3e17a052	0.14807251
4	0xbf143e50	-0.5790758
5	0xbdf0613f	-0.11737298
6	0x3f742cc6	0.9538082
7	0xbf0936b2	-0.53599083
8	0x3e3a2809	0.18179335
9	0xbe867820	-0.26263523
10	0x3f385a3b	0.7201268
11	0x3ed184f0	0.40921736
12	0xbf38c182	-0.7217027
13	0xbf56843f	-0.8379554
14	0xbf6f4384	-0.93462396
15	0x3eec85b9	0.46195772
16	0x4001a0d1	2.0254405
17	0x3e37e813	0.17959623
18	0xbbf01eab	-0.0073278747
19	0xbf5e23ce	-0.86773384
20	0x3e4cf084	0.20013624
21	0x3f0a4a93	0.5402004
22	0x39d48dc8	0.00040541426
23	0xbf652c3b	-0.89520615
24	0xc01ab4d8	-2.4172878
25	0x3e8b4b83	0.27206048
26	0x3f50d763	0.81578654
27	0x3e5d1c10	0.21592736
28	0xbf597151	-0.8493853
29	0x3e882dd9	0.2659748
30	0xbf998da4	-1.199635
31	0xbf6f8151	-0.93556696
32	0x3e671808	0.22567761
33	0x3ea4944d	0.32144395
34	0xbe761780	-0.24032402
35	0xbdfcb36d	-0.1233891
36	0xbf9f4cbd	-1.2445294
37	0xbf63e13f	-0.89015573
38	0x3f2f72fa	0.68534815
39	0xbf54fd0e	-0.8319863
40	0xbfbd19f7	-1.4773549
41	0xbeb80a97	-0.3594558
42	0xbf76fad2	-0.9647647
43	0x3f13a23d	0.5766943
44	0x3ed7a387	0.4211695
45	0x3decede9	0.11568815
46	0xbe122e10	-0.14275384
47	0x3fe56e8f	1.7924365
48	0x3f5542f7	0.83305305
49	0x3fe7ba76	1.8103778
50	0x3f277c30	0.6542387
51	0xbeee7fd5	-0.46581903
52	0xbda6707d	-0.08126924
53	0x3ef85d38	0.4850862
54	0xbfb16ca5	-1.3861281
55	0xbda30d1b	-0.07961484
56	0x4049796e	3.1480365
57	0x3f1623b8	0.5864825
58	0xbf018530	-0.50593853
59	0xbeab0173	-0.33399543
60	0x3eea0171	0.45704225
61	0xbf4fbbff	-0.81146234
62	0xbeb9ac7d	-0.3626441
63	0xbf86c47d	-1.0528713
64	0x3fdc529d	1.7212712
65	0xbf6afbb4	-0.9179032
66	0x3f517c04	0.8182986
67	0xbe7142e2	-0.2356067
68	0xbf2d3bf0	-0.6766958
69	0xbf64d9fd	-0.89395124
70	0x3f99e629	1.2023364
71	0x3f4b9046	0.7951702
72	0xbef3d181	-0.47620776
73	0xbf421c3e	-0.75824344
74	0x3d6d7c7e	0.057980053
75	0xbeeb0b8a	-0.4590724
76	0xbf218053	-0.6308643
77	0xbf48cfb5	-0.78441936
78	0xbf3d9f6c	-0.74071383
79	0x3eef20e6	0.46704787
80	0x3f10ac85	0.56513244
81	0x3e3df9c2	0.18552306
82	0xbe63f615	-0.22261842
83	0x3f6c1491	0.9221888
84	0x3f1f8415	0.62310916
85	0x3fb5e50c	1.4210525
86	0x3f0b4b45	0.5441173
87	0xbece3144	-0.40271962
88	0xbd3df3e1	-0.04637516
89	0x3e823c11	0.25436452
90	0xbe776de2	-0.2416301
91	0x3e2051e8	0.15656245
92	0x3f60a01d	0.87744313
93	0x3ed3f782	0.4139977
94	0xbef392ab	-0.47572836
95	0x3e80a017	0.2512214
96	0x3edcf2b7	0.43153927
97	0x3df8fe5c	0.1215789
98	0xbe8066be	-0.25078386
99	0xbee37f39	-0.44433
100	0x3f9599df	1.1687583
101	0x3daddb6c	0.08489117
102	0x3f0063e8	0.50152445
103	0x3e9a234d	0.30105057
104	0xbf60e4c3	-0.8784906
105	0xbe2b9f24	-0.16759926
106	0x3f829c1a	1.0203888
107	0xbe0c85c0	-0.13722897
108	0x3f15cd6c	0.58516574
109	0x3ec683e7	0.38772509
110	0xbe9f1c5f	-0.31076333
111	0x3f6f0a2f	0.93374914
112	0x3e0e0505	0.13869102
113	0x3fa46e53	1.2846168
114	0x3fe8c31c	1.8184543
115	0xbfa37de7	-1.2772797
116	0xbf19baeb	-0.6005084
117	0xbeb0f11b	-0.3455895
118	0x3e6383c1	0.22218229
119	0xbf177bc5	-0.5917323
120	0xbf12e196	-0.57375467
121	0xbfabbd49	-1.341714
122	0xbf7d2d79	-0.9889751
123	0x3db52c6b	0.08846363
124	0x3eaa0d76	0.33213395
125	0xbc44ea3a	-0.012018735
126	0xbe621da2	-0.22081617
127	0xbee4e82a	-0.44708377
128	0xbf23ddbc	-0.64010215
129	0x3d8010ee	0.06253229
130	0x3f83e9aa	1.0305684
131	0xbd94a892	-0.07258715
132	0xbeb916bf	-0.36150166
133	0xbc948b31	-0.018132778
134	0x3eb8957b	0.36051545
135	0x3e5836ba	0.21114627
136	0x3e5dcdab	0.21660487
137	0xbe9b75ac	-0.30363214
138	0xbe9c3808	-0.30511498
139	0xbf00b9bb	-0.502834
140	0x3f0677f2	0.5252677
141	0xbdf36ad1	-0.11885608
142	0x3d9e5b7f	0.07732295
143	0x3e9b2035	0.3029801
144	0xbf3bb93d	-0.73329526
145	0xbf0f187c	-0.55896735
146	0x3f638011	0.8886729
147	0xbeadad62	-0.33921343
148	0xbf6f4789	-0.9346853
149	0xbe2819f7	-0.16416155
150	0xbe24654c	-0.16054267
151	0x3ec4db1e	0.38448423
152	0xbd67f10b	-0.05662636
153	0xbef7a56a	-0.48368388
154	0xbe182040	-0.14856052
155	0x3fa53f38	1.2909918
156	0x3f2afef2	0.66795266
157	0x3f8f539c	1.119739
158	0x3ebd1753	0.36931857
159	0xbec00da6	-0.37510413
160	0x3c5e6a5a	0.013575161
161	0x3d70beaa	0.05877558
162	0xbfa8e7e3	-1.3195766
163	0xbede8b4f	-0.4346566
164	0x403f62d9	2.9904082
165	0x3d43b392	0.047778673
166	0x3dda36d3	0.10654988
167	0x3ce43b5a	0.027860332
168	0x3f25bfed	0.6474598
169	0xbf3c3baa	-0.7352854
170	0xbeb6b104	-0.35681927
171	0x3ccc84c9	0.02496566
172	0x3fb7c42f	1.4356745
173	0xbf820f77	-1.016097
174	0x3f04c54d	0.5186356
175	0xbc6987cf	-0.014253571
176	0xbf61738d	-0.8806694
177	0xbf88eed7	-1.0697888
178	0x3f47219e	0.7778567
179	0x3fc61a30	1.5476742
180	0x3f06febe	0.52732456
181	0x3e81678e	0.25274318
182	0xbe4ada51	-0.19809844
183	0x3efc7270	0.4930606
184	0xbd961039	-0.07327313
185	0xbd97e938	-0.0741753
186	0x3f77b3c7	0.96758693
187	0x3ea9438e	0.33059353
188	0xbd9c490e	-0.076311216
189	0x3cfa95da	0.030589033
190	0x3ea26954	0.31720984
191	0xbe6bdc69	-0.23033299
192	0xbe8b8d0e	-0.27256054
193	0x3d2a892e	0.04163473
194	0xbf904fee	-1.1274393
195	0x3eeaa379	0.45827845
196	0x3e2d2791	0.16909625
197	0x3ed8cc10	0.42343187
198	0xbd2bdced	-0.041958738
199	0x3e91faed	0.28511754
200	0x3f4d4dc1	0.8019677
201	0x3b15bdd4	0.0022848742
202	0xbebb8a26	-0.36628836
203	0xbeff98fb	-0.49921402
204	0xbd32198f	-0.043481406
205	0x3e453e3d	0.19262023
206	0x3eeb8c49	0.46005467
207	0x3e89b887	0.26898596
208	0xbe1ae5e6	-0.15126762
209	0xbbde13ce	-0.0067772632
210	0xbf063aad	-0.5243328
211	0xbeec6ca2	-0.4617663
212	0x3f249c2c	0.643008
213	0xbd0e220a	-0.03470043
214	0xbe6dcb16	-0.23222002
215	0x3c3c7e15	0.01150467
216	0xbd829909	-0.063768454
217	0xbecb95b8	-0.39762664
218	0xbea5ed52	-0.32407624
219	0x3e8f5eb7	0.2800195
220	0xbd862983	-0.065508865
221	0x3ec3e7d8	0.3826282
222	0xbe1ff1c5	-0.15619572
223	0xbee68521	-0.45023444
224	0xbdddbe1f	-0.10827278
225	0xbe0a375d	-0.13497682
226	0x3f4c583c	0.79822135
227	0x3d9067c3	0.07051041
228	0xbec45df0	-0.3835292
229	0xbf0ddf17	-0.55418533
230	0x3ea89468	0.32925725
231	0xbefede44	-0.4977895
232	0x3e9383bd	0.28811446
233	0x3dba200a	0.09088142
234	0x3e928acc	0.2862152
235	0x3c0ea2b6	0.0087057855
236	0xbeaa738a	-0.33291274
237	0x3f123a1e	0.5711993
238	0x3e4afa9d	0.19822164
239	0xbe4f13ae	-0.20222351
240	0x3ecf0854	0.4043604
241	0x3eeffe0a	0.46873504
242	0x3ea89986	0.3292963
243	0xbed0ffc7	-0.40820143
244	0xbf616778	-0.88048506
245	0x3e8d96f7	0.2765424
246	0x3e3f598c	0.18686503
247	0xbeb4ccda	-0.3531254
248	0xbe2b43d1	-0.16725089
249	0x3ddd330b	0.10800751
250	0x3f271260	0.65262413
251	0xbeb10917	-0.34577248
252	0xbf86dbe0	-1.053585
253	0xbee6481d	-0.44976893
254	0x3ec11a30	0.37715292
255	0xbea7da63	-0.32783803

Model.forward_v.seq.1.layers.0.fc1.bias f4 [144]
0	0xbfd06f27	-1.6283921
1	0x3fe4c115	1.7871424
2	0x3f3a1fbe	0.72704685
3	0xbec3eaac	-0.38264978
4	0x3fa81e54	1.3134255
5	0xbf46c88a	-0.7764975
6	0x3dec40cb	0.11535796
7	0x3f578111	0.84181315
8	0x3fcf5c1d	1.6199986
9	0x3f9dcecc	1.2328734
10	0x3f878c63	1.0589718
11	0x3f854027	1.0410203
12	0x3f93c4be	1.1544416
13	0xbe13b548	-0.14424622
14	0x4031ae89	2.7762778
15	0x3f2e27eb	0.6802966
16	0x40106b04	2.2565317
17	0x3f2353a9	0.6379953
18	0x3fb5c16a	1.419965
19	0xbe9c0bc9	-0.3047774
20	0xbdcc54b5	-0.09977094
21	0x3fd1d111	1.6391927
22	0x3fb3ca42	1.4046099
23	0x3fd628a5	1.6731154
24	0x3f7651fa	0.96218836
25	0xbf40e311	-0.75346476
26	0x3fbc0113	1.4687828
27	0x3fc6ce79	1.553176
28	0x3f952625	1.1652266
29	0x3f873df3	1.056578
30	0x401646b3	2.3480651
31	0x3f59b40c	0.85040355
32	0x3f9862c8	1.1905146
33	0xbe8bc8c4	-0.2730161
34	0x3f058569	0.5215669
35	0x3f60e257	0.8784537
36	0x3f94ea32	1.1633971
37	0xbeb507f8	-0.35357642
38	0x3f8a05e5	1.0783049
39	0x3fa6aee2	1.302212
40	0x3fac5c55	1.3465677
41	0x3f02bf51	0.51073176
42	0xbfbf23b4	-1.4932771
43	0x3fa8d720	1.3190651
44	0x3ed747ee	0.42047065
45	0xbf265b37	-0.6498293
46	0x4009aca5	2.1511624
47	0xbf553ac5	-0.832928
48	0xbf897527	-1.0738877
49	0xc061406d	-3.5195572
50	0xbee90e72	-0.45518833
51	0xbfb5bb00	-1.4197693
52	0x3fe00549	1.7501613
53	0x400dbed3	2.214772
54	0x3fcbba02	1.591614
55	0x3faa5419	1.3306915
56	0x3f7980ff	0.9746246
57	0xbf08b213	-0.5339672
58	0x3fa3deab	1.2802328
59	0x3e2c2850	0.16812253
60	0x40056f45	2.0849164
61	0xbf80fcac	-1.0077109
62	0x3fd230bb	1.6421121
63	0xbec461db	-0.38355908
64	0xbe2b170e	-0.16708013
65	0xbf000fbb	-0.50024
66	0xbe87123b	-0.26381096
67	0xbff3ecd6	-1.9056652
68	0xbeaed699	-0.341481
69	0xbedaad59	-0.4271038
70	0xbe7b687d	-0.24551578
71	0x401c5605	2.4427502
72	0x3fe4ca3f	1.7874221
73	0x3fa58e0c	1.2933974
74	0x3f8e18ae	1.1101282
75	0xbea1353b	-0.31485924
76	0xbed93716	-0.4242484
77	0x3f95069a	1.164264
78	0x3fda834d	1.707132
79	0xbf1317e3	-0.57458323
80	0xbe923661	-0.28557113
81	0x3f7ff6ad	0.9998577
82	0x3faf93f8	1.3717031
83	0xbf692542	-0.91072476
84	0x3fe2c4d8	1.7716322
85	0xbfab688a	-1.3391278
86	0xbe69a805	-0.22818
87	0x3fab0770	1.3361645
88	0xbeadd779	-0.33953455
89	0xbdd9b0e8	-0.10629445
90	0xbfaef171	-1.3667432
91	0x3dd2bac9	0.10289533
92	0x3fc860d6	1.5654552
93	0xbe808a2b	-0.25105414
94	0xbf72f820	-0.9490986
95	0xbfa8d601	-1.3190309
96	0xbe702967	-0.23453294
97	0x3f3bc50b	0.7334754
98	0x3ed91f16	0.4240653
99	0xbe3ff26d	-0.18744822
100	0xbe0561de	-0.13025615
101	0xbff47d2f	-1.9100703
102	0x3f66910f	0.9006509
103	0x3fa361ff	1.2764281
104	0x3fc31b31	1.5242673
105	0xbdefeba2	-0.11714865
106	0xbe57b716	-0.21065935
107	0xbfb7b77c	-1.435287
108	0xbe9121a0	-0.28345966
109	0x40063557	2.0970056
110	0x3f9614ab	1.1725057
111	0x3fae29a8	1.3606462
112	0xbea29143	-0.3175145
113	0xc00c5417	-2.1926324
114	0xbf5e3654	-0.8680165
115	0x3f4cc503	0.79988116
116	0x3f6964ff	0.9116973
117	0xbeddd5ea	-0.43327266
118	0xbf1e7674	-0.61899495
119	0x3fbc949d	1.4732853
120	0xbf82e6ea	-1.0226719
121	0xbe76bc3c	-0.24095243
122	0xbefc7573	-0.49308357
123	0xbe88537a	-0.26626188
124	0x3e00a719	0.12563743
125	0x3f6428d9	0.8912483
126	0x3fa76078	1.3076315
127	0xbe868428	-0.26272702
128	0x3fe09952	1.754679
129	0x3fd6f668	1.6793947
130	0x3f867823	1.0505413
131	0xbfdecbdc	-1.7405963
132	0xbe4b01ac	-0.19824857
133	0x3f951f1a	1.1650116
134	0xbefea54f	-0.49735495
135	0x3e83a3d8	0.2571094
136	0xbf2528e2	-0.6451551
137	0xbca04e07	-0.019568456
138	0xbeafb3f1	-0.34316972
139	0x3fc867e9	1.5656711
140	0x3fd41200	1.6567993
141	0xbe7f865c	-0.24953598
142	0xbe7532ea	-0.23945203
143	0x3f219c64	0.6312926
