pretrained_model/A4_MulT_ta_pretrained_model.pth (torch, 720863 bytes, 108 tensors)

Model.proj_l.weight f4 [36, 768, 1]
000000 18 d6 65 3c 1d ea ac bc 07 79 ae bb 16 c7 14 bb
       0.014028095 -0.021107728 -0.005324486 -0.0022701672
000010 7b ee ed bd 2f 6d 9d bc 40 e5 48 3d 30 f4 ee 3c
       -0.11617752 -0.019217102 0.049046755 0.029169172
000020 1e b2 0f bd 12 b3 33 3d b6 34 3a bd 4e 08 ee ba
       -0.035081975 0.043871947 -0.045460425 -0.0018160434
000030 f4 61 b9 bd 78 2b e3 3c fe 68 ec 3c 9a d7 a9 bd
       -0.09051886 0.027730688 0.028858658 -0.08293076
000040 ac e8 7a 3c c9 34 dd bc 9a 19 80 3d 6b 0e b5 bd
       0.015314262 -0.027002709 0.06254883 -0.08840641
000050 30 8e ad 3c 8d 36 9a 3c b1 be 45 bc e3 af 23 bd
       0.021185964 0.01882484 -0.01206939 -0.03996266
000060 68 0b 4a 3c 4e 70 c0 3c 78 2d db 3c 3f fe 16 3d
       0.012331821 0.023491051 0.02675508 0.03686356
000070 26 48 38 3d 4c ee 49 3c 6c 10 49 bc e9 47 a6 bc
       0.04499068 0.012324881 -0.012271982 -0.020297961
000080 c7 22 3c 3d 2a 68 33 3d ef d8 9a 3d 96 a1 8f 3c
       0.045931604 0.04380051 0.07560908 0.017533105
000090 99 de 32 3b 27 ce 98 bc 68 9c db ba 79 60 a5 bc
       0.0027293323 -0.018652989 -0.0016754987 -0.020187603
0000a0 dd bb 89 3d 0a da d1 bb 9a 38 0a bd 44 bf b8 bb
       0.06725285 -0.006404166 -0.033745386 -0.005638035
0000b0 82 05 e2 3c 5a cc 14 3d c6 1c 3e bb 2f 1d f0 ba
       0.027590517 0.036327697 -0.002900885 -0.0018319244
0000c0 ba 84 2b bc 27 44 f9 3b f1 9d 2d bb 92 eb 36 bc
       -0.010468656 0.0076070013 -0.0026491845 -0.011164563
0000d0 bc 39 fe bc 55 ac ba bc 90 b0 bf 3c fc 72 04 3d
       -0.03103339 -0.022787252 0.023399621 0.03233622
0000e0 ba b2 d6 3c 43 7f ce 3c 40 ca 7a bd aa a6 18 bb
       0.02620827 0.025207167 -0.061228037 -0.00232927
0000f0 8a 03 31 3d 17 83 92 bc 5c 0b 44 bd f0 43 ee 3d
       0.043216266 -0.017884774 -0.047862396 0.11634052
000100 04 1b d5 3d de a1 b0 ba 1f 36 31 bc 51 0c 0f 3d
       0.104055434 -0.0013475975 -0.010816126 0.034923855
000110 71 eb 85 3d 05 11 bd bc ff db 55 bd 08 b5 bb bc
       0.065390475 -0.023079405 -0.052211758 -0.02291347
000120 f0 fb cf bc 96 df 92 3c ef 32 2c bc 22 54 b7 3c
       -0.025388688 0.01792888 -0.01051019 0.022378985
000130 66 22 0d 3e be 23 95 3c 6b 8b ab bc d2 4b 2a bc
       0.13782653 0.01820552 -0.020940503 -0.0103940535
000140 3e 85 19 bc 7d 1f 44 bd bf 9a ab 3d 09 6d b0 bd
       -0.009370146 -0.047881592 0.08379125 -0.08614547
000150 99 94 d9 bc f4 7d ca bc bd 95 dd 3c 59 1f f6 3c
       -0.026560115 -0.024718262 0.02704894 0.030044245
000160 a4 a5 cf 3c 76 f1 4f bc 40 ff 30 3d a3 5b 22 3c
       0.025347538 -0.012691846 0.043212175 0.009909543
000170 eb e9 29 bc 15 fe 90 3c 0f b6 3e 3c 42 ce 4f 3d
       -0.010370712 0.01769928 0.011640086 0.050733812
000180 f8 93 37 bb 98 bd ad bc d1 61 99 bb 9e e9 41 bd
       -0.002801178 -0.02120857 -0.00468085 -0.047341935
000190 84 76 e9 bc 28 ec 0a bd 96 7a 03 3d 0d 00 13 3b
       -0.028498895 -0.033916622 0.03209933 0.002243045
0001a0 61 ca ca 3c 31 63 7a bd 95 34 b9 3d de 10 50 3d
       0.024754705 -0.061129753 0.09043232 0.050797336
0001b0 0e 5b 43 bb f7 11 15 3d a0 85 91 3c 81 4e 25 bc
       -0.0029808911 0.036394086 0.017763913 -0.010089518
0001c0 03 3b 51 3d bb d9 bf 3d 53 66 ba bc 91 80 d2 bc
       0.05108167 0.09367701 -0.02275387 -0.02569607
0001d0 40 f8 93 bc 98 7c 36 bc 8a 41 64 bd ee 08 cf 3c
       -0.01806271 -0.011138104 -0.055726565 0.025272813
0001e0 4a 0d 64 38 7a e8 fb bc 2c df f5 3c bd 08 2a bc
       5.4371812e-05 -0.030750502 0.030013643 -0.01037806
0001f0 1c 98 67 3b fe be c5 bc 19 15 0e 3c ae 16 08 bd
       0.0035338467 -0.024138924 0.008672022 -0.033224754
000200 8e 87 94 bd fb 5e 22 3d d2 cf 01 bd 4b f9 bf 3c
       -0.072524175 0.03964136 -0.031692334 0.023434302
000210 b9 98 03 3d 6c 30 03 bd 38 ed 57 bd bd aa a1 bc
       0.03212807 -0.0320286 -0.052716464 -0.019734735
000220 fd ce 88 bc 70 b7 33 bd 65 8f 0f 3d bf 43 fe bc
       -0.016700262 -0.04387611 0.03504886 -0.031038163
000230 02 08 c9 3d d3 f5 2e 3b da 61 b9 3d d0 76 59 bc
       0.098159805 0.0026696816 0.09051867 -0.013272956
000240 54 a7 b7 3c 49 77 23 3c d6 35 49 3c be 85 83 3c
       0.022418655 0.00997717 0.012280902 0.016054984
000250 e8 3d f4 bb 11 ff 72 bb 68 d6 31 bc e9 06 55 bd
       -0.007453669 -0.00370783 -0.010854341 -0.052008543
000260 23 22 95 bd 7e f5 36 3d 12 9c 07 bc 04 b4 1e bd
       -0.07281902 0.044667713 -0.008276956 -0.038745895
000270 c1 4d d3 bb fb 97 aa bd 6a b4 0a bb 06 7e ac 3c
       -0.006448478 -0.08329769 -0.0021164664 0.021056186
000280 97 12 0c bd 05 45 c1 ba ab f6 b8 3c 48 0e ab bc
       -0.034197416 -0.0014745301 0.022578558 -0.020880833
000290 39 41 f1 bc 30 50 7c bd 78 ad bc 3d ac 21 84 3d
       -0.029450046 -0.06159991 0.09212774 0.06451735
0002a0 03 b9 76 bd b9 ca de bc 27 6c 8a 3d 58 f9 2a bc
       -0.060235035 -0.027196275 0.0675891 -0.010435425
0002b0 83 34 90 3d 1d fc ac 3a bb 36 d1 bb 0e 85 4b 3d
       0.07041266 0.0013197694 -0.006384698 0.049687438
0002c0 f0 94 32 3c 75 84 42 3d 8f e5 0c bd 78 eb 76 3b
       0.010899767 0.047489602 -0.03439861 0.0037676971
0002d0 5a af 47 b9 46 b2 6c 3d 59 e8 47 3c 03 1b 06 3d
       -0.00019043442 0.057787202 0.012201392 0.032740604
0002e0 bf df 69 bb 7a c8 10 bc 74 1e cf 3c 72 c6 31 bd
       -0.0035686342 -0.00883686 0.025283076 -0.043402143
0002f0 dc e7 3b 3d c0 22 86 3c 70 1f bc 3c dc 2d c9 bc
       0.045875415 0.016373992 0.02296421 -0.024558
000300 33 c6 72 bd e6 0c 87 bd 1f e3 70 3d 00 60 2e bc
       -0.05927105 -0.06594257 0.05881035 -0.010643005
000310 6c 99 05 3c b0 93 f2 bc 18 38 d0 3c 60 6c c9 3c
       0.008154254 -0.029611439 0.025417373 0.02458781
000320 4b 94 40 3c 47 e8 64 3d ef 1a e8 bd ee 6e 48 bd
       0.011754106 0.05588558 -0.11333262 -0.048933916
000330 39 70 4f 3d 9f 18 2d 3c bb 51 8b bc 7f 87 66 bc
       0.050644133 0.010564952 -0.017006746 -0.014070391
000340 5b 0d 74 bb 8f 0e 1a 3d b3 1f f3 bc d0 11 66 bd
       -0.0037239406 0.03761154 -0.029678201 -0.05616933
000350 2c 58 b8 3d c1 6a f8 bc 0c 0c bc bb 9f 02 96 3c
       0.090011925 -0.030324342 -0.005738741 0.018311797
000360 97 ae 57 3c ae cb b3 bd 8b 2a 2d bc 4a 20 05 3d
       0.013164184 -0.08779083 -0.010569225 0.032501496
000370 f2 f0 c1 3d 3f d0 af ba c7 9a 73 bd d2 90 88 bd
       0.09469785 -0.0013413503 -0.05947378 -0.06668247
000380 a9 35 b7 bd 3d 99 ae 3b 39 a6 28 3d e6 b1 01 3e
       -0.08945782 0.005328326 0.041174147 0.12665519
000390 c7 87 dd bb d1 b7 26 3d a3 1a 76 bd 1d 6e 0a 3b
       -0.0067605707 0.040702645 -0.060083997 0.0021122762
0003a0 46 5f 80 bc eb db b8 bc b7 73 83 3c 15 2f d9 bb
       -0.01567043 -0.022565803 0.016046388 -0.006627927
0003b0 f5 d6 0e 3d 1b ea cc bc 0f 7a 80 bc cf 41 8f bd
       0.034872968 -0.025013974 -0.015683202 -0.06994974
0003c0 c7 a0 fc 3c f8 9e 07 bd cf 1c 21 bd 50 3f 63 bc
       0.030838383 -0.03311059 -0.039334115 -0.013870075
0003d0 2a b1 b7 b9 05 37 76 3d dd 19 fe 3b 0e 64 b7 3b
       -0.00035036477 0.060111064 0.007754548 0.0055966442
0003e0 c4 d4 42 3d 19 98 49 bd c3 5e c8 bc 5e 91 09 bd
       0.04756619 -0.049217317 -0.024459248 -0.0335859
0003f0 bc 65 48 bd 35 f6 99 3d 47 d1 ff bc 64 c7 93 bd
       -0.048925146 0.075176634 -0.03122772 -0.07215765

Model.proj_a.weight f4 [36, 74, 1]
000000 5e 85 f7 ba 40 98 2d bd 12 5f 58 bd 45 fd 12 3d
       -0.0018884351 -0.042381525 -0.05282504 0.035886068
000010 86 9b 35 3d c1 24 84 3d e2 c4 12 3e 82 5f fc bd
       0.04433777 0.06452323 0.14332917 -0.12322904
000020 89 ff db 3d 44 59 64 bc ba 94 19 be fd f6 48 bd
       0.10742099 -0.013937298 -0.14998141 -0.04906367
000030 2f 01 05 3e 35 78 fb bc ac 0d ab 3e a1 01 c2 3d
       0.12988733 -0.030696968 0.33408868 0.09472967
000040 ea ac af be be 7f af 3e 0f 50 20 be 7d cf 99 3e
       -0.3431161 0.34277147 -0.1565554 0.30041113
000050 36 ee 05 be 51 12 20 bb 67 f4 f5 bc 98 4c 8a bc
       -0.13079152 -0.002442498 -0.030023767 -0.016882226
000060 5f d7 85 3d fe 09 c8 3d 7a 52 fa 3d 15 fb 97 be
       0.065352194 0.09767531 0.122227624 -0.29683748
000070 d9 39 8a 3e 71 b1 21 3e ad 2e ce ba 29 71 da bd
       0.2699726 0.15790345 -0.0015730463 -0.10666115
000080 20 bc bb 3d 52 97 9c 3d 6e ae 6e bd 72 06 90 3e
       0.09166741 0.076460496 -0.058271818 0.28129917
000090 e3 84 33 3e 51 10 e1 3d 5e bf a4 3d a8 5a 1c 3e
       0.17531161 0.1098944 0.08044313 0.15268958
0000a0 01 be e5 3d 12 ff c2 bb f0 df ff 3d 77 9d 3c 3b
       0.11217881 -0.005950817 0.124938846 0.002878038
0000b0 19 be 50 be 77 22 5a be 3c 0e 71 bd 92 27 1e be
       -0.20385017 -0.2130221 -0.058851466 -0.15444782
0000c0 ee 0a 72 be 22 79 52 be a8 47 0f be 13 29 85 3d
       -0.23636982 -0.20554021 -0.13992178 0.06501975
0000d0 22 ee fa 3c 72 5f 18 bd 5c 06 b8 bd 48 dd 19 3e
       0.030631129 -0.0372004 -0.08985588 0.15025818
0000e0 2c 48 c5 3c 56 b9 d6 bd 00 a7 d8 3d bf ac 29 3d
       0.024082266 -0.10484569 0.10578728 0.04142451
0000f0 af 22 ba 3d 2f e7 e2 bd 0f f0 a8 bd 3e d2 d2 bd
       0.090886466 -0.11079251 -0.082489125 -0.10294007
000100 42 72 bd bd 3a 93 53 bd 0d d2 b8 3d d6 e1 e8 3c
       -0.092503086 -0.051654078 0.09024439 0.028428
000110 50 4a b1 3c 7f ce a7 3d af c9 0f 3d df d4 2f 3c
       0.02164188 0.08193683 0.03510445 0.010731905
000120 39 06 af 3d 25 88 95 3c 2c 08 ae 3d 0e 82 41 3c
       0.08546109 0.018253395 0.084976524 0.011810793
000130 f3 74 92 3c cf 84 16 bd 64 28 52 bd 0d 70 ee 3c
       0.017878031 -0.03674775 -0.05130805 0.029106164
000140 e7 20 ff 3d 8b 5f 0a be bd 89 22 3c cb d3 97 bd
       0.124574475 -0.13513009 0.009920535 -0.07413443
000150 65 08 9a 3d fb f3 d2 bd 2e 24 6b bd e2 94 b8 bd
       0.075211324 -0.10300442 -0.05740755 -0.09012772
000160 2a 4e b6 3d fb 97 57 3e b4 17 80 be 78 34 15 3e
       0.08901627 0.2105407 -0.25018084 0.14570796
000170 9f 4b 94 bd 08 84 a4 3e a5 46 45 3d 51 a4 04 bd
       -0.07240986 0.32131982 0.048163075 -0.032383267
000180 25 0c 2a ba 51 cd bb bd 69 f8 ab 3d 2d d1 95 bd
       -0.0006486795 -0.0917002 0.0839699 -0.07315288
000190 27 89 a6 bd 87 a1 f2 bd b7 62 ae 3d 0b c4 40 3d
       -0.081316285 -0.11847215 0.08514922 0.04706196
0001a0 53 41 51 bb 0b 64 6b bd 48 83 05 3e cf d3 95 3d
       -0.0031929805 -0.057468455 0.13038361 0.0731579
0001b0 0f ae b1 3c 41 ce 28 3d 92 6c 2c 3d 57 92 8d 3d
       0.021689443 0.041212324 0.04209573 0.06912678
0001c0 e6 bc 2d be 3c 21 ee bd 15 ed 56 3c 9f e1 b2 bd
       -0.1696659 -0.11627433 0.013118048 -0.0873444
0001d0 53 20 1c 3d b4 0f c2 bd 7b 81 41 3d 47 2b 26 be
       0.038116764 -0.094756514 0.047242623 -0.16227446
0001e0 ba 85 58 bd 8a 25 1d be 5d 4f 8e bd 43 ab fd bd
       -0.052861907 -0.15346351 -0.06948731 -0.12386181
0001f0 ab 4d 5f bc 6a 43 e4 bc f4 b4 67 3d 61 7c 21 be
       -0.013629357 -0.027864177 0.056569055 -0.15770103
000200 34 f0 b0 3c c1 d5 08 3d d3 6c 39 bd 63 83 18 bc
       0.021598913 0.033406977 -0.0452698 -0.009308669
000210 81 ae db 3d e5 fe f2 bd e1 f9 26 3d 4f 0f 8a bd
       0.10726643 -0.118650235 0.040765647 -0.06741201
000220 a1 32 df bd ed 26 12 be 06 58 15 3d 51 6e a9 3d
       -0.108983286 -0.14272662 0.0364609 0.08272994
000230 52 6d 3d bd e1 c4 ae 3d 35 56 8f bc db f8 2c bd
       -0.046246834 0.085336454 -0.017497161 -0.042229515
000240 9e 6d dd 3b 59 77 dc 3d 9d 3e 0d 3e b8 e4 d7 3b
       0.006757452 0.10764951 0.13793416 0.0065885447
000250 de 2e 02 3e c8 69 65 bc 0e 01 81 3d 6d 8e 95 3d
       0.12713191 -0.014002271 0.06299029 0.07302556
000260 98 15 5f bd 9e 86 2a bc d7 a1 53 3d a4 0a a9 bd
       -0.054463953 -0.010408072 0.051668014 -0.08253983
000270 46 f6 47 3c 12 51 a0 bd a0 a4 b5 bc 6b 5c cb bd
       0.012204712 -0.07827963 -0.022173226 -0.09929737
000280 c8 10 63 3d bc 8b ec bc 5a 39 0f 3e 5e 56 99 3d
       0.055435926 -0.028875224 0.13986722 0.07487176
000290 ee 28 75 bd 0c 14 bc 3d 39 43 3b be c8 63 07 3e
       -0.059853487 0.09183511 -0.18287362 0.13221657
0002a0 41 17 1a bd 8a 98 f2 bc e4 6c 88 bc d2 a8 0b 3d
       -0.037619833 -0.029613752 -0.016653486 0.034096546
0002b0 43 07 98 3c fa dd 6d bd 40 97 9f bd 8d f4 1e 3d
       0.01855815 -0.05807302 -0.077925205 0.03880744
0002c0 29 f0 ca 3d dc 13 b6 bc 9f bf f5 3d c4 1f 04 3c
       0.09909088 -0.022226267 0.119994394 0.008064214
0002d0 b8 08 a9 3c 73 7d 6e 3d 90 27 84 bd 82 69 5d 3d
       0.02063404 0.058225106 -0.064528584 0.0540557
0002e0 9a 76 13 3e e8 95 bf 3d 02 30 29 3e a1 f5 12 3e
       0.14400712 0.09354764 0.1652222 0.14351512
0002f0 d2 85 1c bd f7 e3 ad 3d be b6 bd 3d fb 4c 31 bd
       -0.03821356 0.084907465 0.09263371 -0.043286305
000300 57 66 36 be 6f d4 27 bb 1b a6 dc bd 25 5d 0b 3d
       -0.17812477 -0.0025608798 -0.107738696 0.034024376
000310 27 08 89 3c 7a be 1d be 91 13 db 3c 64 1b 02 be
       0.01672752 -0.15404692 0.026742728 -0.12705761
000320 bb 36 9d bd 35 7a 7a 3c c6 66 ae bd 83 18 44 bd
       -0.07676455 0.0152879255 -0.08515696 -0.04787494
000330 aa 66 b9 bd 7d 05 c5 bd 25 68 ec 3d ff e9 13 3d
       -0.09052785 -0.096201874 0.115433015 0.036111828
000340 21 32 5c 3d d9 21 87 3d 46 44 3e bd f4 bb 97 bd
       0.053758744 0.06598253 -0.04645183 -0.07408896
000350 ad 8c 89 bc e3 1e de bd b2 ef c8 bc 19 13 4c 3d
       -0.016790712 -0.10845735 -0.024528358 0.0498229
000360 0f 63 87 bd 41 3b e1 bb bf 3e d3 3d 39 10 f5 3d
       -0.06610691 -0.0068735187 0.10314702 0.11965985
000370 3c 80 ec bc 3a 13 84 3c 30 b7 d8 bd c5 45 66 bd
       -0.02886974 0.01612245 -0.10581815 -0.05621888
000380 f8 bf ab 3c f0 3d 61 3d 8a 97 c9 3c 33 66 54 bd
       0.020965561 0.05499071 0.024608392 -0.051855277
000390 4e e8 4a 3d 60 40 6f bd 44 2d ba bd 35 e7 d4 3d
       0.04953795 -0.058411002 -0.09090665 0.10395662
0003a0 ea 4f 8c 3c bc e1 09 3e 22 29 fe 3c b6 e5 ca 3c
       0.01712795 0.13465017 0.031025473 0.024767738
0003b0 de 98 e8 bd 52 cc 5b bd f7 48 59 3e e6 54 5d be
       -0.11357282 -0.053661652 0.2121924 -0.21614417
0003c0 96 12 33 3e bf 7d 84 be 0c 44 1c 3e d0 ca 0a 3e
       0.17487559 -0.25877187 0.15260333 0.1355393
0003d0 b7 a3 23 3b 13 5b 14 3e 30 7d c4 bc b3 45 03 3e
       0.0024969408 0.14487867 -0.023985475 0.12819557
0003e0 44 b9 71 3d b7 fd 87 3e 6a 00 82 bc e0 3d 44 3d
       0.059014574 0.26560757 -0.015869338 0.04791057
0003f0 2e 17 01 bd a5 37 15 3e fc ff 09 be 16 57 8c 3d
       -0.031516246 0.14572008 -0.13476557 0.06852548

Model.proj_v.weight f4 [36, 35, 1]
000000 6c a9 e3 bd ad 90 95 bd 00 68 6e ba 40 26 42 3d
       -0.11116299 -0.07302985 -0.00090944767 0.04739976
000010 c2 59 1c 3e 40 8c 70 bb da aa 61 bd a2 b4 e7 bd
       0.15268615 -0.003670469 -0.055094577 -0.1131375
000020 34 83 02 3d e8 e0 24 3e a8 4b 32 bd 78 e5 fd bc
       0.031863406 0.1610142 -0.043529183 -0.030993208
000030 54 ea b1 3d 20 91 c2 3d c8 67 8d bc 9c 09 2c 3e
       0.08687273 0.09500337 -0.0172614 0.1680054
000040 84 ce 4a 3d 2e 8a 91 3d a0 5d dd 3d e4 9a 19 bd
       0.049513355 0.07106434 0.10808873 -0.03750123
000050 d1 79 98 bd b6 6b a2 3d 14 1c 62 3d 00 87 07 bb
       -0.0744511 0.079307005 0.05520256 -0.0020679832
000060 b0 1f cc bc 7f 0b ae bd 56 b9 1a 3e 58 f6 fb 3c
       -0.024917454 -0.084982865 0.15109763 0.030757114
000070 a8 d6 16 3e 74 57 10 bd e0 0d b3 3d ed 9b cf bd
       0.14730322 -0.03523965 0.08742881 -0.10137162
000080 90 42 25 bd b0 13 58 bc 00 af 08 3c 9e 0e 87 3d
       -0.040346682 -0.013188288 0.0083425045 0.06594585
000090 12 5e a5 bd 6c 5f 02 3e f9 63 28 be c4 3e 0d bd
       -0.08074583 0.12731713 -0.16444387 -0.034483686
0000a0 12 1b a4 3d 90 60 fd bd 80 91 39 3b cc 59 e4 3d
       0.08012976 -0.123719335 0.0028315485 0.1114994
0000b0 68 aa a3 3d f8 01 2c 3e 5c b4 08 3e e8 38 2f 3d
       0.07991487 0.16797626 0.13350052 0.04277888
0000c0 0e 81 e7 bd 05 85 ad bd 15 03 24 be 24 a8 15 3e
       -0.11303912 -0.08472637 -0.160168 0.14614922
0000d0 a4 e4 de bd 5e 28 24 3e 20 d0 aa 3d 90 21 77 3d
       -0.108834535 0.16031024 0.08340478 0.060334742
0000e0 f8 bf ef 3d b4 48 b0 3d 00 8f 35 bd 0c 53 ae 3d
       0.11706537 0.08607617 -0.04432583 0.08511934
0000f0 fc 9b 29 3d 10 72 24 3d f6 64 d6 bd cc 69 0c 3e
       0.041408524 0.04014784 -0.104684755 0.13712233
000100 e8 72 26 3d 40 66 52 3c 18 de 39 3d 88 1c 81 bc
       0.040636927 0.012841761 0.04537782 -0.015760675
000110 88 2d ad bc 48 b8 d6 3c 20 e1 08 3c a6 c7 18 3e
       -0.021139875 0.026210919 0.008354455 0.1491991
000120 a4 5f 77 bd 3a 93 a4 3d c0 09 ea bc d6 75 08 3e
       -0.060393944 0.08035894 -0.028569102 0.13326201
000130 be a0 75 bd d0 87 00 bd ba 64 1f be 08 46 b8 3d
       -0.05996775 -0.03137952 -0.15565768 0.089977324
000140 30 e6 3a bd 3a 70 01 3e 02 9d 35 bd 52 a7 21 3e
       -0.04562968 0.12640467 -0.044339187 0.15786484
000150 37 ce 04 be 20 b1 0b bc 81 25 12 be 8b cc b4 bd
       -0.1296929 -0.008526117 -0.14272119 -0.08828076
000160 20 4e ec bb 80 c0 8f ba d8 84 c2 3d 73 2b bb bd
       -0.0072114617 -0.0010967404 0.09497994 -0.09139147
000170 d1 57 d6 bd fc 28 d3 bd 60 76 81 3c 34 4b e7 3d
       -0.104659684 -0.103105515 0.015803516 0.11293641
000180 c4 bd fa 3d 38 be 05 3e 68 4e a4 3c b8 56 e5 3c
       0.12243226 0.13060844 0.020056918 0.027995452
000190 99 32 8b bd 88 49 03 3e 3c fb 26 3e 50 45 04 3d
       -0.0679676 0.12821019 0.16306776 0.032292664
0001a0 20 58 f9 3d 2c 74 cd 3d aa d5 86 bd 49 fc bb bd
       0.12175012 0.10031924 -0.06583722 -0.09178979
0001b0 40 d9 4a 3c a0 2e 2c bc 0a 81 29 be 44 69 4e 3d
       0.012380898 -0.010509163 -0.16553131 0.050393358
0001c0 e9 dc 2b be 58 bc b2 3c 60 4d a7 3c 80 2e a9 bd
       -0.1678349 0.021818325 0.020422637 -0.08260822
0001d0 6c f9 9c 3d 00 1d 38 bb e2 2f cf bd b0 02 d4 3d
       0.07664761 -0.0028093457 -0.10116555 0.10352075
0001e0 19 1c d9 bd 1d 35 2c be 40 57 0d bd e6 06 7f bd
       -0.10601062 -0.16817136 -0.034507036 -0.06226244
0001f0 6c 88 f3 3d 40 ff 86 3b a0 af ad 3b 04 b7 7c bd
       0.11891255 0.0041197836 0.005300477 -0.061697975
000200 ac 58 ee 3d aa ba 09 3e 28 72 e2 3c 60 31 d1 3b
       0.116380066 0.13450113 0.027642325 0.00638406
000210 c6 3b 06 be 1c f8 92 bd 6a 57 0a 3e f8 e6 b5 3d
       -0.1310874 -0.07176229 0.13509908 0.088819444
000220 c0 70 36 3c c6 49 e0 bd d0 eb 15 bd 02 32 26 be
       0.01113528 -0.10951571 -0.03660184 -0.16230014
000230 ed 19 16 be b8 d6 de bc c0 47 d0 3d 58 42 b2 3d
       -0.14658327 -0.027201995 0.10169935 0.0870406
000240 05 df 0b be 3c 05 57 bd 48 db 00 be 13 a5 a9 bd
       -0.13659294 -0.052495226 -0.12583649 -0.082834385
000250 7b 34 1f be 90 ad 10 bc 1b cc 06 be 30 74 1f 3e
       -0.15547363 -0.008830443 -0.13163798 0.15571666
000260 10 69 70 3d 12 35 2b 3e 18 22 bc 3c c8 12 bf bd
       0.058693945 0.16719463 0.022965476 -0.09329754
000270 50 6a f6 3d f0 b9 d1 3d 2a 30 68 bd d4 7a 07 3e
       0.12031996 0.10240543 -0.056686558 0.13230449
000280 ef bb cf bd 88 d8 a7 3d 6f 4e 27 be ed c7 0b be
       -0.10143267 0.08195597 -0.16338514 -0.13650484
000290 d0 89 f3 3d 58 d4 e4 bd f9 fe a7 bd 34 b2 e3 bd
       0.1189152 -0.11173314 -0.08202929 -0.11117974
0002a0 1f 24 d4 bd ac 83 11 be 6c f4 23 3e ea 43 ea bd
       -0.10358452 -0.14210385 0.16011208 -0.11438735
0002b0 8c dc a8 3d 70 9a 13 3d 9c 6f ce 3d 63 ac 9d bd
       0.08245191 0.036035955 0.100798815 -0.07698896
0002c0 8c 5f 1d be a0 d3 4b 3c 90 d1 08 3e 2d a7 24 be
       -0.1536848 0.012440592 0.13361192 -0.16079397
0002d0 6c f6 38 bd 44 08 7a 3d 78 1c d1 bd 78 cb 2e 3d
       -0.04515688 0.06104304 -0.10210508 0.04267451
0002e0 78 5f 89 3c 9c b9 38 3d 68 9c 28 3e 80 b1 76 bc
       0.016769156 0.045098886 0.16465914 -0.015056968
0002f0 1a 7f 0e be e0 2a 2b bd c0 af e9 3d d0 58 a8 bd
       -0.13915673 -0.041788936 0.11410475 -0.08220065
000300 cc 72 fa 3d be 40 f1 bd 45 1a cf bd a0 d2 13 be
       0.12228927 -0.11779927 -0.101124324 -0.14435816
000310 00 94 fb 3b 28 e4 9d 3d 98 2f e2 3d 06 b7 04 be
       0.007677555 0.07709533 0.11044234 -0.12960443
000320 a4 70 ad 3d 26 59 11 3e 20 0e 61 3d 6b 94 8d bd
       0.0846875 0.14194164 0.05494511 -0.06913074
000330 e8 9a aa 3d 9d 86 04 be a8 ef 04 be 08 05 b1 bc
       0.08330327 -0.12941976 -0.12982047 -0.021608844
000340 40 eb 9c 3d dd c0 d8 bd 80 da 72 3d 5e 96 58 bd
       0.07662058 -0.10583661 0.05929041 -0.052877776
000350 22 d3 94 3d 19 52 9f bd 11 6d 81 bd be a5 a8 bd
       0.07266833 -0.07779331 -0.06319631 -0.08234738
000360 58 4c cb 3c 2c d2 01 bd dc 13 3f 3d 28 d4 d4 3d
       0.024816677 -0.031694576 0.0466498 0.10392028
000370 50 58 8d 3c 0e 83 0c 3e d4 a2 d6 3d 5c 1c 13 be
       0.017254025 0.13721868 0.10480276 -0.14366287
000380 ac d1 21 3d 20 04 8d 3d 16 10 21 be 86 5d b3 bd
       0.0395066 0.068855524 -0.15728793 -0.087580726
000390 80 04 16 bc 24 ba 19 be f0 a9 b9 3d 1a 61 10 be
       -0.009156346 -0.15012413 0.09065616 -0.14099541
0003a0 a8 53 09 3e 04 f2 9a 3d c8 38 8c 3c 00 64 2c bc
       0.13410819 0.07565692 0.01711692 -0.010521889
0003b0 e0 cf 7d bc 6c 40 fa bd 80 b7 f1 3b b2 29 9f 3d
       -0.015491456 -0.12219319 0.007376611 0.077716246
0003c0 b3 cb c3 bd e0 fd 41 bd 63 26 a9 bd 6c af 0d 3d
       -0.09560337 -0.047361255 -0.08259275 0.034591123
0003d0 50 90 36 3d 40 5b 3f bc 70 80 f8 3d ce e1 9b bd
       0.04457122 -0.011679471 0.121338725 -0.07611428
0003e0 4c fc 8a 3d a8 22 a8 3d d0 d7 22 3c da e1 1d be
       0.06786403 0.08209735 0.009939149 -0.15418187
0003f0 48 99 9f 3d f4 98 3d bd 34 e0 07 be f4 b3 18 bd
       0.07792908 -0.046288446 -0.1326912 -0.03728099

Model.forward_l.seq.1.layers.0.self_attn.in_proj_weight f4 [108, 36]
000000 a3 1d 8a 3e ba d0 76 3e 74 03 90 be b0 ec 38 be
       0.26975736 0.2410306 -0.28127635 -0.18059039
000010 8b 76 91 be 13 14 14 3e 31 d0 17 3e 9b 86 13 be
       -0.28410754 0.14460783 0.14825512 -0.14406817
000020 2d a4 84 be 55 48 b3 3d 3d b5 81 be 58 54 67 3d
       -0.25906506 0.087540306 -0.25333586 0.05647692
000030 b3 19 75 bd ef 06 68 3e 41 b2 a6 bc 04 02 1c 3d
       -0.05983896 0.22658895 -0.02034867 0.03808786
000040 77 26 ff 3d 7d 76 8c bc 27 89 38 be db 43 b4 bd
       0.124585085 -0.017146343 -0.1802107 -0.08802005
000050 dd 2d b5 3c 54 72 89 3c b3 0e be 3c 1a 52 20 3e
       0.022116596 0.016778149 0.023200369 0.1565632
000060 c4 53 73 3e 87 02 db bd 86 ac 82 bd fb 0a 5d 3c
       0.23762423 -0.106938414 -0.063805625 0.0134913875
000070 9f b2 08 be ab bc 8e 3c 3c e7 fe 3d 10 72 ce bd
       -0.13349389 0.017423948 0.12446448 -0.100803494
000080 b0 eb ba bd eb 29 be 3d be 27 01 3e 13 3b b2 3d
       -0.09126985 0.09285339 0.12612817 0.08702674
000090 95 ab 35 3d 57 6b 23 bd 74 18 48 3e 6e b0 0b be
       0.044353087 -0.03989729 0.19540578 -0.13641521
0000a0 6d c2 b3 3e dc 2c 76 bd 7c 8f 26 bd c9 8e da 3d
       0.35109273 -0.060101375 -0.04066418 0.10671765
0000b0 b6 99 97 3d 85 2c 4f be 7b 68 0a 3e 25 31 76 3e
       0.07402365 -0.20231827 0.13516419 0.24042185
0000c0 5b d3 49 3e 30 82 96 3d 96 23 e0 3d 9f 1f 2f bd
       0.19709532 0.0734905 0.109442875 -0.042754766
0000d0 fa 6d 74 bc a2 87 98 bd 43 87 bc 3d bf d2 aa be
       -0.014918799 -0.07447745 0.092054866 -0.33363912
0000e0 2c 58 1c 3d 11 47 c9 3b 98 3d c5 3d d5 4c c0 3d
       0.038170025 0.006142505 0.09630889 0.093896545
0000f0 d1 32 04 be 85 4f f1 bd 15 9e 2d bd e0 ac 74 3e
       -0.1291001 -0.11782745 -0.042387087 0.23894072
000100 b1 44 8a 3d 7f 9e af 3d 41 27 94 bd 26 61 87 bd
       0.06751383 0.085751526 -0.072340496 -0.066103265
000110 1d 99 aa bc 14 df 61 be 12 5b 90 3e e2 28 88 3d
       -0.020824963 -0.22057754 0.2819448 0.06648423
000120 d3 05 7d be 0f 58 46 be d8 44 78 3e ee a2 52 bd
       -0.24709253 -0.19369529 0.24245012 -0.051424913
000130 e8 27 37 3e f9 57 99 3d 49 9f 20 3e af 49 4d 3e
       0.17886317 0.074874826 0.15685762 0.2004764
000140 6a 62 7f be 9d b0 d2 bc df 54 6f be 81 30 11 3e
       -0.24939886 -0.025718981 -0.2337222 0.14178659
000150 bf 3f 7d 3e 4d 49 96 3d 0c b1 61 bd 78 37 eb 3d
       0.24731348 0.073382 -0.055100486 0.11485189
000160 e9 95 8d bd db 46 ce bc d9 35 fd 3a 04 bf 42 be
       -0.06913359 -0.02518027 0.0019318416 -0.19018179
000170 8c fc 4f be 3a ae 15 be a5 24 ca 3d 5f 04 2a be
       -0.20311183 -0.14617243 0.09870271 -0.1660323
000180 ff 39 29 3e 27 23 83 bd 5d 68 a0 bc 78 5a b0 bd
       0.1652603 -0.06403189 -0.019581014 -0.086110055
000190 a4 91 81 3e 88 46 12 be 65 1d 67 3e 41 9f 42 3e
       0.25306427 -0.14284718 0.22569807 0.19006063
0001a0 53 38 6a 3d a9 e2 2b 3e 02 ca 25 3e 84 c9 9c bd
       0.05718262 0.16785683 0.16190341 -0.076556236
0001b0 5f 8c 19 bd c5 c8 35 3e 9f 31 16 3d a4 e7 1b be
       -0.037487384 0.17752369 0.036668416 -0.15225083
0001c0 fb b1 6b bd 82 03 9c bd e2 f3 b8 bd 96 ae a5 3d
       -0.057542782 -0.076178566 -0.09030892 0.0808994
0001d0 cd 39 ee bd 7e 9e 00 bd 51 cf 69 bb cc d5 73 3e
       -0.116321184 -0.03140115 -0.0035676549 0.23812026
0001e0 2a 2e 2c be 5e 0a ee 3c d6 81 b3 bd 5d 9e d3 3b
       -0.16814485 0.029057678 -0.087649986 0.0064580874
0001f0 86 6c 65 bd af 38 a7 bd 8a 21 12 3d 26 f1 22 3e
       -0.0560117 -0.081651084 0.035676517 0.15912303
000200 56 29 3e 3e a6 b4 5e 3d 67 ce 40 be 7e da 16 3e
       0.18570456 0.0543715 -0.18828736 0.14731786
000210 ea be 19 3e 07 25 70 bd 18 a1 1d 3e 2f f2 05 3e
       0.15014234 -0.058629062 0.15393484 0.13080667
000220 84 07 bb 3d 0a ac 15 be ca 0d 83 3e 21 dc 83 be
       0.09132293 -0.14616409 0.25596458 -0.25753883
000230 0f 2d ae 3d 2a 7a e9 bb 62 af 02 3e dd dc 17 be
       0.08504688 -0.007125159 0.12762216 -0.14830346
000240 5c d4 e7 bd 88 0b 4b 3e e6 04 09 be 51 15 13 be
       -0.11319801 0.19828618 -0.13380775 -0.143636
000250 90 33 5e be 01 45 cb 3d c4 71 c1 bc 74 34 f7 3b
       -0.21699357 0.09925271 -0.023613818 0.0075440947
000260 38 f2 b2 3d 92 13 e3 bd ee 70 f4 3d 6a 81 00 be
       0.08737606 -0.11087717 0.11935602 -0.12549368
000270 77 42 76 bd 5e c8 e7 bb ec 28 30 be 59 53 21 3e
       -0.06012198 -0.007073446 -0.1720311 0.15754451
000280 fc b6 47 bd c2 45 9b 3d 49 62 cf bc cc a3 1e bd
       -0.048758492 0.075816646 -0.02531542 -0.038730428
000290 59 b9 34 3e d1 b1 e0 3c bb c6 b3 3d 1a a3 45 be
       0.1764883 0.02742854 0.08778139 -0.193005
0002a0 b5 11 04 3e e1 92 7e 3c 1c a7 fe bd 0c af 55 3e
       0.1289738 0.015537948 -0.12434217 0.20867556
0002b0 f7 11 ab bd 59 44 17 be dc 2b 57 3e 3c c2 50 be
       -0.08353036 -0.14772166 0.21012825 -0.20386595
0002c0 85 4e 40 3e c6 f4 ef bd d3 08 08 be 72 c0 1d be
       0.18779953 -0.11716609 -0.13284616 -0.15405443
0002d0 59 6c 35 3d 29 1b 98 3e 6b b1 db bd f5 5c 2f bd
       0.04429278 0.29708222 -0.10727199 -0.04281326
0002e0 cf d6 50 be b2 64 11 be e4 2d 9e 3d f1 d7 53 3e
       -0.20394443 -0.14198568 0.07723597 0.20687844
0002f0 29 1d 97 bd 57 46 10 3e df 17 bc bd 7c fc e0 bc
       -0.07378609 0.14089333 -0.091842405 -0.027464144
000300 46 8c 40 be 1e 60 b2 3e 87 fb 7d be 3b bb a8 3d
       -0.1880351 0.34838957 -0.24802981 0.082388364
000310 d2 28 a8 3d 83 f7 01 3e 23 0d 1d 3d 24 f1 d2 3d
       0.08210911 0.12692074 0.038342606 0.102999
000320 9c 34 5f 3c 92 bb 01 be 8c df 9e 3c fc 85 ff bd
       0.013623383 -0.12669209 0.019393705 -0.12476727
000330 29 53 ca 3d 5f 5b fb 3c 90 7c a1 3e 73 4a 81 3c
       0.09879143 0.030683218 0.31540346 0.01578257
000340 0d 59 11 3e 83 ca 68 3d 67 0d 0f 3e 51 ba 03 be
       0.14194126 0.056833755 0.13969956 -0.12864043
000350 4f da e0 bd 39 c4 53 3e 29 09 d2 bd 87 53 c5 bd
       -0.10979139 0.20680322 -0.102556534 -0.09635072
000360 c6 87 91 3d fd 6e 2b be d0 6f 83 bd 6f 1f af 3d
       0.07105975 -0.16741557 -0.06417811 0.08550917
000370 bb a6 75 3d 3c c7 33 be 9c 48 da bd a3 98 f4 bd
       0.05997346 -0.1755647 -0.106583804 -0.11943176
000380 29 c4 04 be 02 a5 37 3e 3a b2 5e 3e 58 4b eb 3d
       -0.12965454 0.17934039 0.21747676 0.1148898
000390 03 27 a2 bd 71 d9 70 be 12 34 39 3e 81 de 1d bd
       -0.07917597 -0.23520447 0.1808627 -0.038542274
0003a0 81 09 94 3d cb 73 0a be 7d 45 d8 3d 40 57 cd 3d
       0.07228375 -0.13520734 0.10560129 0.10026407
0003b0 29 a0 72 3e d4 79 4c 3e ed 33 06 3d 09 11 64 bd
       0.23693909 0.19968349 0.032764364 -0.05568031
0003c0 a7 06 46 be 2b 46 05 be c4 83 00 3e c8 82 6c be
       -0.19338475 -0.13015048 0.12550265 -0.23096764
0003d0 18 d8 17 bd 7d a2 21 be 0c a7 1a 3d 9c 78 43 be
       -0.037071317 -0.1578464 0.037756965 -0.19088978
0003e0 84 2c be 3d 0f 37 ad 3d 2a 2d af 3d f8 dc 29 3d
       0.092858344 0.08457767 0.08553536 0.041470498
0003f0 8e b8 31 be d8 86 d2 3d 36 5e 16 bc 5b 1a 5e 3e
       -0.17355558 0.10279626 -0.009177735 0.21689741

Model.forward_l.seq.1.layers.0.self_attn.in_proj_bias f4 [108]
000000 0f 70 97 3d ed 00 0f be a8 62 ed bc 15 52 5c 3d
       0.0739442 -0.13965197 -0.028977707 0.053789217
000010 86 2a 40 3d ad 3e 0d 3e b6 10 10 bd 6d 00 b0 bd
       0.046915554 0.1379344 -0.035172187 -0.08593831
000020 99 3b b4 3d c2 46 71 bc 7b 19 a9 3d 20 21 a0 bd
       0.0880043 -0.014726343 0.08256813 -0.07818818
000030 be 72 03 3e 2f a5 e2 bc c8 34 a9 3c 9e 7c 81 bd
       0.1283674 -0.027666656 0.02065505 -0.06322597
000040 99 16 8b bc 72 9c c7 3d d6 f4 11 bd 82 04 97 3d
       -0.016978549 0.097466365 -0.035633884 0.07373907
000050 80 be 1c 3d f6 5b e5 3d 87 ad 0e 3e 7e 03 3f 3e
       0.038267612 0.11199181 0.13933383 0.18653676
000060 96 64 6e 3d 94 c2 3b 3c 19 ce 2d bd 96 06 4f 3d
       0.058201395 0.011459965 -0.04243288 0.05054339
000070 43 aa 31 bc 3b ae 8e 3d 13 91 e4 3c 69 64 1e bd
       -0.010843816 0.069668256 0.027901208 -0.038669977
000080 63 ce 4c bc 44 25 1f 3c 4d 4b 4f bd 5c ce 91 bd
       -0.012500378 0.009713475 -0.05060892 -0.07119438
000090 8d 03 ac bc 70 d3 2d 3d a3 20 91 3d f7 b0 58 bd
       -0.020997787 0.04243797 0.07086303 -0.05290314
0000a0 b6 4a 27 bd a7 81 72 bd ee 50 e9 bb 4d 53 f4 3c
       -0.040842734 -0.059205677 -0.0071202433 0.029824877
0000b0 b1 8f e6 bc 8d 81 73 3c ad d4 3c bc cf c3 e5 3b
       -0.02814469 0.01486243 -0.011525315 0.0070118676
0000c0 e8 7a 64 3c 11 f3 03 bd 5b 24 81 bb f4 50 43 3d
       0.013945319 -0.032214228 -0.0039411015 0.047684625
0000d0 13 67 f3 3c 2a 8f e6 3c 36 bd ab bd e1 17 71 3d
       0.029712236 0.028144438 -0.083856985 0.058860663
0000e0 e6 cc 7f 3c b1 33 31 3e 2a 0c 53 3e bc 3e 3b 3e
       0.015612816 0.17304875 0.20610109 0.1828565
0000f0 c2 dd 11 bc 1e 1b 8d 3d 35 0b ea bc 6d a4 2f 3d
       -0.008902969 0.06889938 -0.028569797 0.042881418
000100 e2 a3 0f 3d be d1 4e 3d b3 4e de 3c 15 fc 03 bc
       0.0350684 0.050492994 0.027137136 -0.0080557065
000110 a8 e9 ed 3c 76 5e 3b 3d 91 75 ca 3c df f1 81 3c
       0.02904208 0.04574438 0.024714263 0.015862403
000120 0c eb 5e 3c bd 1e 40 ba a6 2d b7 bc 5c bd 30 bc
       0.013605844 -0.0007328799 -0.022360634 -0.010787334
000130 f2 a2 f1 3b a4 cb f4 3a 50 74 06 3c 37 87 32 3c
       0.007374161 0.0018676412 0.008206442 0.010896496
000140 3a b7 80 3b 5a 14 85 3c 74 40 a0 3c 0a 28 d1 bb
       0.0039280923 0.016245056 0.019561984 -0.006382947
000150 bb 80 b4 3c 72 1c de 3c da 52 92 bb cb 93 5f b8
       0.02203404 0.027113173 -0.004465443 -5.3304986e-05
000160 c7 e6 81 3c 67 64 ce bc f0 a9 35 3c d8 13 71 3a
       0.015857114 -0.02519436 0.01108788 0.00091963774
000170 bc a4 0e bc 05 c5 b6 ba 78 b3 6e 3c 81 bf 8f ba
       -0.008706268 -0.0013944214 0.014569156 -0.0010967107
000180 91 25 86 bc da 98 9c bc aa ba cf 3c ce 73 d1 3c
       -0.016375335 -0.019115854 0.025357563 0.025567915
000190 89 ee f3 bb de 73 c6 3c 3b a0 c7 3c d1 59 67 3b
       -0.007444207 0.024225172 0.024368396 0.0035301337
0001a0 21 0e b0 bc c0 96 e7 3b 86 8d 9e bc 5a 37 b2 3c
       -0.021491112 0.0070675313 -0.019354593 0.02175491

Model.forward_l.seq.1.layers.0.self_attn.out_proj.weight f4 [36, 36]
000000 56 07 76 3d 13 1e bb bd b2 bc 21 3e ff b3 0c be
       0.06006559 -0.091365956 0.15794638 -0.13740538
000010 51 c7 48 be d6 70 84 3e 24 bc a7 3e f9 ee 3a 3e
       -0.19607283 0.25867337 0.32760727 0.18255223
000020 94 6b 49 bd 92 f5 91 3e 3a 1c e7 bd 18 9a 40 be
       -0.04917486 0.28507668 -0.11284681 -0.18808782
000030 31 e6 8d bd 48 64 1f 3e f3 27 a7 3d 7e 23 ca 3d
       -0.06928671 0.15565598 0.081619166 0.09870051
000040 cd e7 e3 3d eb ed 0a 3e 61 99 16 3c 9a fc f7 bd
       0.11128197 0.13567321 0.009191842 -0.12108727
000050 80 29 be bc d8 13 7b bd 1b 6e 90 3e 31 18 6f 3e
       -0.023213148 -0.06129822 0.28209004 0.23349072
000060 7c 73 0f be d0 8b 9a 3e 18 7b 52 3e b1 41 24 3c
       -0.14008898 0.30184793 0.20554769 0.010025428
000070 f2 23 13 be 60 c1 8a 3d fe 25 3e 3e 39 a0 97 3e
       -0.14369181 0.067751646 0.1856918 0.29614428
000080 b3 62 a3 be 8c df 10 3e 2b ed d4 3c b8 ba 86 3e
       -0.3191124 0.14147776 0.025991997 0.2631433
000090 55 b7 c9 3d b1 d4 88 bd 56 1e 55 be 15 45 68 be
       0.09849421 -0.06681193 -0.20812353 -0.22682603
0000a0 b9 fc 92 bd 1b d1 4f 3e 42 0d 47 be bb d8 f2 3d
       -0.07177109 0.20294611 -0.19438651 0.11857744
0000b0 b1 4f 4b 3e 1b 15 af bd 5b ed 7e 3e b2 6f 39 3e
       0.19854619 -0.085489474 0.24895231 0.18109015
0000c0 a7 b2 41 3c 2b 5d 9a 3e 93 cc ad bb f7 d8 50 be
       0.011822379 0.30149207 -0.005303928 -0.20395266
0000d0 fc 7b 07 3e 01 1e b3 3b ec 9f 17 3e 2d 8c 34 bc
       0.1323089 0.005466223 0.14807099 -0.011019749
0000e0 b3 1a 83 be 4a 55 79 3b 65 87 90 3e 01 d8 8d be
       -0.25606307 0.003804522 0.28228298 -0.2770386
0000f0 b9 0e 11 be 92 94 06 be 85 af 30 3e e2 ae 9b 3d
       -0.14165772 -0.13142613 0.17254455 0.076017156
000100 5d 1e bd 3c 7a 83 09 3e b7 b0 17 3d 3d 95 65 bd
       0.023085767 0.1342906 0.037033763 -0.056050528
000110 0b 03 2f 3e 40 3b 87 be 80 34 68 3e 4f 83 14 3e
       0.17091005 -0.26412392 0.22676277 0.14503215
000120 04 e1 cb 3d 86 dc 03 be ae ab 20 3e 64 81 2e 3e
       0.09955028 -0.12877092 0.1569049 0.17041546
000130 b0 57 28 be 00 d2 f8 bd 85 21 e7 3d 75 f4 52 be
       -0.164397 -0.12149429 0.1128569 -0.20601065
000140 6b 01 e1 bd ec a4 d8 3d e9 42 56 bd 91 c4 10 bd
       -0.109865986 0.10578331 -0.052309904 -0.03534371
000150 57 36 6e be b3 65 15 bd d3 47 cb 3d 9f a4 0b 3e
       -0.23262917 -0.03647394 0.09925809 0.13637017
000160 97 de ea 3d c3 bf 78 bb d2 a7 e0 bd d7 17 18 3e
       0.11468237 -0.0037956096 -0.10969509 0.14852844
000170 7f ab ff bd ff 02 69 be 55 0e 2a 3d f9 5c 5c be
       -0.12483882 -0.22755049 0.041517574 -0.21519841
000180 d0 fb ec 3d 6e 7b 38 3e c3 0e 88 be fa bc 59 3e
       0.11571467 0.18015835 -0.26573762 0.21263495
000190 1d da 8d bd 66 94 0e be c5 fd 6f 3e 2c ae 11 be
       -0.069263674 -0.13923797 0.23436649 -0.14226598
0001a0 72 95 1f bd fe f0 2b 3e 08 73 88 3e 3c ac b1 bd
       -0.03896088 0.1679115 0.26650262 -0.08675429
0001b0 6c ea 1c 3e 78 56 67 be 72 e4 93 3d 17 b3 92 bd
       0.153238 -0.22591579 0.07221307 -0.07163065
0001c0 90 88 90 be cd 17 36 3e 44 72 4c bd 8a c2 82 3e
       -0.2822919 0.17782517 -0.04991366 0.25539047
0001d0 79 39 06 bd 74 02 39 be 4d f7 37 be 3f aa 2f 3e
       -0.032769654 -0.18067342 -0.17965432 0.17154787
0001e0 7f 96 c1 3c 15 2c a8 3d 93 03 02 be 57 8e cd 3d
       0.023631332 0.08211533 -0.12696676 0.10036915
0001f0 e0 a8 31 be 4c 75 ff bb b3 c2 6f be 73 2e f5 3d
       -0.17349577 -0.0077959653 -0.23414116 0.1197175
000200 dc 5c 6c 3d 5e c7 02 3d fb 52 48 be 7c d3 bd bc
       0.057705745 0.031928413 -0.19562905 -0.023172133
000210 83 72 ce 3d f5 34 78 3e 61 d1 da 3a b6 0d 03 be
       0.10080435 0.24238952 0.001669448 -0.12798199
000220 8f 48 40 be 64 ef 72 bd fb 3b 73 bd b9 7c 4d 3e
       -0.18777679 -0.059310332 -0.059383374 0.20067109
000230 5f cd 64 3e 5a be e9 bd 36 6e d9 3c af 4a 99 be
       0.22343968 -0.1141326 0.02654181 -0.29939792
000240 c9 a5 4b be 06 16 9d 3d e8 70 60 be 33 ce 80 3d
       -0.19887461 0.07670216 -0.2191807 0.062893294
000250 56 42 5e 3e ec f2 8f 3e 6a a0 1e bd 7d 7b 03 bd
       0.21704993 0.28115022 -0.0387272 -0.03210019
000260 bf 4b 29 3e ef b4 36 bd 3c a0 e3 3d be e6 b6 bc
       0.16532801 -0.044606145 0.11114547 -0.022326823
000270 5b 0f c1 bc 44 78 9c be 0f 2d 37 3d 9a 78 3d be
       -0.023566892 -0.30560505 0.044720706 -0.18503037
000280 48 72 83 be e2 1a 51 3e c8 04 2f be 43 c6 d7 bd
       -0.25673127 0.20420411 -0.17091668 -0.10535862
000290 77 e0 87 be 2e 26 3d be b6 ec 08 3e 96 20 2f be
       -0.2653844 -0.18471596 0.13371548 -0.17102274
0002a0 03 35 fb 3d ee 7d 05 3d 08 1b b2 3d 91 7a bc 3c
       0.122659706 0.0325908 0.08696562 0.023007663
0002b0 6e 97 6a 3e 7a 05 6d bd e9 11 2b 3e 15 12 6c 3e
       0.22909328 -0.05786655 0.16706051 0.23053773
0002c0 fb 4e 43 3c b8 6d 81 3d c8 20 36 3c bb 92 0a be
       0.011920686 0.06319755 0.011116214 -0.13532536
0002d0 f7 e6 52 3e 5d fb ec 3b e2 a7 81 3e 20 ed 5b be
       0.20595919 0.0072321133 0.25323397 -0.21477175
0002e0 cb 9d 77 3e 64 4e 7a 3d a3 64 58 bd 1f f3 b5 bd
       0.24181287 0.061109915 -0.05283035 -0.08884262
0002f0 b7 c5 32 3d 2f e5 e5 3d 05 b2 d3 bd 46 f0 34 be
       0.043645587 0.11225354 -0.10336689 -0.17669782
000300 06 3b 78 be b1 41 39 3e b4 97 7d bc be 46 79 3d
       -0.24241266 0.18091466 -0.015478063 0.06085848
000310 e3 e4 78 be 11 25 4d be ff a1 63 be f7 e5 fb 3d
       -0.24306063 -0.20033671 -0.22229765 0.12299722
000320 3e ed 6a be 59 dd 45 3e c8 a6 05 3e d0 4a ef bc
       -0.22942063 0.19322719 0.13051903 -0.029210478
000330 38 43 da 3a 11 50 02 3e c7 4f 3e 3e 1a c9 9f 3e
       0.0016652113 0.12725855 0.1858512 0.31208116
000340 a4 74 73 bb 6f 20 11 bd 21 7b 6e bc 31 1b 23 bd
       -0.003714838 -0.03543132 -0.014555723 -0.039820854
000350 6b 47 3c 3e c3 10 0c 3c de 5f 37 3e 63 bb 52 be
       0.18386619 0.008548918 0.17907664 -0.20579295
000360 08 0e 38 3e d4 b4 5c be 04 9e 83 bd d0 02 71 3e
       0.17974102 -0.21553355 -0.064266235 0.23536229
000370 ea b1 ef 3d 05 0e 86 3e ce 7f 2d 3e 49 20 87 be
       0.11703856 0.2618257 0.16943285 -0.2639182
000380 6b e3 df 3d 0e 15 6b bd f5 18 8a 3d 22 28 2b be
       0.109320484 -0.057393126 0.067430414 -0.16714528
000390 ff 81 b9 bd ae 6a e6 3d 59 19 91 3d 28 ac a1 3d
       -0.09057998 0.11250816 0.07084913 0.07894164
0003a0 ba e6 b1 be fe 3a 01 be b7 80 8b be 4c ae ce bd
       -0.34746343 -0.1262016 -0.2724664 -0.10091838
0003b0 d4 a1 7e 3e 16 b4 02 3e 83 00 55 3e 23 b3 21 3e
       0.2486642 0.1276401 0.20800976 0.15790991
0003c0 72 d0 4e 3e fe da 67 3e 74 e1 18 3e 88 8b 05 bc
       0.20196703 0.22642133 0.14929754 -0.008150943
0003d0 e7 95 d0 bc 2a 58 28 3e 78 76 33 be 0e ac 8d 3e
       -0.025462104 0.16439882 -0.17525661 0.2767033
0003e0 d9 e1 5d 3e d7 13 0d 3d 26 5c 55 3e f5 27 92 be
       0.21668185 0.03444275 0.20835933 -0.2854611
0003f0 b4 39 e7 39 7e 7c fe bb 59 28 14 be cd ab 5f 3e
       0.00044102746 -0.0077663055 -0.14468516 0.2184288

Model.forward_l.seq.1.layers.0.self_attn.out_proj.bias f4 [36]
000000 7a fe 00 3d c9 c6 c8 3c f8 4c 58 bc 97 bc 28 bc
       0.031492688 0.02450885 -0.0132019445 -0.01029887
000010 32 c9 a7 bc 71 2b 65 bd 07 13 9f 3a 92 43 e6 3c
       -0.02048168 -0.055949632 0.0012136408 0.028108392
000020 96 30 09 ba b8 66 00 3c bb d1 80 3c c5 3d 49 bc
       -0.0005233375 0.00783699 0.015725007 -0.012282793
000030 cf f3 e3 3b 81 4c e1 bc 7b 0b d6 3a 5c 1e 9a 3c
       0.0069565545 -0.0275023 0.0016330326 0.018813305
000040 a6 14 83 bb 23 f0 42 3a 3b 3b f9 bb 85 26 9c bc
       -0.004000264 0.0007436296 -0.007605938 -0.019061336
000050 d2 65 68 3c 41 fd 0d bc 4e f5 4b bb 03 9e b1 bb
       0.014184432 -0.0086663375 -0.0031121555 -0.005420448
000060 e1 e4 86 3c a5 31 b4 bc 61 0c f6 3c 17 34 70 3b
       0.01646656 -0.021996329 0.0300352 0.0036652142
000070 8a 26 2e bc 9a cc 0d bc f7 64 e2 bb 09 fc 7c bc
       -0.010629306 -0.008654738 -0.0069090086 -0.015440949
000080 4d 55 ee bb d7 80 8e 3b 19 48 6f bc df fa 8b 3b
       -0.0072733522 0.004348855 -0.014604592 0.0042718495

Model.forward_l.seq.1.layers.0.fc1.weight f4 [144, 36]
000000 d3 fe c2 bd 58 b0 6d 3c 47 58 be bd a4 16 97 3d
       -0.0952126 0.014507376 -0.09294181 0.07377365
000010 9a bb 15 3e 90 0f cc bd 86 0c ac bd 39 af 79 3d
       0.14622346 -0.09963906 -0.08400826 0.06095812
000020 b8 9f 35 be 7c 6d f6 bd 88 39 1a 3c 5c a0 c2 3d
       -0.17736709 -0.12032601 0.009413131 0.095032424
000030 dd 2a 09 be 07 41 01 be 88 4f e9 bd 92 95 5b bd
       -0.13395257 -0.12622462 -0.113921225 -0.05360944
000040 1d 96 03 be db 66 da bd ec 1d df bd bc 24 42 be
       -0.12850232 -0.106641494 -0.10894379 -0.18959326
000050 35 33 24 be 48 77 89 bd 49 15 de 3d 27 39 ac bd
       -0.16035159 -0.06712204 0.108439036 -0.084093384
000060 16 d6 4e 3e 40 67 94 bd b5 68 fd 3d 83 bd 3f bd
       0.20198855 -0.07246256 0.12373487 -0.04681159
000070 72 59 50 3c 00 e3 c9 3a 55 e3 a1 3d 8b d9 d4 3d
       0.012716638 0.0015402734 0.07904688 0.103930555
000080 78 74 92 bd 38 aa 4d 3d 77 54 27 be c5 a6 a5 bd
       -0.07151121 0.05021116 -0.16340815 -0.080884494
000090 32 03 00 be 3a 32 db 3d aa ef d8 bd 22 c6 52 bd
       -0.12501219 0.10702939 -0.10592587 -0.051458485
0000a0 58 c4 4f be 59 fd af 3d 99 82 2a be 43 fc 14 3c
       -0.20289743 0.08593244 -0.16651382 0.009093347
0000b0 f2 a6 19 be 23 6a ab bd 79 58 1c be 21 c0 53 bb
       -0.15005091 -0.08369853 -0.15268125 -0.0032310563
0000c0 38 a6 39 be de 92 22 be 9f 00 c7 3d 50 03 16 3d
       -0.18129814 -0.15876338 0.09716915 0.036624253
0000d0 69 5d 22 be c6 3b 72 3d 25 77 07 3e 42 2d 3c be
       -0.15855946 0.059139036 0.13229044 -0.1837664
0000e0 00 45 1a 3e b6 86 c5 3c 37 25 50 be 8f 7b 46 3e
       0.15065384 0.024112087 -0.20326696 0.19383071
0000f0 1b ee 22 3e 70 ee 08 be 3f 02 1c 3e f4 73 3b be
       0.15911143 -0.13372207 0.15235232 -0.18305951
000100 22 72 a3 bd 26 5d 2c 3d 9d a8 d5 3d 6a d9 36 3e
       -0.079807535 0.04208102 0.10432551 0.17856374
000110 9d ce 05 3d db b3 7f bb 76 6b ed bd ad f9 9f bd
       0.032667745 -0.0039017114 -0.11592762 -0.07811294
000120 a6 f2 d7 bd 39 10 26 3e da 1e d6 bc 48 e9 8d bd
       -0.105443284 0.16217126 -0.026137758 -0.069292605
000130 26 6d 12 3e 02 1f 93 3d 65 94 c5 bc 28 32 3c bb
       0.1429945 0.07183649 -0.024118612 -0.002871642
000140 48 74 07 3c 25 46 fd 3d b8 e3 1d 3e de 3a e7 bd
       0.00826747 0.12366895 0.15418899 -0.11290525
000150 9a f1 97 bb a8 85 26 3e d5 a0 6b bc ef c3 37 be
       -0.0046369554 0.16261923 -0.014381607 -0.17945836
000160 40 8d d4 3d 1b 72 6d 3c 82 d5 df 3d d9 6f 8e bc
       0.10378504 0.014492537 0.10929395 -0.017387317
000170 00 71 ea 3d ed a3 8a bd 75 f2 16 bd 54 a8 f3 bd
       0.11447334 -0.067695476 -0.03685232 -0.118973404
000180 bb 61 d2 3d 2d 16 7a bd 62 2c a3 3d 2d 66 2f 3d
       0.10272547 -0.061056305 0.0796745 0.04282205
000190 0d e0 27 be 49 31 c9 bd 48 12 98 bd 50 73 0d 3e
       -0.16394062 -0.098238535 -0.07425362 0.1381352
0001a0 35 42 22 be a2 bc 90 bd e6 d1 84 bc 66 5d 16 3e
       -0.15845568 -0.07067229 -0.016213369 0.14684066
0001b0 97 ce fd bd 25 7e da bd b8 0c 19 be 98 6f b7 bd
       -0.123929195 -0.106685914 -0.14946258 -0.08956832
0001c0 e8 1c 31 bd 6b 69 07 3d f8 fb 41 bc fa 29 3a be
       -0.043240458 0.03305952 -0.011839859 -0.18180075
0001d0 72 c4 53 bd aa 3e 33 3e 44 ae 28 3e 24 74 fc 3c
       -0.051701017 0.17504373 0.16472727 0.030817099
0001e0 c1 45 1b 3e 22 81 87 bd 57 a5 ec 3c 43 ae 2d bd
       0.15163328 -0.06616427 0.028887434 -0.042402517
0001f0 4c 00 a1 3d 76 10 eb bd bd e4 96 3d 3f af ff bd
       0.07861385 -0.11477749 0.07367847 -0.124845974
000200 64 f2 40 be d9 cd 1d 3d 29 c3 97 bd 16 53 e5 bd
       -0.18842465 0.03852639 -0.07410271 -0.11197488
000210 9a 91 f2 bc 68 4c 0d 3e 74 6c f1 3d 78 d0 f3 3d
       -0.029610444 0.13798678 0.11788264 0.11904997
000220 04 ca 24 3e e8 38 e6 3c f8 b0 fa bd 35 b8 1f 3d
       0.16092688 0.028103307 -0.12240785 0.038994033
000230 89 85 00 bc 4e 08 2a bd 3a 3d fa bd dd 28 6b 3d
       -0.007844337 -0.041511826 -0.12218709 0.057412017
000240 49 7a 3d 3e e7 a8 f2 3d be 64 3c 3e d5 1f 9d bc
       0.1850368 0.11848622 0.18397805 -0.019180218
000250 47 f2 06 bd b1 83 5c 3d ae c9 d9 bd c4 c3 c8 bd
       -0.032945897 0.05383653 -0.106341705 -0.09802964
000260 b8 8b 91 3d 55 61 b5 bd 60 fd c2 3c 4a 35 2a 3d
       0.07106727 -0.08856455 0.02380246 0.041554727
000270 82 e1 8d bd 34 c4 38 bd dc 99 ea ba 7f ff e0 bd
       -0.06927778 -0.04510899 -0.0017898637 -0.10986232
000280 bb 38 88 bd a7 5a 24 be 45 8a 8f 3d a7 6d ea 3d
       -0.066514455 -0.16050206 0.07008795 0.11446696
000290 fc 3c 0e bd f1 f8 00 be 73 55 ec bc 82 3b 54 3d
       -0.034726128 -0.12594964 -0.02884934 0.051814564
0002a0 d9 46 0a bd aa 13 0d 3c 71 0b 2c 3e ca 23 a9 bc
       -0.03375897 0.008610645 0.1680124 -0.020646948
0002b0 3a 33 00 be 92 e5 74 3d 82 a9 bb bd 0c 97 2d be
       -0.12519541 0.059789248 -0.091631904 -0.16952151
0002c0 1a af 07 be 28 11 17 be d7 7e 97 bc 62 33 ae bb
       -0.1325039 -0.14752638 -0.0184931 -0.005316184
0002d0 c2 db ba 3d 18 6b 35 bd 07 75 d1 bd 1c fe 16 be
       0.09123947 -0.044291586 -0.10227399 -0.14745373
0002e0 e7 7c 97 3c c4 ec 02 3c d8 bd 2c 3e a5 c2 db bd
       0.018492175 0.00799102 0.16869295 -0.10730485
0002f0 ba a2 0a 3e 20 c0 7c bd 15 99 2e 3d 16 f2 62 3d
       0.13538638 -0.061706662 0.04262646 0.055406652
000300 11 25 c0 3d 3c 4e a2 bd 35 9a fb bd 42 7e ed 3d
       0.0938207 -0.07925078 -0.12285272 0.115963474
000310 08 d0 3f 3e 0e da 7e bd 91 f8 93 bd 10 1a a6 3c
       0.18731701 -0.062219672 -0.07225145 0.0202761
000320 a7 38 13 3e 4a 68 2b 3e 9a c9 65 3d f1 cb c4 bd
       0.1437708 0.16739002 0.056100465 -0.09609211
000330 7b ad ac 3d 8e 43 ff bb 48 2c ba 3b fb e5 01 3e
       0.08431526 -0.0077900356 0.0056815483 0.12685387
000340 ba 23 92 bd e9 21 3e be 5f 77 85 3d 8e d3 29 be
       -0.071357206 -0.18567623 0.06516909 -0.16584608
000350 05 e5 16 3e 43 1c ef 3d 72 58 55 bc d9 55 51 3d
       0.14735802 0.11675312 -0.013021575 0.05110726
000360 9a de c9 bd 02 02 db 3d 47 22 1d 3e cb a3 8b bd
       -0.09856911 0.10693742 0.15345107 -0.068183504
000370 29 90 94 bc 9b c0 37 3d 6e fc 22 3e 1d aa 35 bd
       -0.018135147 0.044861417 0.15916607 -0.044351686
000380 5b d8 09 3e fd b5 6d bd cf a6 19 be 28 df 5e bd
       0.1346144 -0.058034886 -0.15005039 -0.054412037
000390 ae cc 40 3d 19 5a 08 3e c2 25 42 be b1 a2 6f bd
       0.047070198 0.1331562 -0.18959716 -0.058504764
0003a0 48 69 6b 3d c4 66 88 bd e1 41 ce 3d 26 83 5c 3d
       0.05747345 -0.06660226 0.10071159 0.05383601
0003b0 3f 94 ab bd 3c 8c e4 b9 cb 82 98 bd b3 c2 2d 3e
       -0.08377885 -0.00043592032 -0.07446822 0.16968803
0003c0 28 56 08 be f9 66 57 bb bc 3c 3d 3d a5 52 a9 bd
       -0.13314116 -0.0032867773 0.0462005 -0.08267716
0003d0 44 20 c2 3d 8e 46 15 be a1 eb 11 3e e9 42 2a bd
       0.094788104 -0.14577696 0.14250042 -0.041567717
0003e0 1f 92 29 be 8b 30 e4 bd 25 0d b7 bd a1 f3 af 3d
       -0.16559647 -0.11142071 -0.08938054 0.085913904
0003f0 3b 81 ea bc 2b e4 da 3d fe 81 75 bc 1f 34 e0 3d
       -0.028626075 0.10688051 -0.014984606 0.10947441
