pretrained_model/A6_MulT_ti_pretrained_model.pth (torch, 335010 bytes, 60 tensors)

Model.proj_l.weight f4 [30, 768, 1]
-0.038896054 0.09094038 -0.06319307 -0.003196178 0.16465876 -0.13918942 -0.049373917 -0.0093496535
0.06202579 -0.0348521 0.55050987 -0.050105672 -0.078464985 -0.053679317 -0.14010742 -0.045233972
-0.11702399 0.82107824 -0.387863 0.19368337 0.040166453 0.024914784 0.24211654 0.2914064
-0.09141133 -0.08686881 0.1343091 -0.100110225 0.074361034 0.03480609 -0.28824145 -0.1456414
-0.028035667 -0.0054391413 -0.14318392 -0.14343852 -0.25208676 0.0034691785 0.0039481083 -0.078043535
0.2254631 0.007894814 -0.032455157 0.024794549 0.061390784 -0.027416445 0.12861007 0.102179855
0.2609392 -0.11931733 0.41401777 -0.058715288 -0.055803347 -0.19722131 -0.08779034 0.0023439091
-0.035507586 -0.05311091 0.022733307 0.015232156 0.009963459 -0.03443093 -0.22568348 -0.38783216
-0.07672484 0.10560438 -0.18948433 -0.0019359258 -0.11141174 -0.002570853 0.20129153 0.078469954
-0.14216883 0.06262369 -0.26571864 0.09977299 -0.55709475 -0.02238202 -0.031535063 0.075237244
-0.055030044 -0.090241484 -0.3017929 0.16529894 0.0138348425 0.16761807 -0.04018667 0.014187723
0.09971203 0.006387017 -0.100723036 0.15967354 0.097793214 -0.11558111 -0.30679092 -0.012801461
-0.16691823 0.03713721 -0.100742936 0.2640294 -0.0023973216 0.17744443 -0.028382264 -0.22022606
-0.26569185 0.11345504 -0.4021083 -0.09561613 -0.050716434 -0.2661544 0.1329022 -0.10738561
-0.6483497 -0.07986282 0.06881183 0.2044552 -0.06721151 0.048112962 -0.08456713 -0.054542597
-0.10178344 -0.11168518 0.50016195 0.53620565 0.05288162 -0.006571628 0.01883963 -0.011571379
0.36807048 -0.3377256 0.50141263 0.15018205 -0.047579676 0.12028474 -0.019890158 0.021405537
-0.035934214 0.3695177 0.055374354 -0.20972906 -0.2445071 0.48465025 -0.08765808 -0.032037143
-0.0747139 0.032143354 0.0006852202 -0.15025115 0.15766253 0.044488568 -0.06342521 0.10552143
0.055583835 0.031214178 0.23034382 -0.23126242 0.0058051506 0.04161717 0.11972306 0.001530024
-0.28331354 0.16881046 0.15522875 0.07711899 0.1043164 -0.12963356 0.19496585 -0.068833955
-0.30450028 0.01934945 0.15335001 0.016076347 -0.101444304 0.039692804 -0.002307281 0.06030281
0.02831947 -0.19536735 0.017647432 -0.13815431 -0.23506415 0.21968119 0.13536212 -0.13649116
0.015932154 0.05066806 0.07110393 -0.18153174 -0.15405653 -0.30441192 -0.051023893 0.13034812
0.151971 -0.09990225 -0.15104076 -0.022668052 0.24812773 0.18910831 0.052158203 -0.10150877
-0.007846071 -0.030577408 0.058289606 0.26618913 -0.069697246 -0.12458062 0.37197408 0.04839939
-0.0153756915 -0.04872824 0.0633759 0.3894232 0.13536517 -0.09669928 -0.19205026 0.057138223
0.34432662 0.22240609 0.019252244 -0.03407176 0.023429576 0.09057954 0.34634337 0.5907321
0.13464193 -0.0088925455 0.017026166 -0.11633433 -0.01429247 0.09622163 0.6958615 0.04104388
-0.45310828 0.18240277 -0.26255846 -0.2672925 0.15793844 -0.026552461 -0.14387621 0.17634007
-0.05498547 -0.1486482 -0.17606816 -0.088316314 0.13140069 -0.08103071 -0.010436254 -0.011132404
-0.14644699 0.11529194 0.020787962 -0.12789959 -0.09008708 -0.040210593 -0.15389824 0.34804946
00000000: 7851 1fbd f33e ba3d 5e6b 81bd f876 51bb
00000010: 4e9c 283e ac87 0ebe 4e3c 4abd 4a2f 19bc
00000020: c10e 7e3d 13c1 0ebd 37ee 0c3f 9b3b 4dbd
00000030: 40b2 a0bd d8de 5bbd 5278 0fbe 4247 39bd
00000040: 46aa efbd 2f32 523f fb95 c6be ef54 463e
00000050: 9485 243d 171a cc3c 66ed 773e 3833 953e
00000060: dd35 bbbd 46e8 b1bd 5388 093e 9706 cdbd
00000070: 994a 983d d590 0e3d 6294 93be 0523 15be
00000080: 0eab e5bc d33a b2bb ce9e 12be 8ce1 12be
00000090: 8411 81be 285b 633b 225f 813b 4ad5 9fbd
000000a0: cddf 663e 4059 013c b3ef 04bd f01d cb3c
000000b0: e774 7b3d 7498 e0bc 5cb2 033e ac43 d13d
000000c0: d399 853e a55c f4bd 23fa d33e 717f 70bd
000000d0: 0d92 64bd 62f4 49be 6ccb b3bd 459c 193b
000000e0: 6770 11bd d38a 59bd 333b ba3c 4b90 793c
000000f0: c73d 233c 7207 0dbd 9219 67be f091 c6be
00000100: ea21 9dbd 1c47 d83d 2e08 42be e4be fdba
00000110: d72b e4bd c27b 28bb 5e1f 4e3e dbb4 a03d
00000120: b594 11be d940 803d 460c 88be c855 cc3d
00000130: c39d 0ebf 7f5a b7bc e92a 01bd fc15 9a3d
00000140: 2f67 61bd 87d0 b8bd 9984 9abe 2044 293e
00000150: 89ab 623c 12a4 2b3e c79a 24bd a073 683c
00000160: d235 cc3d 2f4a d13b e147 cebd 7681 233e
00000170: cf47 c83d cab5 ecbd b313 9dbe 38bd 51bc
00000180: 9dec 2abe 301d 183d 5052 cebd dd2e 873e
00000190: 621c 1dbb feb3 353e ec81 e8bc f182 61be
000001a0: c308 88be 1e5b e83d 24e1 cdbe 64d2 c3bd
000001b0: 09bc 4fbd 6445 88be 8417 083e fdec dbbd
000001c0: 3ffa 25bf 1e8f a3bd 37ed 8c3d b45c 513e
000001d0: 30a6 89bd 1912 453d 8831 adbd 0f68 5fbd
000001e0: d673 d0bd 33bb e4bd 9d0a 003f c644 093f
000001f0: 669a 583d d056 d7bb 9155 9a3c e295 3dbc
00000200: bc73 bc3e 5fea acbe 945c 003f 53c9 193e
00000210: e8e2 42bd d957 f63d aff0 a2bc aa5a af3c
00000220: c12f 13bd 6d31 bd3e 38d0 623d 37c3 56be
00000230: 1260 7abe 1424 f83e 1486 b3bd 6139 03bd
00000240: 9a03 99bd c0a8 033d 59a0 333a 70db 19be
00000250: 4972 213e a539 363d 14e5 81bd 9f1b d83d
00000260: e0ab 633d e0b4 ff3c 40df 6b3e 0ed0 6cbe
00000270: 2239 be3b c476 2a3d 5d31 f53d 168b c83a
00000280: 790e 91be a6dc 2c3e 49f4 1e3e 90f0 9d3d
00000290: d6a3 d53d a9be 04be 21a5 473e d1f8 8cbd
000002a0: 76e7 9bbe bd82 9e3c c907 1d3e 8bb2 833c
000002b0: 08c2 cfbd ec94 223d c035 17bb 1400 773d
000002c0: 3cfe e73c 610e 48be 5991 903c 5378 0dbe
000002d0: a8b4 70be 1bf4 603e 5e9c 0a3e 57c4 0bbe
000002e0: 2684 823c 5089 4f3d f09e 913d 75e3 39be
000002f0: ffc0 1dbe e1db 9bbe 6efe 50bd fa79 053e
00000300: 499e 1b3e 8d99 ccbd 6eaa 1abe 5ab2 b9bc
00000310: 3215 7e3e 9ca5 413e d7a3 553d d4e3 cfbd
00000320: cf8c 00bc 797d fabc 15c1 6e3d f149 883e
00000330: 6ebd 8ebd 2024 ffbd 6373 be3e 703e 463d
00000340: 53ea 7bbc 4397 47bd 39cb 813d 7a62 c73e
00000350: 2b9d 0a3e 460a c6bd d3a8 44be c509 6a3d
00000360: 944b b03e 6cbe 633e e2b6 9d3c d48e 0bbd
00000370: 62ef bf3c c481 b93d eb53 b13e 383a 173f
00000380: 93df 093e 0ab2 11bc 757a 8b3c b140 eebd
00000390: f72a 6abc d90f c53d fb23 323f a11d 283d
000003a0: cffd e7be cbc7 3a3e 106e 86be 90da 88be
000003b0: 9dba 213e 8c84 d9bc 4954 13be 7e92 343e
000003c0: 7238 61bd 3c37 18be 364b 34be 2fdf b4bd
000003d0: e78d 063e 6ef3 a5bd d2fc 2abc b064 36bc
000003e0: 33f6 15be 2e1e ec3d 844b aa3c 1cf8 02be
000003f0: 937f b8bd ddb3 24bd 8097 1dbe 8a33 b23e

Model.proj_a.weight f4 [30, 74, 1]
0.103863195 -0.056087803 -0.014406778 -0.023374945 -0.10744697 -0.06822115 0.022241011 0.09952594
-0.11559892 0.028180867 -0.042917766 -0.08638765 0.08659664 -0.11623989 -0.028349288 -0.11607175
0.080123276 -0.10537998 -0.079926774 -0.11489501 0.060779244 0.036172464 0.00048080832 -0.031559378
0.03586881 0.046014383 0.07518001 -0.042534187 -0.033944122 0.08943696 -0.06104747 0.04965344
-0.07039285 0.09630969 0.11248803 0.041328654 0.081961915 0.047875196 0.03327954 -0.04935293
-0.03347095 -0.031185217 -0.113317356 -0.021206684 0.038702607 0.09441826 -0.021014325 0.08406955
0.038752496 -0.09043389 0.015270829 0.052091196 -0.07592501 0.07581867 -0.044078223 -0.09373135
-0.096528605 0.059422076 -0.036954343 -0.02899316 0.02514498 -0.05784582 -0.10373905 -0.003766358
-0.0420433 0.007751748 0.06423426 0.079152346 0.07405481 0.04014729 -0.097971424 0.07619558
-0.10623349 -0.037964836 0.0848131 -0.04215628 0.115433246 -0.08095097 0.014907435 -0.0072343946
-0.0729805 -0.021773152 -0.07022607 0.008310534 0.036363363 -0.03175108 0.09369187 0.058918297
-0.102809735 -0.07583183 0.014723808 0.08728464 -0.030598626 -0.039548658 -0.034330286 0.037126362
-0.061505787 -0.08064295 0.088554114 0.08547829 0.03274101 -0.052940667 -0.072301 0.10182074
-0.10713445 -0.060406808 0.116234705 -0.058655944 0.06952524 -0.08538904 -0.020314343 -0.10224665
-0.11559939 -0.10281062 -0.025625825 -0.003134817 -0.10731594 0.006814353 -0.033476032 -0.073530324
0.09758896 -0.050501116 -0.0041723177 0.07968806 -0.07210436 0.07555793 0.083121985 -0.08761194
0.09625438 0.086190805 -0.038475387 -0.024198323 0.022976682 0.03155592 0.06861691 0.0026646852
-0.035696164 -0.021215498 0.05191183 -0.005973473 -0.076080725 -0.109291576 0.057118222 0.027858317
-0.021928884 0.008547448 -0.096115224 0.08312528 -0.036493793 -0.112292625 0.08828552 -0.0006278828
-0.07824861 -0.043163262 -0.1009321 0.108981684 -0.05725125 -0.034754567 -0.03315115 0.106418684
-0.10050396 0.09273842 -0.054074418 -0.115291215 0.07380578 -0.057846468 0.027099237 -0.0107443705
-0.09741421 0.007417597 -0.09258122 -0.004509397 -0.05429164 0.0062412918 -0.0007493347 0.017605543
-0.09693487 0.03503205 -0.10149746 -0.051754944 -0.07856442 0.11412455 0.11518654 0.043045625
0.0423678 -0.0033620372 -0.1104366 0.013809994 -0.06694043 0.016612768 0.06169997 -0.010443293
-0.0107938275 -0.049625084 0.03624779 -0.099336855 0.083481625 -0.109006174 -0.07275011 0.09499557
0.08689904 -0.04513406 -0.1033566 -0.08004856 -0.08300277 0.05603774 0.02917014 0.046204507
-0.011195548 -0.04856447 -0.048314855 -0.11156976 -0.08434616 0.0914956 -0.008502878 -0.11537077
-0.08689506 0.07314734 -0.051341742 -0.025695018 0.03109914 -0.09423006 -0.05476879 0.115671754
0.045474067 0.0013175458 -0.0754408 -0.10132979 -0.016707972 -0.06628059 0.0610362 -0.071359806
0.07803799 0.064680874 -0.02538681 0.053904682 0.069760725 0.008773923 -0.1064783 0.074416
0.032917187 0.08368647 -0.1080164 0.07175505 -0.08119176 0.07711385 0.07431401 0.030865312
-0.07787123 0.02577439 0.09484224 -0.0479066 0.098594695 -0.048405096 -0.10701858 -0.044748977
00000000: 3ab6 d43d 53bc 65bd 680a 6cbc d07c bfbc
00000010: 280d dcbd 88b7 8bbd c832 b63c 42d4 cb3d
00000020: 20bf ecbd 90db e63c 8aca 2fbd 02ec b0bd
00000030: 9459 b13d 2e0f eebd c43c e8bc 07b7 edbd
00000040: ac17 a43d 75d1 d7bd a6b0 a3bd 134e ebbd
00000050: a8f3 783d 9429 143d 0015 fc39 6844 01bd
00000060: 2ceb 123d 9479 3c3d faf7 993d 5438 2ebd
00000070: fe08 0bbd ba2a b73d e90c 7abd 6861 4b3d
00000080: 202a 90bd 043e c53d 2060 e63d 3c48 293d
00000090: a6db a73d c818 443d 2050 083d 4c26 4abd
000000a0: d618 09bd 2478 ffbc ee12 e8bd a4b9 adbc
000000b0: a086 1e3d 5c5e c13d 3c26 acbc a82c ac3d
000000c0: f0ba 1e3d 6735 b9bd 8032 7a3c 945d 553d
000000d0: 927e 9bbd d246 9b3d 5e8b 34bd 39f6 bfbd
000000e0: cab0 c5bd 9064 733d 705d 17bd 1083 edbc
000000f0: d8fc cd3c bdef 6cbd 2475 d4bd 00d5 76bb
00000100: 9835 2cbd 6002 fe3b 408d 833d a01a a23d
00000110: 0caa 973d 7c71 243d 3ea5 c8bd 6e0c 9c3d
00000120: f290 d9bd 0481 1bbd 7eb2 ad3d 10ac 2cbd
00000130: 4468 ec3d 9fc9 a5bd 503e 743c 800e edbb
00000140: cd76 95bd 9c5d b2bc b0d2 8fbd e828 083c
00000150: c0f1 143d 6c0d 02bd 86e1 bf3d 5054 713d
00000160: e98d d2bd b84d 9bbd 203c 713c 4ac2 b23d
00000170: f8a9 fabc c6fd 21bd ea9d 0cbd d011 183d
00000180: 7eed 7bbd 2228 a5bd dc5b b53d 3e0f af3d
00000190: 701b 063d 50d8 58bd 8c12 94bd 6487 d03d
000001a0: 4e69 dbbd 216d 77bd 760c ee3d 3741 70bd
000001b0: 4063 8e3d 73e0 aebd 446a a6bc b166 d1bd
000001c0: 5fbf ecbd 608e d2bd 40ed d1bc 8071 4dbb
000001d0: 76c8 dbbd f04a df3b 2a1e 09bd 1197 96bd
000001e0: b8dc c73d 42da 4ebd f0b7 88bb 7e33 a33d
000001f0: 73ab 93bd 1ebe 9a3d dc3b aa3d e46d b3bd
00000200: 0421 c53d ce84 b03d 5e98 1dbd 903b c6bc
00000210: 9839 bc3c c840 013d 0687 8c3d 00a2 2e3b
00000220: 2436 12bd 20cc adbc 80a1 543d 20bd c3bb
00000230: 36d0 9bbd 43d4 dfbd ccf4 693d 2037 e43c
00000240: 34a4 b3bc 980a 0c3c 0fd8 c4bd 963d aa3d
00000250: 847a 15bd adf9 e5bd 0acf b43d 8098 24ba
00000260: cf40 a0bd f6cb 30bd 7db5 cebd ca31 df3d
00000270: 4980 6abd ce5a 0ebd 80c9 07bd 0af2 d93d
00000280: 05d5 cdbd a4ed bd3d 237d 5dbd cd1d ecbd
00000290: 7c27 973d 6bf0 6cbd 38ff dd3c 2809 30bc
000002a0: 1a81 c7bd 500f f33b 399b bdbd 90c3 93bb
000002b0: e960 5ebd c083 cc3b 006f 44ba 8039 903c
000002c0: ca85 c6bd c47d 0f3d e6dd cfbd fefc 53bd
000002d0: 62e6 a0bd 22ba e93d ece6 eb3d 9c50 303d
000002e0: dc89 2d3d a055 5cbb 962c e2bd 5043 623c
000002f0: 1018 89bd 8017 883c 1cb9 7c3d 581a 2bbc
00000300: 98d8 30bc ac43 4bbd 9078 143d 1f71 cbbd
00000310: 6af8 aa3d a13e dfbd 02fe 94bd 0a8d c23d
00000320: 20f8 b13d 7ede 38bd a0ac d3bd 80f0 a3bd
00000330: 5bfd a9bd d487 653d 38f6 ee3c f040 3d3d
00000340: 886d 37bc 8aeb 46bd cce5 45bd b07e e4bd
00000350: aebd acbd 0c62 bb3d a84f 0bbc 8347 ecbd
00000360: 0af6 b1bd 46ce 953d b84b 52bd 5c7e d2bc
00000370: a0c3 fe3c b1fb c0bd 3d55 60bd 50e5 ec3d
00000380: 0443 3a3d 80b1 ac3a b580 9abd fe85 cfbd
00000390: 28df 88bc 1ebe 87bd 1801 7a3d 1725 92bd
000003a0: 62d2 9f3d 6877 843d 00f8 cfbc 28cb 5c3d
000003b0: b6de 8e3d 80c0 0f3c 4c11 dabd 6a67 983d
000003c0: 2cd4 063d d063 ab3d b437 ddbd 50f4 923d
000003d0: de47 a6bd deed 9d3d f231 983d 40d9 fc3c
000003e0: f47a 9fbd d024 d33c a63c c23d b639 44bd
000003f0: 04ec c93d 6c44 46bd 8f2c dbbd b44a 37bd

Model.proj_v.weight f4 [30, 35, 1]
-0.12915063 0.04538238 0.205522 0.3474369 0.24490696 0.2348228 -0.34981784 -0.46440795
0.14302775 0.33981657 0.026981207 -0.046711367 -0.23103787 0.014201364 0.061206296 0.013536393
0.02445339 -0.050521877 0.21441478 -0.17807722 0.21392189 -0.011867983 0.27828938 0.23215435
-0.0055551687 -0.48267582 -0.56835085 0.02892594 -0.1535851 -0.284943 0.017936332 -0.00121408
0.2495119 -0.26613808 -0.13707443 0.07429346 0.17576769 -0.20604019 -0.19230404 -0.41605136
-0.008515804 -0.0394104 0.21050203 0.15803349 -0.48586866 -0.2736756 -0.0478731 0.041143116
0.0070903697 -0.19034143 0.073954545 0.1053052 0.048778143 0.017595455 0.019030532 -0.14031522
0.10101709 0.031016406 -0.20118585 -0.023006551 0.12459116 -0.2700101 0.254891 -0.041436933
0.27687442 -0.6638836 -0.09387641 -0.17406574 -0.23276837 0.07489222 -0.30165768 -0.3395788
0.19847813 0.46485844 -0.14244887 -0.04508784 0.058430694 0.40955418 -0.22422928 0.1949419
0.10497968 0.104521565 0.18681036 -0.1464555 0.026861675 -0.22336982 0.3637982 -0.34522456
-0.11153106 0.34091166 0.010329304 -0.13184182 -0.06203791 -0.5543162 0.42865863 0.048292972
0.38443524 -0.08686685 -0.072878934 -0.4341956 -0.20771709 0.018842205 -0.3051498 -0.40102836
0.25990766 0.43667492 0.2528209 0.0355593 -0.5153516 -0.39995074 -0.21302429 0.040583003
0.16803722 -0.12648696 0.08189994 -0.22828124 -0.044478636 -0.2964891 0.3310933 0.24352571
0.007669631 -0.0024462105 0.08572149 -0.3101473 0.06265284 -0.014165352 0.048538607 0.13829091
0.48896828 0.68907285 -0.52023387 -0.6707468 -0.2943995 -0.09231242 -0.34774816 0.16964956
0.1300564 0.018132875 -0.4230963 0.05405445 0.019890606 0.0028910376 -0.074938506 -0.2905981
0.21449125 -0.15813859 -0.19496822 0.2903384 0.0015147283 -0.16151741 0.017716581 0.19900598
0.031300332 -0.11358251 0.20100932 -0.10132642 -0.014640643 -0.20410919 0.11800062 0.02602568
-0.024729626 0.46960467 0.21623355 0.2679112 -0.20379582 -0.06793072 -0.4265138 0.07110751
0.18138595 -0.11040283 -0.13587694 0.13096698 -0.0681713 -0.07566063 -0.21263531 -0.13428713
0.13883553 0.10682383 0.07005841 -0.039399575 0.10388062 -0.0059402683 -0.07873575 -0.3284266
-0.013410258 -0.19939968 -0.04634398 -0.09898528 -0.19620961 -0.16590093 -0.12050023 -0.07091896
-0.16744316 0.21235076 0.16839631 0.060420502 0.014513588 0.072577186 -0.22718692 0.30583802
0.15063667 0.3724864 -0.22545294 -0.17502122 0.0014650974 0.064702325 0.13307686 0.026342152
0.36284184 -0.16691482 -0.3436668 -0.007835862 -0.24822302 -0.029596245 -0.17904532 0.12494978
0.06062201 -0.09329868 -0.3539445 -0.4497522 -0.12329015 -0.22899595 -0.36922225 0.0103375465
-0.07272467 -0.036124807 -0.22125165 0.118323 0.1123233 0.3311302 0.22863254 -0.22946736
0.011007429 0.25506392 -0.45209998 0.13415761 0.11102581 -0.1070046 -0.06726553 0.16795781
-0.20856984 0.24723518 0.05262603 0.14943846 -0.17129242 -0.12903051 -0.40666938 0.23982632
-0.13136147 0.13338582 -0.0072561684 -0.1509838 -0.49985504 0.084435746 0.13312167 -0.0302211
00000000: 1040 04be e0e2 393d 5c74 523e 40e3 b13e
00000010: e4c8 7a3e 6375 703e 531b b3be e1c6 edbe
00000020: de75 123e 70fc ad3e b107 dd3c 6b54 3fbd
00000030: 3195 6cbe d6ac 683c 74b3 7a3d bfc7 5d3c
00000040: 7a52 c83c 07f0 4ebd 8c8f 5b3e e059 36be
00000050: 570e 5b3e ee71 42bc f27b 8e3e dfb9 6d3e
00000060: 2208 b6bb 4921 f7be 717f 11bf 18f6 ec3c
00000070: 6a45 1dbe 0de4 91be 37ef 923c c421 9fba
00000080: 0c80 7f3e 4043 88be 3d5d 0cbe 2b27 983d
00000090: 72fc 333e 33fc 52be 5aeb 44be af04 d5be
000000a0: df85 0bbc cd6c 21bd d88d 573e 88d3 213e
000000b0: c7c3 f8be 351f 8cbe 9516 44bd af85 283d
000000c0: 5556 e83b dde8 42be 7b75 973d 41aa d73d
000000d0: 97cb 473d 5824 903c ebe5 9b3c cbae 0fbe
000000e0: 0ce2 ce3d 1e16 fe3c aa03 4ebe 3c78 bcbc
000000f0: a629 ff3d c43e 8abe 1381 823e c6b9 29bd
00000100: 7cc2 8d3e 47f4 29bf 4642 c0bd 4a3e 32be
00000110: d55a 6ebe 1861 993d e072 9abe 46dd adbe
00000120: da3d 4b3e ed01 ee3e 1ede 11be 07ae 38bd
00000130: 0655 6f3d 16b1 d13e 5c9c 65be d99e 473e
00000140: 96ff d63d 670f d63d 374b 3f3e 6ef8 15be
00000150: 040d dc3c 0fbb 64be c243 ba3e 46c1 b0be
00000160: 656a e4bd f98b ae3e 3e3c 293c 8b01 07be
00000170: 771b 7ebd abe7 0dbf 2579 db3e dace 453d
00000180: b2d4 c43e 3fe7 b1bd 8d41 95bd e34e debe
00000190: cab3 54be f85a 9a3c 983c 9cbe 9753 cdbe
000001a0: 9e12 853e db93 df3e be71 813e a1a6 113d
000001b0: 15ee 03bf 58c6 ccbe 0a23 5abe 5d3a 263d
000001c0: f311 2c3e cc85 01be 28bb a73d 8fc2 69be
000001d0: 3b2f 36bd 6bcd 97be 1085 a93e ce5e 793e
000001e0: 8751 fb3b 9a50 20bb c08e af3d a0cb 9ebe
000001f0: 2250 803d cb15 68bc 6bd0 463d 229c 0d3e
00000200: 0d5a fa3e 1467 303f 0c2e 05bf 10b6 2bbf
00000210: 88bb 96be 4b0e bdbd 0c0c b2be 9db8 2d3e
00000220: 812d 053e 658b 943c 14a0 d8be 3368 5d3d
00000230: a0f1 a23c 9077 3d3b 5c79 99bd 46c9 94be
00000240: 98a3 5b3e 15ef 21be c0a5 47be 3ca7 943e
00000250: d989 c63a d264 25be 5d22 913c 39c8 4b3e
00000260: c734 003d f29d e8bd 63d5 4d3e 3a84 cfbd
00000270: 4fdf 6fbc 0002 51be 4faa f13d cf33 d53c
00000280: c995 cabc 0670 f03e 546c 5d3e a82b 893e
00000290: daaf 50be 431f 8bbd 0460 dabe d0a0 913d
000002a0: 3dbd 393e e11a e2bd 5323 0bbe 351c 063e
000002b0: 659d 8bbd f6f3 9abd 12bd 59be 9182 09be
000002c0: e72a 0e3e 74c6 da3d c97a 8f3d 7361 21bd
000002d0: 5dbf d43d 95a6 c2bb 3540 a1bd 8827 a8be
000002e0: b3b6 5bbc 6e2f 4cbe 2fd3 3dbd cbb8 cabd
000002f0: 2ceb 48be efe1 29be d3c8 f6bd f63d 91bd
00000300: 3876 2bbe 7a72 593e 1570 2c3e 7d7b 773d
00000310: 66ca 6d3c 59a3 943d b0a3 68be cd96 9c3e
00000320: 8040 1a3e 8ab6 be3e 23dd 66be c338 33be
00000330: 8308 c03a a782 843d 4d45 083e 7fcb d73c
00000340: 68c6 b93e b8eb 2abe 18f5 afbe fd61 00bc
00000350: 2d2e 7ebe d373 f2bc a857 37be ace5 ff3d
00000360: c94e 783d 6113 bfbd 3738 b5be ec45 e6be
00000370: 8c7f fcbd ea7d 6abe b30a bdbe d05e 293c
00000380: acf0 94bd 9bf7 13bd cb8f 62be 5453 f23d
00000390: c209 e63d e689 a93e a61e 6a3e 7ef9 6abe
000003a0: 8158 343c bd97 823e a679 e7be 9d60 093e
000003b0: 8061 e33d 3a25 dbbd 83c2 89bd 22fd 2b3e
000003c0: 5593 55be 382b 7d3e 648e 573d 6506 193e
000003d0: 4867 2fbe 9320 04be f836 d0be 0895 753e
000003e0: 9f83 06be 4b96 083e 27c5 edbb 7f9b 1abe
000003f0: 00ed ffbe a6ec ac3d 0c51 083e 3e92 f7bc

Model.forward_l.seq.1.layers.0.self_attn.in_proj_weight f4 [90, 30]
0.14545189 0.23446439 0.26930892 0.08358016 -0.30680063 0.34382746 -0.24636371 0.23973325
-0.39378777 -0.20013659 0.16516551 -0.090450004 -0.29177365 -0.17352095 0.26981965 0.0828818
0.11183534 0.11271677 0.36988667 0.025657054 0.29856142 -0.14374062 0.16480397 0.056050092
0.07599714 0.33269987 -0.2586481 -0.27316397 0.053182684 -0.015402456 -0.07991117 0.31508133
0.30200458 0.009519363 -0.43628475 0.36597636 0.07791689 0.31508073 -0.14842096 -0.22715111
0.23292507 -0.41748604 -0.27521563 -0.2953339 0.14880596 0.09543811 0.05136301 0.21664804
0.19918746 0.066417344 0.05363659 -0.042645343 0.34997863 -0.12643343 -0.33308995 0.27620727
-0.14353575 -0.38687524 -0.048014846 0.013750273 -0.1763076 -0.33688515 -0.23116459 0.024043487
0.020841872 -0.3384087 -0.13647184 -0.28437856 0.35143062 0.2132513 -0.16419388 0.020074273
0.40049657 0.28222895 -0.11611021 0.16855149 -0.17524748 -0.15868852 -0.21729247 0.13605194
-0.52394545 -0.0021979688 -0.3846659 0.044003647 0.15654346 -0.20039743 0.12586617 0.14401662
0.083868854 -0.102820724 -0.07048642 -0.07204338 0.10734949 0.16612391 0.1693508 0.007724898
0.2501063 -0.043817677 -0.058723815 0.023470534 0.022368189 0.15649556 0.18763678 0.3169832
0.025229478 -0.25996915 0.33861625 -0.15011923 -0.24414735 -0.2374381 0.050279617 0.06725645
-0.069905944 0.21440618 0.11984944 -0.07647008 0.089760385 0.06297472 0.11907951 -0.10699455
-0.26717076 -0.047856756 -0.4515094 0.0488011 0.115682416 -0.04422615 -0.03444802 -0.3301766
0.040381435 0.18201625 -0.30796427 0.31389466 0.20760533 0.2367644 -0.35348508 0.40317726
0.40844363 0.006828369 -0.095907345 -0.5387355 -0.23370546 -0.26468033 -0.17493865 -0.22887437
0.27846813 -0.4233183 0.13914682 -0.0031922562 0.33631295 -0.24304993 -0.3445706 -0.03188487
-0.21967298 0.3104678 0.48593342 -0.3950838 0.36774608 -0.4674494 0.37865847 0.43290913
-0.07016226 0.0069154967 0.0785398 0.26130572 -0.35853827 0.16931127 -0.06115733 -0.14248514
-0.30732495 -0.3349735 -0.13382791 -0.39295575 0.015164366 0.15037109 -0.034058113 -0.19660857
0.037466273 0.18934765 -0.012188162 -0.18225063 0.21708193 0.2160748 0.09778402 0.011045029
-0.22587141 0.02748881 -0.31076685 0.25789246 -0.15647702 -0.12941897 0.17275837 -0.23645921
-0.16624357 -0.29548073 0.08033325 -0.06744196 -0.027600178 -0.0012949732 0.2609684 0.0126071535
0.3087474 -0.0562907 -0.025061877 -0.31178537 -0.058583423 0.31904066 -0.2576915 -0.28170297
0.07062789 0.28938076 0.23424174 -0.124271445 -0.40144855 0.025968345 -0.24383622 0.19740099
-0.15298344 0.13517621 0.17763802 -0.05678031 0.14115302 0.1272701 -0.15011719 -0.061625086
-0.12985653 0.43475783 0.12540042 0.14557739 0.025460524 0.19489394 -0.02006269 -0.27160412
-0.04301612 -0.014357194 0.18231708 -0.07646324 -0.009710064 -0.086654305 -0.0061825924 0.35197142
0.08369831 0.061069243 -0.100813605 -0.02822855 -0.25168347 0.3570017 -0.040148336 0.44832933
-0.3024296 -0.017500577 0.39795467 -0.08879038 -0.21818262 -0.23688595 0.43159196 -0.04236383
00000000: 57f1 143e 6f17 703e dce2 893e 132c ab3d
00000010: f914 9dbe 270a b03e c546 7cbe a27c 753e
00000020: 8d9e c9be 9bf0 4cbe 2621 293e da3d b9bd
00000030: 5b63 95be 7aaf 31be cd25 8a3e efbd a93d
00000040: ed09 e53d 0dd8 e63d c961 bd3e be2e d23c
00000050: 0bdd 983e be30 13be 5fc2 283e c894 653d
00000060: 63a4 9b3d a357 aa3e 866d 84be 26dc 8bbe
00000070: 16d6 593d 955a 7cbc 78a8 a3bd 5752 a13e
00000080: 58a0 9a3e 1af7 1b3c b760 dfbe 4161 bb3e
00000090: e492 9f3d 4352 a13e aafb 17be 4d9a 68be
000000a0: e983 6e3e bbc0 d5be 10e9 8cbe 0136 97be
000000b0: 9760 183e 0e75 c33d 0562 523d fcd8 5d3e
000000c0: ccf7 4b3e d105 883d 0ab2 5b3d e2ac 2ebd
000000d0: 6630 b33e c477 01be c48a aabe 0a6b 8d3e
000000e0: 09fb 12be 8314 c6be 37ab 44bd d348 613c
000000f0: fb89 34be 367c acbe 69b6 6cbe d9f6 c43c
00000100: 93bc aa3c e843 adbe 46bf 0bbe 119a 91be
00000110: b7ee b33e 8c5e 5a3e 7122 28be cd72 a43c
00000120: e30d cd3e 5080 903e 31cb edbd c398 2c3e
00000130: 1374 33be 3e7f 22be eb81 5ebe 3351 0b3e
00000140: 4a21 06bf cc0b 10bb eef2 c4be 2b3d 343d
00000150: ee4c 203e fc34 4dbe 10e3 003e 1879 133e
00000160: 6fc3 ab3d ac93 d2bd 2f5b 90bd 7b8b 93bd
00000170: 0dda db3d 631c 2a3e 4c6a 2d3e 2421 fd3b
00000180: ef0d 803e 2a7a 33bd 6288 70bd 4745 c03c
00000190: 7e3d b73c 5f40 203e db23 403e 9f4b a23e
000001a0: 0dae ce3c ad1a 85be 1c5f ad3e dbb8 19be
000001b0: c301 7abe f922 73be 00f2 4d3d c0bd 893d
000001c0: d92a 8fbd 4b8d 5b3e a073 f53d 589c 9cbd
000001d0: 4bd4 b73d e4f8 803d f5df f33d f51f dbbd
000001e0: 9bca 88be 7205 44bd 3d2c e7be aae3 473d
000001f0: e7ea ec3d 7b26 35bd 5e19 0dbd e80c a9be
00000200: 0167 253d 7862 3a3e 7ead 9dbe cdb6 a03e
00000210: 7e96 543e 5e72 723e fffb b4be 406d ce3e
00000220: 861f d13e 83c0 df3b 126b c4bd 92ea 09bf
00000230: 7c50 6fbe 2e84 87be 1e23 33be 0b5e 6abe
00000240: 6093 8e3e 2dbd d8be 817c 0e3e 2c35 51bb
00000250: 3631 ac3e 15e2 78be 8f6b b0be b699 02bd
00000260: f4f1 60be a3f5 9e3e 44cc f83e 6d48 cabe
00000270: 3749 bc3e 8755 efbe 86df c13e 44a6 dd3e
00000280: 3bb1 8fbd 649b e23b 7ad9 a03d ddc9 853e
00000290: 5492 b7be ef5f 2d3e 1c80 7abd a0e7 11be
000002a0: b259 9dbe a681 abbe 2f0a 09be 7f31 c9be
000002b0: f673 783c e1fa 193e 8580 0bbd c253 49be
000002c0: 3c76 193d 5ae4 413e dbb0 47bc e99f 3abe
000002d0: ba4a 5e3e b642 5d3e fd42 c83d 36f6 343c
000002e0: d64a 67be 3630 e13c d51c 9fbe 7b0a 843e
000002f0: 833b 20be 6886 04be 92e7 303e 5d22 72be
00000300: c13b 2abe 4049 97be c285 a43d 031f 8abd
00000310: c519 e2bc 17bc a9ba a69d 853e 3c8e 4e3c
00000320: 2414 9e3e 1491 66bd 914e cdbc 55a2 9fbe
00000330: 2cf5 6fbd 4c59 a33e 24f0 83be 5f3b 90be
00000340: 5ba5 903d b729 943e 11dd 6f3e 0782 febd
00000350: aa8a cdbe 91bb d43c 34b0 79be 7c23 4a3e
00000360: b1a7 1cbe a26b 0a3e bee6 353e 7892 68bd
00000370: 6b8a 103e 1853 023e 52b8 19be 966a 7cbd
00000380: 1cf9 04be 9498 de3e f868 003e 3d12 153e
00000390: 9792 d03c 4792 473e 835a a4bc b20f 8bbe
000003a0: ac31 30bd 703a 6bbc 54b1 3a3e c298 9cbd
000003b0: f616 1fbc d077 b1bd 5897 cabb 9935 b43e
000003c0: 056a ab3d be23 7a3d 5d77 cebd 8f3f e7bc
000003d0: a8dc 80be edc8 b63e 9572 24bd 6c8b e53e
000003e0: 0dd8 9abe 5f5d 8fbc b7c0 cb3e bbd7 b5bd
000003f0: 446b 5fbe 3b92 72be 9ff9 dc3e b285 2dbd

Model.forward_l.seq.1.layers.0.self_attn.in_proj_bias f4 [90]
0.11131392 0.16225265 -0.109231316 -0.11292459 -0.04624449 -0.14506818 0.06330796 -0.062282432
0.22233151 -0.050069626 0.028002258 -0.053844362 0.13364361 -0.085801974 -0.11475872 -0.22633457
0.048916582 0.11331386 -0.032915723 -0.066857815 0.14097318 -0.045445703 0.051646546 -0.029357733
0.09473055 -0.19841316 0.1194916 0.17317289 0.0446191 0.11170566 0.005587337 0.010194813
-0.021835167 -0.18006662 -0.2295868 -0.192875 0.008895531 0.09328324 -0.069964804 -0.24943137
-0.003790596 0.18372539 -0.019145336 -0.005740418 -0.019093014 0.16277416 -0.12258224 0.013651056
-0.02719632 -0.11435984 -0.030585118 0.09985758 0.06903942 -0.0883625 0.12074209 -0.14506653
0.20471689 -0.1774695 -0.07347013 -0.19460939 -0.045657434 0.104674965 0.07220669 -0.070551045
-0.05157848 0.02178741 0.032410752 0.078191705 0.010894602 0.06929898 0.0750669 -0.098219745
0.021686573 -0.0021770608 0.086056255 -0.09029422 0.052791987 0.053324614 0.06725442 0.08917303
0.030946165 0.050334867 -0.057923757 -0.04529502 0.054935563 -0.062474463 -0.012960408 0.08125801
-0.024297325 0.034417566
00000000: 8df8 e33d 8f25 263e abb4 dfbd 0245 e7bd
00000010: dd6a 3dbd c18c 14be 9ba7 813d dd1b 7fbd
00000020: dfaa 633e cf15 4dbd fe64 e53c e88b 5cbd
00000030: dfd9 083e f2b8 afbd 9f06 ebbd 40c4 67be
00000040: c15c 483d 1911 e83d a3d2 06bd c0ec 88bd
00000050: 465b 103e 4625 3abd 548b 533d a17f f0bc
00000060: 1702 c23d d22c 4bbe 03b8 f43d 3c54 313e
00000070: 84c2 363d f0c5 e43d fb15 b73b 2508 273c
00000080: aadf b2bc 6263 38be cd18 6bbe 0681 45be
00000090: 90be 113c 490b bf3d b549 8fbd f06a 7fbe
000000a0: a66b 78bb 8222 3c3e aed6 9cbc 1e1a bcbb
000000b0: f468 9cbc 45ae 263e 660c fbbd aea8 5f3c
000000c0: d1ca debc 7e35 eabd a48d fabc 2282 cc3d
000000d0: 8a64 8d3d 66f7 b4bd a147 f73d 528c 14be
000000e0: 4ea1 513e 91ba 35be 8277 96bd af47 47be
000000f0: 4a03 3bbd d45f d63d 1ae1 933d 117d 90bd
00000100: f543 53bd 837b b23c 23c1 043d f922 a03d
00000110: 467f 323c a0ec 8d3d adbc 993d 6f27 c9bd
00000120: 0aa8 b13c 05ad 0ebb 433e b03d 2dec b8bd
00000130: 693c 583d e96a 5a3d afbc 893d 59a0 b63d
00000140: d082 fd3c ef2b 4e3d 7641 6dbd 4587 39bd
00000150: 1d04 613d 39e5 7fbd e457 54bc 996a a63d
00000160: 2f0b c7bc 6ff9 0c3d

Model.forward_l.seq.1.layers.0.self_attn.out_proj.weight f4 [30, 30]
0.25087267 -0.16644603 -0.15800689 -0.21959846 -0.008312249 -0.32513413 0.013742345 0.34849444
0.14236662 -0.093264006 0.14627713 -0.16853978 0.08841582 0.19310781 -0.13578714 0.19978862
0.24572715 0.36271194 -0.06852618 0.16153283 0.2419595 0.27901348 0.073695354 -0.05079062
0.15052234 -0.16914855 -0.021274317 -0.1771906 -0.084174365 0.09974235 0.0022020293 0.079594426
-0.22670971 0.29586026 -0.14493354 0.0044676843 -0.13248491 0.18118909 0.017961968 -0.030766899
0.28398475 0.062481098 -0.14327972 0.11228644 -0.1627742 -0.1035399 -0.15087846 0.23614135
-0.029125873 -0.18060644 0.24210131 0.25657684 -0.10224903 -0.21453567 0.32412353 -0.058065765
0.22724116 -0.25670797 -0.040280107 0.11560536 -0.22966006 0.09608506 0.12005967 0.05756903
-0.20434588 0.32060084 0.33963972 0.019151894 0.07224648 0.02986446 0.33758712 -0.1647654
0.28117695 -0.25480065 0.2651839 -0.11407406 0.21404567 -0.2075694 0.31633854 -0.07927914
-0.004990442 0.20433988 -0.19958612 -0.19938628 -0.1105814 0.18226592 0.21041971 -0.09257331
-0.28444976 -0.37008372 -0.22227167 0.06825178 0.017532872 -0.12342724 -0.20095094 -0.1780524
0.2987175 0.12099684 0.04897906 0.21033809 -0.07849783 0.06882041 -0.21536562 0.108708456
0.32144266 0.09437587 0.29107538 -0.018998777 -0.21883066 0.13347115 -0.09308093 0.2846739
-0.21653534 -0.38336137 0.18988481 0.18936676 0.04124454 -0.14797142 -0.1430927 0.111542374
-0.14699325 -0.4353561 0.096294396 -0.1849126 0.07952694 0.34925267 -0.34649253 0.043268375
0.3209263 -0.09417933 0.025558189 -0.22692753 -0.21218051 -0.105064176 0.052116044 -0.17134508
-0.34276444 -0.12803788 -0.37313458 -0.288078 -0.16864929 -0.17019008 0.04015436 0.019075429
0.0476537 -0.17547983 0.36853617 -0.28331587 -0.17412257 0.014414844 0.20698506 -0.052707102
0.074994996 -0.10533239 0.054563526 0.33332822 -0.13720621 -0.09736611 0.021382917 0.07226257
0.28065762 -0.20161828 -0.2327175 -0.14627624 0.051911462 -0.10956083 -0.1076941 -0.09438258
0.22224727 -0.006914322 0.07758872 -0.1544761 0.12739557 -0.17337479 -0.21321216 -0.0745073
-0.06560007 0.09537152 -0.33443874 0.2681474 -0.02131521 -0.16472584 0.13374414 0.15383148
-0.39946532 0.21368882 0.26085043 0.020750163 0.04108868 -0.0059059234 0.33942282 -0.31626233
0.26922873 -0.0049769687 0.3095838 -0.37697527 0.22618623 0.15897958 0.19494027 -0.16980569
0.24645266 0.20557056 0.1464318 0.092270344 0.026117617 -0.35443652 -0.20436406 0.34071437
-0.25105643 -0.3278133 0.31873572 -0.03156165 0.17494428 0.32953203 0.023527121 0.21149261
0.13226193 0.20897746 -0.18454985 0.053317692 0.0712337 0.059631236 -0.03504496 -0.026530672
-0.19312982 -0.11529411 -0.033541426 0.0014359622 0.09169691 0.08124552 0.17079668 -0.111520514
0.25723693 -0.15258974 0.2794258 -0.06646544 0.22427224 -0.11407058 -0.416754 -0.17381227
-0.012059981 -0.07551233 0.37162372 -0.056600753 -0.11290635 -0.021301256 -0.22179063 0.2983635
-0.17171015 -0.0555235 -0.004195893 -0.051622964 0.1734925 -0.32465017 0.24637055 -0.01399939
00000000: 6272 803e d470 2abe 8fcc 21be 6bde 60be
00000010: 1930 08bc fb77 a6be 9327 613c dd6d b23e
00000020: 8ec8 113e 3301 bfbd acc9 153e b195 2cbe
00000030: 5a13 b53d 0ebe 453e c90b 0bbe 6395 4c3e
00000040: e69f 7b3e 61b5 b93e 7457 8cbd dd68 253e
00000050: 3bc4 773e dbda 8e3e 97ed 963d d309 50bd
00000060: 8722 1a3e 4735 2dbe 7a47 aebc 7471 35be
00000070: 9c63 acbd b845 cc3d ec4f 103b 6702 a33d
00000080: 9726 68be ff7a 973e 7569 14be a765 923b
00000090: 20aa 07be a289 393e fa24 933c dd0a fcbc
000000a0: 7366 913e 2eec 7f3d ebb7 12be 6ff6 e53d
000000b0: 48ae 26be ba0c d4bd e27f 1abe 0acf 713e
000000c0: 6299 eebc e5f0 38be 68e9 773e 0a5e 833e
000000d0: f067 d1bd 3daf 5bbe 85f3 a53e 5ed6 6dbd
000000e0: e8b1 683e 3a6f 83be c1fc 24bd 81c2 ec3d
000000f0: 022c 6bbe 3ec8 c43d d8e1 f53d 81cd 6b3d
00000100: 0c40 51be cb25 a43e 42e5 ad3e 6fe4 9c3c
00000110: f6f5 933d 50a6 f43c 38d8 ac3e 43b8 28be
00000120: 6df6 8f3e 3b75 82be 2fc6 873e a99f e9bd
00000130: ca2e 5b3e 138d 54be 20f7 a13e 1a5d a2bd
00000140: dd86 a3bb 793e 513e 4e60 4cbe eb2b 4cbe
00000150: 8078 e2bd eba3 3a3e 4478 573e 1397 bdbd
00000160: 66a3 91be 9d7b bdbe 2f9b 63be 97c7 8b3d
00000170: 19a1 8f3c 6cc7 fcbd 15c6 4dbe 5e53 36be
00000180: 80f1 983e 31cd f73d 449e 483d de62 573e
00000190: 78c3 a0bd b7f1 8c3d ce88 5cbe 8aa2 de3d
000001a0: 2294 a43e 2348 c13d d507 953e 53a3 9bbc
000001b0: 2515 60be a9ac 083e 37a1 bebd c7c0 913e
000001c0: 71bb 5dbe f147 c4be 2a71 423e 5ce9 413e
000001d0: 09f0 283d d285 17be e586 12be 5470 e43d
000001e0: 6685 16be ffe6 debe ff35 c53d bb59 3dbe
000001f0: 05df a23d 3fd1 b23e 7867 b1be 2e3a 313d
00000200: 7450 a43e 18e1 c0bd 685f d13c b15f 68be
00000210: d945 59be e32b d7bd a277 553d 1675 2fbe
00000220: d27e afbe 5d1c 03be 7f0b bfbe f67e 93be
00000230: 66b2 2cbe 4f46 2ebe e678 243d 1344 9c3c
00000240: 8730 433d fcb0 33be c6b0 bc3e c70e 91be
00000250: 304d 32be 3d2c 6c3c e4f3 533e 67e3 57bd
00000260: fa96 993d 82b8 d7bd 017e 5f3d ffa9 aa3e
00000270: c97f 0cbe e267 c7bd 3a2b af3c 66fe 933d
00000280: 5bb2 8f3e 0675 4ebe 7f4d 6ebe 70c9 15be
00000290: 1da1 543d 6e61 e0bd b98e dcbd a74b c1bd
000002a0: ca94 633e 8991 e2bb d6e6 9e3d fc2e 1ebe
000002b0: fc73 023e 2989 31be 4a54 5abe 4997 98bd
000002c0: 5459 86bd 2552 c33d 8e3b abbe 9e4a 893e
000002d0: 3c9d aebc e4ad 28be 39f4 083e 0086 1d3e
000002e0: b886 ccbe 3ed1 5a3e 308e 853e 3ffc a93c
000002f0: 9b4c 283d 7a86 c1bb d4c8 ad3e 23ed a1be
00000300: 59d8 893e d715 a3bb c581 9e3e e702 c1be
00000310: 5d9d 673e 8bcb 223e 6c9e 473e 8be1 2dbe
00000320: 165e 7c3e 1781 523e 38f2 153e 3cf8 bc3d
00000330: 9df4 d53c b478 b5be d044 51be 1d72 ae3e
00000340: 788a 80be 25d7 a7be 5431 a33e ca46 01bd
00000350: 9824 333e 6cb8 a83e f3bb c03c 8591 583e
00000360: ac6f 073e 30fe 553e a3fa 3cbe a763 5a3d
00000370: f9e2 913d e23f 743d 4e8b 0fbd da56 d9bc
00000380: d3c3 45be 511f ecbd bc62 09bd e536 bc3a
00000390: 97cb bb3d 0d64 a63d 53e5 2e3e de64 e4bd
000003a0: 8fb4 833e 7c40 1cbe e610 8f3e 081f 88bd
000003b0: 9fa7 653e d69d e9bd c860 d5be d8fb 31be
000003c0: 3a97 45bc 35a6 9abd 7745 be3e 31d6 67bd
000003d0: 723b e7bd f97f aebc 151d 63be 1ac3 983e
000003e0: c9d4 2fbe 9c6c 63bd b47d 89bb 9a72 53bd
000003f0: 05a8 313e 8c38 a6be 9048 7c3e b35d 65bc

Model.forward_l.seq.1.layers.0.self_attn.out_proj.bias f4 [30]
-0.033718117 0.027592437 0.07957436 0.07667136 0.017896948 0.052026715 0.10731713 0.009333014
-0.06692083 0.08050114 -0.088006236 -0.08187975 -0.08838912 0.012980735 0.09378152 -0.03350802
0.03420942 0.0046573305 -0.09644222 0.00529683 -0.08831968 -0.081866756 -0.029999727 -0.021614939
-0.05691404 0.042033546 0.05556935 0.04902249 -0.028028656 0.10547014
00000000: 021c 0abd 8909 e23c e2f7 a23d e005 9d3d
00000010: 9f9c 923c f719 553d 15c9 db3d 7fe9 183c
00000020: ca0d 89bd c8dd a43d 9d3c b4bd 92b0 a7bd
00000030: 5b05 b5bd 26ad 543c 8710 c03d b53f 09bd
00000040: 2d1f 0c3d 859c 983b 8083 c5bd 0891 ad3b
00000050: f3e0 b4bd c2a9 a7bd fdc1 f5bc d011 b1bc
00000060: b21e 69bd 5e2b 2c3d b09c 633d cecb 483d
00000070: 5a9c e5bc bb00 d83d

Model.forward_l.seq.1.layers.0.fc1.weight f4 [120, 30]
-0.04120082 -0.0023877397 0.013562712 -0.09732591 0.11162718 0.14924164 -0.15099114 0.0752916
-0.03124339 -0.31611708 -0.03306989 0.23058835 -0.029047687 0.06549713 0.002158725 0.12542485
-0.008105889 0.10736091 0.1224123 0.0030053495 0.1206027 0.11641122 -0.019004464 0.21680546
0.11421051 -0.04783051 -0.02961955 -0.25758556 0.08716649 -0.08625274 -0.100577235 -0.058125902
-0.030442687 0.013566498 0.2492202 -0.06997602 -0.063855715 -0.09603185 -0.076001495 -0.24272251
0.0713018 -0.09861131 -0.07882599 0.23836985 0.033124544 -0.13584346 -0.14189067 0.051674023
0.1314859 0.19161056 -0.06890795 0.14922263 -0.045296587 0.10872072 0.1904216 -0.053899247
0.16428097 0.21731466 -0.22181872 0.061946873 0.20823249 0.006406426 -0.052098114 -0.12758724
0.08808925 0.16210566 0.07729708 0.05016202 -0.08557639 -0.12658907 0.023879252 0.05038971
-0.023819372 -0.14440016 0.15700313 0.25566125 0.22989567 0.06252062 -0.006769789 -0.025799097
0.23126931 0.13566774 -0.18251537 0.04658642 0.015116033 -0.10948765 0.0039837337 -0.03881959
0.19605562 0.06739201 0.13382404 0.03056253 0.055639468 0.1937758 -0.025156718 0.042230137
0.017170753 0.049960066 0.11410115 -0.10877524 0.1475065 -0.10626204 -0.08382707 0.036944054
0.05966723 0.010626274 0.12094712 0.1317562 0.07157535 0.03345692 -0.15587042 0.2774022
0.16415496 0.0331981 -0.072425246 -0.22010842 0.027735813 0.09210579 0.14250733 -0.010356205
-0.028288782 -0.053988643 0.13763715 0.07060153 -0.0710941 -0.27456447 -0.022121815 -0.29906383
-0.008320682 -0.24672465 -0.048995614 0.02158308 -0.04203404 -0.007785875 0.05939287 0.0925372
-0.013896571 -0.12401992 0.27053928 -0.07543903 -0.03193782 0.17720395 -0.13860151 0.037263054
-0.0326214 -0.0856948 0.11922984 -0.024745263 -0.09282268 -0.23195122 0.23126464 -0.016767742
0.10205553 0.23010108 -0.050066754 -0.11963199 0.089305006 -0.029961022 -0.10628059 -0.038978055
-0.020888902 0.23775426 -0.020274801 -0.05054273 0.028323565 0.03013307 -0.1866961 -0.12376655
0.21460706 -0.04264225 0.07817594 0.054934848 0.18310907 0.24322037 0.042110108 -0.038371604
-0.062488683 0.088128336 -0.14632103 -0.049068816 0.23931621 -0.25054413 -0.24448761 0.19223319
0.08564288 0.094035625 -0.08050637 0.072199956 -0.13056591 -0.14835232 0.020589737 0.043404642
-0.059427626 0.019175133 -0.05520529 -0.11633481 0.054711428 0.01365686 0.069197156 -0.22722091
0.17117064 -0.09037498 -0.056537475 0.003646688 0.072127596 -0.02961984 -0.09744306 0.12192841
0.06523839 -0.1380768 0.014928 0.0885348 -0.14330027 -0.057012748 0.024575042 0.22847198
0.21153453 0.026915591 0.17519635 -0.09031749 -0.15223418 -0.22609325 -0.046311766 0.16362001
-0.0948094 0.28098607 -0.07858089 -0.18014266 -0.23392822 -0.0071084737 -0.16581725 -0.25653687
-0.17062151 0.00031042626 -0.23551185 0.22691053 -0.08295719 -0.11303656 -0.09074021 0.12200143
0.0796339 0.1877535 -0.12241457 -0.17604439 0.011828277 -0.19673313 -0.17844717 -0.13197398
0.018508093 0.084915206 0.29779783 0.066834874 0.10777775 -0.13427272 -0.23299366 -0.05785581
00000000: 31c2 28bd a07b 1cbb 2336 5e3c cf52 c7bd
00000010: ca9c e43d cdd2 183e 6c9d 1abe 7b32 9a3d
00000020: 23f2 ffbc 19da a1be 4b74 07bd 5a1f 6c3e
00000030: 6af5 edbc 5c23 863d 6579 0d3b 5f6f 003e
00000040: 90ce 04bc 09e0 db3d 4db3 fa3d 66f5 443b
00000050: 8cfe f63d 0169 ee3d 40af 9bbc 4002 5e3e
00000060: 33e7 e93d ede9 43bd b3a4 f2bc 41e2 83be
00000070: 5884 b23d 47a5 b0bd 70fb cdbd 6d15 6ebd
00000080: f162 f9bc 0446 5e3c 9533 7f3e 964f 8fbd
00000090: c9c6 82bd 59ac c4bd aca6 9bbd 408c 78be
000000a0: ae06 923d baf4 c9bd 856f a1bd 3a17 743e
000000b0: 9aad 073d 8c1a 0bbe ca4b 11be 24a8 533d
000000c0: 3da4 063e 8f35 443e 9c1f 8dbd d1cd 183e
000000d0: ea88 39bd f8a8 de3d e1fd 423e 75c5 5cbd
000000e0: 4539 283e bc87 5e3e 7224 63be 01bc 7d3d
000000f0: e63a 553e ffec d13b d564 55bd 3ba6 02be
00000100: 2368 b43d 07ff 253e ee4d 9e3d b176 4d3d
00000110: ad42 afbd 91a0 01be 6c9e c33c 7165 4e3d
00000120: d820 c3bc a3dd 13be 6ec5 203e 08e6 823e
00000130: c569 6b3e d00a 803d 1bd5 ddbb a158 d3bc
00000140: ddd1 6c3e 7cec 0a3e 4fe5 3abe 67d1 3e3d
00000150: 3da9 773c 103b e0bd fb89 823b 4a01 1fbd
00000160: cec2 483e d204 8a3d 2b09 093e 455e fa3c
00000170: 36e6 633d 2a6d 463e 7615 cebc 82f9 2c3d
00000180: aea9 8c3c eda2 4c3d ddad e93d 8ec5 debd
00000190: f20b 173e ea9f d9bd 87ad abbd a652 173d
000001a0: a065 743d d319 2e3c 20b3 f73d 19eb 063e
000001b0: 1996 923d 200a 093d 7f9c 1fbe a907 8e3e
000001c0: 3d18 283e bbfa 073d b053 94bd 1a64 61be
000001d0: 3736 e33c f6a1 bc3d 71ed 113e 12ad 29bc
000001e0: e0bd e7bc 3223 5dbd c1f0 0c3e 8997 903d
000001f0: c999 91bd b793 8cbe cf38 b5bc e51e 99be
00000200: 7853 08bc 63a5 7cbe a0af 48bd 00cf b03c
00000210: e32b 2cbd a720 ffbb f045 733d 2584 bd3d
00000220: 71ae 63bc 28fe fdbd 2084 8a3e c77f 9abd
00000230: 3bd1 02bd f474 353e 8eed 0dbe 25a1 183d
00000240: 049e 05bd c180 afbd c62e f43d 94b6 cabc
00000250: d119 bebd 9f84 6dbe a3d0 6c3e 815c 89bc
00000260: 7d02 d13d 9e9f 6b3e cc12 4dbd 9e01 f5bd
00000270: 8be5 b63d d170 f5bc a3a9 d9bd 74a7 1fbd
00000280: 341f abbc da75 733e 5717 a6bc e505 4fbd
00000290: d206 e83c a1d9 f63c 432d 3fbe 5179 fdbd
000002a0: f4c1 5b3e a4a9 2ebd b51a a03d 5d03 613d
000002b0: f280 3b3e c30e 793e a67b 2c3d 8b2b 1dbd
000002c0: 22f4 7fbd a17c b43d 2ed5 15be 62fc 48bd
000002d0: 4f0f 753e 5247 80be f65a 7abe c7d8 443e
000002e0: 8965 af3d c095 c03d 86e0 a4bd 92dd 933d
000002f0: 12b3 05be ace9 17be cfab a83c 11c9 313d
00000300: 626a 73bd 2b15 9d3c f11e 62bd f240 eebd
00000310: 1719 603d 06c1 5f3c 3db7 8d3d 99ac 68be
00000320: 5b47 2f3e 8416 b9bd d793 67bd 46fd 6e3b
00000330: a2b7 933d 4fa5 f2bc 3a90 c7bd 9ab5 f93d
00000340: b49b 853d 0164 0dbe 9294 743c bc51 b53d
00000350: 4ebd 12be 3386 69bd 9951 c93c 8ff4 693e
00000360: 829c 583e 167e dc3c ac66 333e 60f8 b8bd
00000370: 47e3 1bbe fd84 67be 68b1 3dbd 018c 273e
00000380: 6e2b c2bd 68dd 8f3e 05ef a0bd 5177 38be
00000390: e18a 6fbe 33ee e8bb ffcb 29be cd58 83be
000003a0: 68b7 2ebe b5c0 a239 052a 71be 3c5b 683e
000003b0: 76e5 a9bd b67f e7bd 01d6 b9bd e3db f93d
000003c0: 1917 a33d 7442 403e 7db4 fabd fb44 34be
000003d0: 64cb 413c 6974 49be dbba 36be 3024 07be
000003e0: 499e 973c 06e8 ad3d f578 983e b9e0 883d
000003f0: 95ba dc3d ca7e 09be e495 6ebe 37fa 6cbd

Model.forward_l.seq.1.layers.0.fc1.bias f4 [120]
-0.09035679 0.05785808 -0.07270064 -0.07620908 -0.033948556 -0.06184445 -0.055342026 0.0507172
0.035797317 -0.036170423 0.052555677 -0.05866015 0.030081384 0.077422634 -0.022845143 0.05912938
0.021889428 -0.06253649 0.04941416 -0.06950639 -0.039122105 0.049471483 -0.08254506 0.04452239
-0.06420491 0.0091464585 -0.05480708 -0.055078447 -0.0721021 -0.0124720195 -0.056741502 0.057133116
0.058458447 0.019921113 0.0134336315 0.059080128 0.020568362 -0.06490143 0.095542476 0.05937833
-0.067913756 0.056314275 -0.058385577 0.033219837 0.03941409 -0.024120415 -0.061385576 -0.054474305
0.07614234 -0.06474582 0.047457393 -0.090541095 -0.08832858 0.03335207 -0.05681027 0.0153040765
-0.054658182 -0.0069914595 -0.15504663 -0.07698094 -0.06890062 -0.08639978 -0.09591106 0.01716424
0.057628192 0.010819155 -0.0064891097 0.03226323 -0.040457986 0.05112422 -0.012603116 0.084036104
0.07635001 -0.04859528 -0.021177199 0.04040449 0.013811797 0.017737426 0.05659914 0.14160521
-0.07855817 -0.058844294 -0.013542413 -0.07547407 -0.009402947 -0.040085785 0.050289202 -0.026205244
-0.018627591 0.052639395 0.05923229 0.040745452 -0.04962305 0.005012149 0.008526274 -0.01650588
-0.031560194 0.06212551 0.018597238 0.06591245 0.031913497 -0.05124421 0.08219777 -0.048033535
-0.06258324 -0.064163685 0.02341493 -0.005468323 -0.021753384 0.01211374 -0.029251145 -0.010913827
0.042498223 0.06935629 -0.058850765 0.017309712 -0.1235202 0.055860534 -0.058062967 0.018287867
00000000: fb0c b9bd 98fc 6c3d 13e4 94bd 8213 9cbd
00000010: a40d 0bbd 9b50 7dbd 52ae 62bd d7bc 4f3d
00000020: 35a0 123d 7027 14bd 9f44 573d a045 70bd
00000030: 3c6d f63c c28f 9e3d bd25 bbbc a631 723d
00000040: 7551 b33c 2213 80bd 8166 4a3d 5e59 8ebd
00000050: 803e 20bd 9ca2 4a3d 620d a9bd 1c5d 363d
00000060: dd7d 83bd 07db 153c 647d 60bd f099 61bd
00000070: 44aa 93bd 7157 4cbc c769 68bd 6a04 6a3d
00000080: 2072 6f3d 9a31 a33c bc18 5c3c 01fe 713d
00000090: fb7e a83c 0aeb 84bd c6ab c33d b136 733d
000000a0: 5e16 8bbd cca9 663d b725 6fbd 8611 083d
000000b0: ab70 213d 2d98 c5bc 716f 7bbd 7320 5fbd
000000c0: 84f0 9b3d 7599 84bd af62 423d 9c6d b9bd
000000d0: 9de5 b4bd 2e9c 083d e3b1 68bd f3bd 7a3c
000000e0: 42e1 5fbd 9d18 e5bb 8bc4 1ebe 2fa8 9dbd
000000f0: c51b 8dbd 5ef2 b0bd 056d c4bd 059c 8c3c
00000100: 8a0b 6c3d d342 313c 99a2 d4bb 7326 043d
00000110: 46b7 25bd a167 513d 4d7d 4ebc 1f1b ac3d
00000120: 655d 9c3d d80b 47bd ce7b adbc 2e7f 253d
00000130: e04a 623c 144e 913c 80d4 673d f500 113e
00000140: 1be3 a0bd b706 71bd ffe0 5dbc 2692 9abd
00000150: d10e 1abc fe30 24bd 0dfc 4d3d 61ac d6bc
00000160: e498 98bc 689c 573d 8f9d 723d b4e4 263d
00000170: 8a41 4bbd f43c a43b c9b1 0b3c 5737 87bc
00000180: 4345 01bd 5277 7e3d 3c59 983c 1bfd 863d
00000190: bab7 023d 73e5 51bd 4e57 a83d d0be 44bd
000001a0: a42b 80bd 4068 83bd abd0 bf3c 9e2f b3bb
000001b0: 2734 b2bc b578 463c 19a0 efbc e9cf 32bc
000001c0: 9e12 2e3d ac0a 8e3d 800d 71bd 19cd 8d3c
000001d0: 29f8 fcbd 04ce 643d 6fd3 6dbd 70d0 953c

Model.forward_l.seq.1.layers.0.fc2.weight f4 [30, 120]
0.16007937 -0.11972351 -0.09497941 0.051523235 0.11903181 0.1507287 -0.17793223 -0.20904152
-0.0146178445 -0.12459013 -0.12751155 -0.11911319 0.09068706 -0.07930508 -0.058796465 -0.0540264
0.110640235 -0.13735421 -0.05285787 -0.31042618 -0.24422866 -0.0027884 -0.24759959 0.15393224
0.07902106 0.107322544 0.1839723 -0.17188059 -0.013263686 0.028511532 -0.30605546 -0.059558183
-0.008503063 0.08990798 0.26547477 -0.16068208 0.012987005 -0.10425112 -0.13377015 0.19099952
0.0038179657 0.13828343 0.03517687 -0.13307257 0.08727114 -0.1130941 -0.12768109 0.04618294
-0.09469579 0.2022472 0.09278325 -0.17801853 -0.0949159 -0.100275934 0.082633466 -0.08190453
-0.14205734 -0.11299727 -0.018760832 0.19245684 -0.3284342 0.12894155 0.019690964 -0.09542954
0.17255871 -0.13505019 0.046999622 -0.13727206 -0.003486472 0.14953175 -0.09828102 -0.03597549
0.060436726 0.07594051 -0.108616695 0.14570023 -0.05626576 -0.14486183 0.08720576 -0.43121123
0.040025983 -0.053534947 -0.12211277 0.052628417 0.0981227 0.21883222 0.14307866 0.021097602
-0.16338828 0.03929413 -0.07949881 -0.06490717 -0.05456181 -0.13894215 0.057430502 -0.012722571
0.013244602 0.1279288 0.14582375 -0.06358671 -0.024728132 0.0141459 0.17744914 -0.292559
0.2485174 -0.22372226 0.014414098 -0.06049581 0.048079584 0.1205224 0.14572214 -0.16325739
-0.19856158 -0.12244468 -0.081212305 -0.2895994 -0.08484148 0.07277243 0.014730985 0.07276372
0.14148833 -0.079163596 -0.14557047 -0.11463922 -0.076024875 -0.02125766 0.10292559 0.09554772
-0.07965049 -0.15863694 0.085051574 -0.07532218 0.009435454 0.14547959 -0.1286304 0.0582069
0.12450218 -0.18287076 0.19733922 -0.22035664 -0.1370972 0.132634 0.18792324 0.016209725
0.18937047 -0.05009473 -0.07312868 0.12424924 -0.12432744 0.10342022 -0.12206001 0.057939395
0.011477762 0.05450011 0.08273507 0.012424406 0.032575205 0.050612032 0.08734582 0.053263687
0.05106346 -0.015751818 -0.08432513 -0.055561144 0.22670461 -0.13342062 -0.10485925 0.09699928
-0.020937499 0.112937 -0.025028998 0.15569592 -0.06461044 0.2363515 0.13091438 -0.12583698
-0.26856777 -0.2108133 0.1597686 0.032936495 0.09811548 -0.061863977 0.022884754 0.017807072
0.22124018 0.008892465 0.11451343 -0.05429626 0.27047396 0.22191349 -0.09394855 0.2001008
-0.12193656 0.24498694 -0.1271655 -0.06975631 0.21368302 -0.097560614 0.11077613 -0.17553312
0.0011020438 -0.05598989 0.080946006 0.23655276 0.051601302 -0.057210267 0.050273776 -0.09278709
0.17777069 0.110944174 -0.0080035515 0.08367388 0.15847394 -0.13051663 -0.069760256 0.016811103
-0.1056271 0.103378475 -0.0030066997 0.045786053 -0.112500556 0.00923687 0.0062054363 0.008660063
-0.083216846 -0.14362477 0.16866796 -0.12505962 -0.07685022 0.11851277 0.087755054 0.19532783
0.099262886 0.21003245 -0.06833595 0.10498635 -0.005038874 0.23382546 -0.08396324 -0.10537115
0.05606851 0.02122434 0.10351246 -0.050695214 0.1186035 -0.0867256 0.031768207 0.12178744
0.21216969 -0.12795591 0.09474767 0.17349091 0.079020336 0.12337819 0.14317785 0.08653844
00000000: d9eb 233e 9a31 f5bd 9184 c2bd 070a 533d
00000010: f3c6 f33d a058 1a3e de33 36be fb0e 56be
00000020: af7f 6fbc 1c29 ffbd 6392 02be 9ef1 f3bd
00000030: 23ba b93d b46a a2bd 90d4 70bd c94a 5dbd
00000040: 5997 e23d 95a6 0cbe 7e81 58bd 2ef0 9ebe
00000050: 1417 7abe 97bd 36bb bf8a 7dbe 6aa0 1d3e
00000060: cbd5 a13d eccb db3d 3c63 3c3e 7701 30be
00000070: ee4f 59bc 0491 e93c 4db3 9cbe 48f3 73bd
00000080: 6e50 0bbc ad21 b83d 4fec 873e d889 24be
00000090: 72c7 543c 9c81 d5bd 0bfb 08be 6195 433e
000000a0: d636 7a3b 2c9a 0d3e 9f15 103d 2d44 08be
000000b0: 36bb b23d e19d e7bd d5be 02be 532a 3d3d
000000c0: deef c1bd e419 4f3e 2505 be3d 7d4a 36be
000000d0: 4463 c2bd 785d cdbd bc3b a93d 90bd a7bd
000000e0: 7b77 11be 1d6b e7bd 51b0 99bc 6813 453e
000000f0: 8728 a8be 4109 043e f24e a13c 9070 c3bd
00000100: 3bb3 303e 994a 0abe ad82 403d 0c91 0cbe
00000110: 4b7d 64bb da1e 193e 8f47 c9bd 095b 13bd
00000120: 808c 773d b386 9b3d 6e72 debd 7132 153e
00000130: ed76 66bd a956 14be ef98 b23d b8c7 dcbe
00000140: 49f2 233d 7647 5bbd 4316 fabd e590 573d
00000150: 8ef4 c83d 8e15 603e 3683 123e e1d4 ac3c
00000160: 424f 27be e2f2 203d 46d0 a2bd 0dee 84bd
00000170: 347c 5fbd da46 0ebe 3f3c 6b3d 5572 50bc
00000180: e3ff 583c c4ff 023e d252 153e c039 82bd
00000190: a792 cabc 34c4 673c 3ab5 353e 4bca 95be
000001a0: 587b 7e3e 7317 65be 1c29 6c3c 74ca 77bd
000001b0: 19ef 443d 73d4 f63d 2f38 153e f22c 27be
000001c0: ba53 4bbe 47c4 fabd a352 a6bd 5f46 94be
000001d0: 5fc1 adbd b609 953d 3b5a 713c 2505 953d
000001e0: 51e2 103e 8620 a2bd 6d10 15be f8c7 eabd
000001f0: eeb2 9bbd 8b24 aebc a7ca d23d 86ae c33d
00000200: cc1f a3bd b971 22be 852f ae3d 8442 9abd
00000210: 2a97 1a3c 9af8 143e b0b7 03be 5c6a 6e3d
00000220: 00fb fe3d 7942 3bbe 4b13 4a3e 2ca5 61be
00000230: 3563 0cbe 35d1 073e f36e 403e 42ca 843c
00000240: 55ea 413e 2230 4dbd 7dc4 95bd 6376 fe3d
00000250: 639f febd fbcd d33d 99fa f9bd dc51 6d3d
00000260: 390d 3c3c 823b 5f3d 0171 a93d bc8f 4b3c
00000270: 946d 053d 904e 4f3d 5ee2 b23d 062b 5a3d
00000280: eb27 513d f509 81bc a7b2 acbd 1594 63bd
00000290: 4125 683e 6a9f 08be 72c0 d6bd 8fa7 c63d
000002a0: 1e85 abbc 844b e73d 9d09 cdbc c06e 1f3e
000002b0: 7a52 84bd 2106 723e 6b0e 063e 69db 00be
000002c0: b781 89be 71df 57be 619a 233e 6be8 063d
000002d0: c5f0 c83d 1565 7dbd cf78 bb3c 23e0 913c
000002e0: c98c 623e b4b1 113c 0486 ea3d c165 5ebd
000002f0: 907b 8a3e 4a3d 633e 1968 c0bd 39e7 4c3e
00000300: e0b9 f9bd dbdd 7a3e ac37 02be 65dc 8ebd
00000310: b9cf 5a3e dccd c7bd 98de e23d f4be 33be
00000320: 7472 903a a855 65bd 05c7 a53d e33a 723e
00000330: e35b 533d 5055 6abd e0eb 4d3d 2807 bebd
00000340: 8509 363e b336 e33d 5421 03bc 365d ab3d
00000350: fe46 223e 27a6 05be 77de 8ebd 70b7 893c
00000360: 0553 d8bd 18b8 d33d 0d0c 45bb 288a 3b3d
00000370: b166 e6bd 3e56 173c f956 cb3b f0e2 0d3c
00000380: 986d aabd 5f12 13be 4bb7 2c3e a10f 00be
00000390: a663 9dbd d3b6 f23d ecb8 b33d 0504 483e
000003a0: 574a cb3d bf12 573e b8f3 8bbd 1503 d73d
000003b0: 241d a5bb f16f 6f3e ebf4 abbd d4cc d7bd
000003c0: 18a8 653d abde ad3c 57fe d33d c9a5 4fbd
000003d0: 64e6 f23d 319d b1bd 611f 023d b16b f93d
000003e0: 0343 593e e006 03be 110b c23d 9aa7 313e
000003f0: 6ad5 a13d b4ad fc3d 379d 123e 113b b13d
