pretrained_model/A7_MulT_tai_pretrained_model.pth (torch, 638222 bytes, 86 tensors)

Model.proj_l.weight f4 [36, 768, 1]
000000 51 40 6a 3b c6 26 cf bc fe 57 61 39 a1 c5 f4 3c
       0.0035743902 -0.025287043 0.00021490452 0.029879393
000010 ec d4 72 bc 49 32 9b bd 05 17 cf bc 13 ef 98 bc
       -0.014821272 -0.075779505 -0.025279531 -0.018668687
000020 26 36 54 bc a1 cf 5d bd f1 dc 67 3c 24 1c e7 bb
       -0.012952363 -0.05415309 0.014151798 -0.007052915
000030 7c f9 0b bc 30 86 6a 3c 13 d9 25 3b cf cc ea 3c
       -0.008543368 0.014314219 0.0025306388 0.028662113
000040 dd 55 05 3d 17 f9 47 bd 9f 51 d2 3c ed 19 8d 3b
       0.03255259 -0.048821535 0.025673686 0.004306069
000050 f8 32 40 3a fa cd fa bc 79 52 e0 3b 29 3d 48 3d
       0.00073318137 -0.030615795 0.006845769 0.048886452
000060 8e 31 d5 b9 1e ed ae bc 6c 96 aa 3d 2e c7 b4 bc
       -0.00040663447 -0.0213533 0.08329472 -0.022067633
000070 3c a6 4e 3d b2 43 86 bc e1 b0 9f 3c 0d ce 02 bd
       0.050451502 -0.016389702 0.019493522 -0.031934787
000080 16 e0 bc bc f3 a0 ab 3c a8 3d db 3c b0 e1 d3 3c
       -0.023056071 0.02095077 0.026762798 0.025864452
000090 d4 0f 12 bd 4d 0f cc bc 7b 29 e6 3c ba db 3d bd
       -0.035659626 -0.02490964 0.028095951 -0.046352126
0000a0 d1 68 14 bd 2e 05 a2 bc d2 4c c2 3c b3 60 b6 bc
       -0.036232773 -0.01977786 0.023718271 -0.022262907
0000b0 e1 0a 2e 3c 90 2b 0c bd 38 99 d6 3c 39 5f 6d bb
       0.010622711 -0.034221232 0.026196107 -0.0036220087
0000c0 93 9c de bb a4 17 31 3d c0 4f e0 3c 3e 42 34 bd
       -0.0067935674 0.043235436 0.027381778 -0.044008486
0000d0 3f 98 23 bc 3c 8a 23 bd 8d a1 7c 3b 60 ad 3f bc
       -0.009985029 -0.039926752 0.003854844 -0.011699051
0000e0 b2 a1 b6 bc c3 da d0 3c 3d 96 30 3b 34 95 25 bd
       -0.0222939 0.025494939 0.0026945018 -0.040425494
0000f0 9e 0b 68 3d 5d f8 e7 bc 9d 5c 25 bd 61 02 cb 3c
       0.056651704 -0.028316671 -0.040371526 0.024781408
000100 d7 be 9e 3c f3 44 7a bd fb 31 0e bd 58 08 0e bc
       0.019378109 -0.06110091 -0.034715634 -0.0086689815
000110 da 77 0b 3d 53 3f e5 3c 93 2a 05 bd b7 5d c3 bc
       0.034049846 0.027984297 -0.032511305 -0.023848398
000120 85 8a 23 3d cf 22 0a bd 9e b3 4f 3d c5 ac e3 3c
       0.039927024 -0.033724602 0.050708406 0.027792344
000130 48 4a 14 3d 3d 47 9c bc 0a 3d cd 3c 78 c6 b3 ba
       0.036203653 -0.019076938 0.02505352 -0.0013715765
000140 ae a0 27 bd e6 0c 13 bd eb 8a fe 3c 44 84 f7 3b
       -0.04092472 -0.035900973 0.0310721 0.007553609
000150 08 5f 9e 3c 7f cc 03 bd 14 09 43 bd 89 3b 6d bc
       0.019332424 -0.032177445 -0.04761608 -0.014479526
000160 84 59 97 3d 5a 97 65 bc 73 07 2b 3c 16 5a 26 bd
       0.073901206 -0.014013136 0.010438788 -0.040613256
000170 c3 11 72 3c 06 87 74 bd b5 69 11 3d 08 2a a8 bc
       0.014774743 -0.05969908 0.0355012 -0.020527855
000180 0a 46 7b 3c e0 59 7b bc cd 8a 4c bd 5b 58 ca 3c
       0.015336523 -0.015341252 -0.04993706 0.024700334
000190 69 0c 2a ba 9f 90 38 3d f4 46 1c bc e4 51 de bc
       -0.00064868346 0.045059796 -0.009538401 -0.027138658
0001a0 99 b0 bc bc 5c ee c9 bc 76 90 23 bd 12 21 46 3d
       -0.023033427 -0.024649791 -0.03993269 0.048371382
0001b0 02 4e 1c bd c6 f2 45 3c 46 72 a3 3d ec 07 fc bc
       -0.03816033 0.0120818075 0.0798078 -0.030765496
0001c0 34 61 2f bd 8c 34 16 bd 1f 1e 70 3d 7a 63 58 3d
       -0.04281731 -0.036671206 0.058622476 0.052829243
0001d0 76 72 ea bb a8 70 8b bc a2 b1 0e bd 25 42 f7 3a
       -0.007154758 -0.017021492 -0.034837373 0.0018864317
0001e0 db fc ff 3a e5 1b b6 bb 60 61 4f bc 68 e8 a8 3c
       0.0019530313 -0.0055575245 -0.012657493 0.020618632
0001f0 c9 3e ea 3c 2a 59 d7 bc 0d 07 ac bb 23 fb c2 b5
       0.028594391 -0.026287634 -0.005249864 -1.4527217e-06
000200 b1 81 18 3d ce c7 de bb 5b cb 81 3d 07 8a 03 3d
       0.03723306 -0.006798721 0.06337615 0.032114055
000210 8f 3d 73 bc 00 b4 36 bc d1 87 1e 3d 73 46 d5 bc
       -0.01484622 -0.011151314 0.038703743 -0.02603457
000220 bb 96 3a 3c d3 ff 95 bd 61 27 81 bb 54 0e fd bc
       0.011388476 -0.07324185 -0.003941462 -0.030890621
000230 a6 c1 1e 3d 49 ce 15 bd 35 dd 31 3d d4 7e f6 3c
       0.038758896 -0.036573682 0.04342385 0.030089773
000240 3e 7f 63 3b dc aa 5f 3c 84 bc 33 3d b2 eb 0b ba
       0.0034713293 0.013651576 0.043880954 -0.00053375505
000250 cf 32 d9 3a 77 26 fb 3c fb 18 d1 3c 96 d9 8a bc
       0.0016570928 0.03065799 0.025524607 -0.016949456
000260 8f f0 f5 bc 64 8d 6b 3d c1 70 00 bd fa 6c ee bc
       -0.030021934 0.057507887 -0.03135753 -0.029104698
000270 7b 6f 37 bd 9b 47 1c 3c b3 92 a9 bb 14 6b 4a bc
       -0.04478405 0.009538556 -0.0051749586 -0.012354631
000280 25 33 04 bc a5 39 8c bc 6c 14 bc 3b 7a dc 83 3c
       -0.008068834 -0.01711733 0.005739739 0.016096342
000290 bb 07 9c 3b ad af 1f 3d 3b b0 54 3c a7 75 8b 3b
       0.0047616637 0.038985897 0.01298147 0.0042559686
0002a0 4e f8 69 bc b1 4b 41 3c 3a 3c 1c 3a 22 20 c9 3c
       -0.014280392 0.011797831 0.0005959902 0.024551455
0002b0 e5 55 12 bc 5b f6 ab b8 f4 70 e6 bc ed a0 da 3b
       -0.008931612 -8.199803e-05 -0.028130032 0.006672016
0002c0 e3 0e 6f 3c 94 1f 70 bc 15 f2 2f bd 46 f3 ec bc
       0.014590952 -0.014655966 -0.042955477 -0.028924596
0002d0 28 15 8a 3d d2 5c b0 bd 6f 83 37 bc f1 4a 4c bc
       0.067423165 -0.08611454 -0.01120077 -0.012469039
0002e0 eb 65 0a 3d 65 f0 8b bb 51 d8 e2 bc 22 60 b8 3c
       0.033788603 -0.0042706006 -0.027691038 0.022506777
0002f0 06 56 c5 bb 61 1d d9 bb 85 40 ca bc 50 d6 c3 bc
       -0.0060222177 -0.0066258167 -0.024688968 -0.023905903
000300 89 42 a0 b9 15 70 34 3c 3c 81 0d 3d 4c 6a b5 3c
       -0.0003056715 0.011013051 0.034547076 0.022145413
000310 e8 78 09 3b ad f4 92 bb 27 32 8e bc f1 09 52 bd
       0.0020976607 -0.004484734 -0.017357899 -0.051279012
000320 dd 8d c1 bc 04 76 d9 bb 25 a1 c6 bb e9 c9 aa 3c
       -0.023627216 -0.006636383 -0.0060616904 0.020848231
000330 46 06 85 3d 8a 43 95 bc d8 41 18 bd 22 f5 d2 bc
       0.06495337 -0.018220682 -0.03717217 -0.025751654
000340 b8 af 3e bd de 3e b1 39 58 ac 0b bc ef 04 92 bc
       -0.046554297 0.0003380691 -0.008524977 -0.017824618
000350 1d 0d 8d 3d 72 f0 ac bc 83 1f 7e 3d dd 32 6c 3c
       0.06887267 -0.021110747 0.06204177 0.014416424
000360 bb 54 b5 3c 40 3e cb 3c 41 5e 9c bc f6 dd 9f bc
       0.02213513 0.024809957 -0.019087913 -0.019515019
000370 2f cf 0b bd ff be 81 bc fc 69 50 bc b6 fc ef 3b
       -0.034133133 -0.015838144 -0.012720581 0.0073238267
000380 f2 67 54 bd 5b bc 9c 3c a8 70 63 3c 9a 7c ab ba
       -0.051856942 0.019132784 0.01388184 -0.0013083399
000390 54 74 1f 3a eb 67 be 3b c8 b5 b0 3c ad 4d 91 3c
       0.0006082703 0.005810728 0.021571055 0.017737234
0003a0 ff c3 f5 bc 27 1c f2 bb c1 79 97 3c ed 32 fd bc
       -0.030000685 -0.00738861 0.018490674 -0.030908072
0003b0 48 d9 dc 3c d0 54 d1 bb b3 e2 e0 3c 0f fc b0 bc
       0.026959077 -0.0063882843 0.027451849 -0.021604566
0003c0 56 5b dc bb f5 71 52 3c d5 a5 fd bc a8 f1 bc bc
       -0.0067247553 0.012844552 -0.030962864 -0.02306445
0003d0 6b 79 4e 3c 59 67 0b bd 99 17 13 bd 91 1b a2 3c
       0.0126021905 -0.034034107 -0.035911176 0.019788535
0003e0 33 84 5b 3c a4 29 0d bc 88 87 c1 bc 99 fb 05 3d
       0.013398218 -0.008615885 -0.023624197 0.032710645
0003f0 b3 e6 86 3c 35 f9 ad 3b 12 56 49 3d 0f 5b ed bc
       0.016467428 0.005309249 0.04915435 -0.028974084

Model.proj_a.weight f4 [36, 74, 1]
000000 09 db 46 ba 5a 45 3e bc b4 17 28 bd 7a b7 d3 bd
       -0.00075857394 -0.011613214 -0.04103823 -0.1033773
000010 f2 87 a5 bd f7 b7 0a be 8c bf f0 ba 09 30 19 3d
       -0.0808257 -0.1354674 -0.0018367632 0.037399326
000020 03 34 6b 3c 04 f2 4c bd 4e 5e ee bd bf 7a 23 be
       0.014355662 -0.05003549 -0.11639081 -0.15964793
000030 55 a4 96 3d 10 2b a2 bd 5d a9 19 3d 4f f4 e7 3d
       0.073555626 -0.0791837 0.037515033 0.11325895
000040 78 87 77 be 34 bc 70 3e 66 f6 00 be 67 55 e1 3d
       -0.24172771 0.23509294 -0.12593994 0.11002617
000050 4a 92 4a bd b8 c9 27 be fc a6 49 3e da 16 e6 bd
       -0.04945592 -0.16385543 0.19692606 -0.11234827
000060 3a 36 8c 3d de 7e 26 bb 6b 52 62 3e c6 04 d1 be
       0.068462804 -0.0025405209 0.22101752 -0.40823954
000070 80 6d 23 3e 4b 3e af bd 8b cd 1d bd d7 a8 4a be
       0.1595974 -0.08556803 -0.0385261 -0.1979097
000080 70 ef 4a 3d f0 99 49 3d 25 40 6a bc 10 d3 d9 3d
       0.04954475 0.049219072 -0.01429752 0.1063596
000090 83 cd 46 3e 91 a4 58 be a3 9f bb bd 9f 8b a2 3c
       0.19414334 -0.21156527 -0.09161308 0.019841967
0000a0 0f fa 43 3d be 0a a7 3d 73 1a 6a 3d ed f3 30 be
       0.047845896 0.08156346 0.05715413 -0.1728055
0000b0 e4 45 46 be 5f f4 2d be 9a d1 9e be 66 47 98 be
       -0.19362599 -0.16987751 -0.31019288 -0.29741973
0000c0 03 e2 03 be db 5d 44 be ec b3 00 be f8 70 ce bd
       -0.12879185 -0.19176428 -0.12568635 -0.10080141
0000d0 b4 b0 04 be 42 fb 82 3c 63 3a ee bc 21 73 25 bd
       -0.12958032 0.01598895 -0.029080575 -0.040393
0000e0 10 12 31 3e 15 fe 8d bd 00 90 c3 3d bb 05 ca bd
       0.17292047 -0.06933228 0.0954895 -0.09864374
0000f0 b9 7a 14 3d 21 3c a4 3d 94 c9 b3 3d 63 f5 6e 3d
       0.03624985 0.08019281 0.08778682 0.058339488
000100 c0 00 c8 3c 7b 8c f0 bd f4 d3 69 bc 2f ba e7 bd
       0.02441442 -0.117455445 -0.014271725 -0.113148086
000110 73 b4 19 bd 44 08 db bd e1 c6 32 bd 49 9c 1d be
       -0.037525605 -0.10694936 -0.043646697 -0.1539165
000120 90 04 d3 bd 9f 78 81 bd 98 9e 8a bd c7 16 9d 3d
       -0.103036046 -0.06321835 -0.067685306 0.0767036
000130 2f 70 02 3d 4c 22 21 bc 15 a4 7d bd f1 7f 57 3d
       0.031845268 -0.009834837 -0.06192406 0.05261225
000140 ba 84 e9 3d e3 fb 5b bd 3e f0 59 bd 42 de 22 3d
       0.11402269 -0.053707015 -0.05320763 0.039762743
000150 e3 f3 ac bd bd bf 06 bd 83 62 91 bd 07 66 97 bc
       -0.08444955 -0.0328977 -0.07098868 -0.018481268
000160 3d 62 2d 3e cd 4a 19 bd bf 8f 56 be fd 89 8c 3d
       0.16932006 -0.03742485 -0.20953272 0.06862257
000170 3d b6 e4 bd ff 39 17 3e 18 13 f5 3b d7 5b 96 bc
       -0.11167572 0.14768218 0.007479083 -0.01835434
000180 39 5f d3 3d 07 45 60 be f0 77 22 3d 10 c7 1c 3d
       0.10320897 -0.21901332 0.039665163 0.03827578
000190 4c 83 12 3e 5d f6 9f be 75 0d 82 3e 39 70 6c 3d
       0.14307898 -0.31242648 0.25400892 0.05772421
0001a0 09 d7 28 bd 91 26 c1 bd 7e 9c f5 bc c7 4e 2c 3e
       -0.0412207 -0.09431184 -0.029981848 0.16826926
0001b0 77 e2 2e be c1 dc 27 3b e5 5c e2 bc ef f7 8a 3e
       -0.17078577 0.0025613757 -0.027632186 0.27142283
0001c0 34 a2 97 3e 9d be 42 3e d3 d4 6a be 2a 4c 54 3e
       0.2961594 0.19018026 -0.22932748 0.2073218
0001d0 77 32 0c 3e dd a9 c7 bd 26 22 ea bd 26 d8 50 be
       0.13691126 -0.09749196 -0.114322945 -0.20394954
0001e0 11 80 0f be d6 11 d4 bd d8 c2 78 bd be 14 25 be
       -0.14013697 -0.103549644 -0.060732692 -0.16121194
0001f0 70 be 7d be 92 17 20 be a6 46 b1 bd 53 d2 2d be
       -0.24779677 -0.15633991 -0.08656053 -0.16974764
000200 21 a3 90 3d 5b 4c 77 3c 0e 52 2a bd ee 16 66 bd
       0.07062364 0.015093888 -0.04158216 -0.05617421
000210 23 3e 64 3e d0 e8 cb 3d d4 33 0d 3e 86 2d 67 bd
       0.22289328 0.09956515 0.13789302 -0.0564399
000220 54 10 80 bc 58 c8 32 bd ee 17 75 3d 33 6a 79 3d
       -0.015632786 -0.043648094 0.059837274 0.060892295
000230 4b 73 4f 3c 70 96 01 be a9 fc 9c bd 5d e9 83 bc
       0.012661765 -0.12655044 -0.076653786 -0.016102487
000240 85 9b 98 bd 89 e5 b0 bd 4e 16 b6 bc f3 52 c5 3d
       -0.07451538 -0.0863753 -0.022227433 0.09634962
000250 f4 4e af bb 20 fe 4e 3d c3 ab 9f bd a5 cf 97 3d
       -0.005349988 0.05053532 -0.07796433 0.07412652
000260 5d 54 a5 3c 51 9d 23 be 3b 5d 6f bd 79 07 49 bd
       0.02018183 -0.1597798 -0.05843852 -0.049079392
000270 60 a6 a3 bc 48 52 09 bc a2 e0 5a bd 8d 0f e2 bd
       -0.019976795 -0.008381434 -0.053436883 -0.11038122
000280 c5 21 78 3d f7 0e b1 bc 57 db 8b 3c d9 55 2b bd
       0.06057908 -0.021613581 0.017072363 -0.041829918
000290 a3 d3 8d be 98 be d3 3c 7c 8d 51 be 95 f0 0f 3e
       -0.27700529 0.025847718 -0.20464128 0.14056619
0002a0 30 48 03 be 01 d2 03 be 39 a2 40 3e 02 b6 e2 bc
       -0.12820506 -0.12873079 0.18811883 -0.027674679
0002b0 cc fd 06 be 0d 85 b2 3d 21 39 32 3e e1 5b 9e be
       -0.13182753 0.08716784 0.17404605 -0.30929473
0002c0 8a 85 a0 3e a6 98 b5 3d d3 74 14 be 3c c6 3e bd
       0.31351882 0.08867006 -0.1449769 -0.04657577
0002d0 73 df c0 3d 39 4d 28 3e 53 be 00 be 29 9d 33 3c
       0.094176196 0.16435708 -0.12572603 0.010962763
0002e0 c5 14 96 3d 49 d6 72 3e 0a 96 8b 3e ee a4 84 3d
       0.0732818 0.23714556 0.27262908 0.0647677
0002f0 da 76 6b bd 80 9e 83 3e 20 1f 90 3e d4 a9 2c bd
       -0.057486393 0.25706863 0.28148746 -0.04215415
000300 7b 0b 81 be 63 87 41 be 39 00 94 be 85 7d ee bd
       -0.2520407 -0.18899302 -0.2890642 -0.11645035
000310 39 68 99 bd 65 88 93 bc 06 45 58 be d5 95 7e 3c
       -0.07490582 -0.018009374 -0.2112008 0.015538652
000320 73 4a c5 bd e1 43 4e 3d 39 39 1f 3d cf 28 87 bd
       -0.09633341 0.050357703 0.03887293 -0.065995805
000330 10 65 2a 3e 62 22 38 3d 91 2b 2f 3e 20 0c fc 3c
       0.16640115 0.044954665 0.17106463 0.0307675
000340 64 5d 59 bd 2c 89 6a bd 01 24 9a bd 83 ae a9 3d
       -0.05306758 -0.057259724 -0.075263985 0.082852386
000350 36 7c 8c 3d 34 08 93 bd 73 f1 a4 bd 68 ec c9 bd
       0.06859629 -0.07179299 -0.08053865 -0.09859544
000360 e7 ca d0 3d 08 c3 fe bd f7 a5 9c 3d 30 27 e6 bd
       0.101949506 -0.12439543 0.07648843 -0.11237943
000370 93 d4 88 bc 34 f3 18 3d 95 e3 c5 bd 63 a9 1a bd
       -0.016702926 0.03734131 -0.096625485 -0.037759196
000380 74 97 f2 bc d6 bc 8a bd 92 93 99 bd de 6d 1b 3d
       -0.029613234 -0.06774299 -0.0749885 0.037946574
000390 c5 b8 19 bd a4 1c 81 3d 79 6f 98 3d d9 4c 29 ba
       -0.037529726 0.06304291 0.07443137 -0.00064582896
0003a0 0e 55 bb 3d a9 86 39 3d ef b4 01 bd 24 2f c5 bd
       0.09147082 0.045294438 -0.031666692 -0.09628132
0003b0 08 8c 49 be 2b 03 09 be ee 60 41 3e 54 b4 fe bc
       -0.19682324 -0.13380115 0.18884632 -0.031091847
0003c0 34 36 d8 3d 3c 1e 64 be ea d3 26 3e bf b0 55 bc
       0.105572134 -0.22277158 0.16291776 -0.013042628
0003d0 c1 df b4 bd 27 29 17 3e 64 0d b5 bd cf 92 9a bd
       -0.0883174 0.14761792 -0.08840445 -0.07547533
0003e0 c5 1b 3d bd 40 3d a0 3e 7b 3a 55 be 14 c2 04 bc
       -0.04616906 0.3129673 -0.2082309 -0.008102912
0003f0 14 9d af bb 9a 5d 7f bc d6 0b 99 bc 2a de 8d 3d
       -0.0053593013 -0.015586281 -0.018682402 0.0692714

Model.proj_v.weight f4 [36, 35, 1]
000000 50 4b 03 be ff f4 f4 bd 41 6b b4 3d 26 d4 23 bc
       -0.12821698 -0.11960792 0.088095196 -0.009999311
000010 a0 63 e9 3d 0f ff 9b 3d 57 36 55 3b 63 4b 1d bc
       0.11395955 0.07617008 0.003253361 -0.009600493
000020 b2 c5 92 3c 76 a8 06 be 79 ef e8 39 60 ad d6 3d
       0.017916534 -0.131502 0.0004442891 0.104822874
000030 e3 bf a9 bd 82 28 ef 3d 79 3f 25 3e 56 5f 41 3c
       -0.082885526 0.11677648 0.16137494 0.011802515
000040 74 6b 94 bc 22 98 a8 3d 2c 85 8c bd bf 2e 03 be
       -0.018117644 0.08232142 -0.06861338 -0.12810801
000050 fc d5 02 3c 27 43 73 3d fb fc 1d be 49 fd 3f 3c
       0.007985588 0.059390213 -0.15428536 0.011718103
000060 6e 89 f8 3d c8 97 23 3d 30 99 d4 bd 12 92 fc bc
       0.12135588 0.03993967 -0.10380781 -0.03083137
000070 e2 5f 53 3c 87 fc d2 3d d9 25 43 3e d7 8c 29 be
       0.012901278 0.10302072 0.19057406 -0.16557632
000080 42 14 ae 3d d2 5b 9a 3d 15 5e b0 bb 11 e5 80 bd
       0.084999576 0.075370446 -0.005382309 -0.06293691
000090 eb 80 88 3b 12 15 ff bd 6f 11 69 bc bb 23 14 bd
       0.004165759 -0.12455191 -0.014225348 -0.036166888
0000a0 7a 91 b9 3c 2b 7e 4d be b7 19 cd bd 4d 22 01 be
       0.022652376 -0.2006766 -0.1001467 -0.12610741
0000b0 40 81 7b 3e 72 c0 e4 bb ca da 0c 3e 12 28 23 be
       0.24561024 -0.006980949 0.13755336 -0.15933254
0000c0 cf a7 fe 3c 22 72 05 be 46 20 a8 3d 19 fe cb bd
       0.031085877 -0.1303182 0.08209281 -0.09960575
0000d0 c8 f6 7a bb 4e a8 13 3e 08 42 0f bd eb 3c 0f be
       -0.0038294066 0.14419672 -0.03497508 -0.13988082
0000e0 bb 46 85 3d 86 55 0f 3e 86 9b a0 3d 96 82 86 3c
       0.065076314 0.13997468 0.07842164 0.01641969
0000f0 81 b2 c2 3c 2e fc 3d 3e 2c df ee 3b 04 45 aa bd
       0.023766758 0.1855323 0.0072897878 -0.08313945
000100 cf ff 95 3a f5 95 3f 38 f3 13 ca 3d 08 5c a3 3d
       0.0011444035 4.5677607e-05 0.09867086 0.07976538
000110 92 3a a0 3d 49 31 20 3e 59 0b 10 3e e3 68 fa bd
       0.078236714 0.15643801 0.14066829 -0.12227037
000120 73 27 9a bc a0 48 10 3d 4c 64 74 bd 33 40 1c bd
       -0.018817639 0.03522551 -0.059665963 -0.038147163
000130 34 45 09 3e 21 5e d1 3d 9c 57 ac 3d 1e 84 87 3d
       0.13405305 0.10223032 0.08415148 0.06616996
000140 f8 5b e2 bd d1 33 14 bd 08 34 1c 3d b7 ff c7 3c
       -0.11052698 -0.03618223 0.03813556 0.024413927
000150 9e 25 49 3d b0 a0 c5 bd 25 de e0 3d ab 39 da 3d
       0.04910814 -0.09649789 0.10979871 0.106555305
000160 7c b6 ca 3d 61 8c b4 3c 1d bd 9e 3d f0 92 f5 bc
       0.098980874 0.022039594 0.07750914 -0.029977292
000170 bf 5c bd 3d 9c 01 a2 bd d8 4a b9 3c 70 7b c1 3d
       0.092462055 -0.07910463 0.022618696 0.09447372
000180 71 19 d4 bb c9 e2 8f bd 87 11 de bd 7f fe e5 3d
       -0.0064727594 -0.07025678 -0.10843187 0.11230182
000190 43 47 21 bd bc 36 a6 3c 14 b3 10 be 0e 27 ac bc
       -0.0393746 0.020289771 -0.14130813 -0.021014716
0001a0 44 4e 32 be da e4 88 bc 04 61 df bd ec 11 a8 bd
       -0.17412668 -0.016710687 -0.10907176 -0.08206543
0001b0 d1 29 d3 bd 8f e3 e0 3d 20 74 6a bd da 4f c6 3d
       -0.1031071 0.10980903 -0.05723965 0.09683199
0001c0 a3 06 2e bd bd 39 42 3c d3 be a2 3d ca be 36 bc
       -0.042486798 0.011854586 0.07946553 -0.011153886
0001d0 7f c4 0e 3e 42 42 89 bd dc cb 48 be f1 0b 0e 3e
       0.13942145 -0.06702091 -0.19609016 0.13871743
0001e0 1b 8a 2f 3e 12 97 1a be 8f 9c 04 3e 0b db 01 bb
       0.17142527 -0.15096691 0.12950347 -0.0019814398
0001f0 6f d4 ff bd 0f f8 ef 3d f2 9c 28 3e 59 cb f0 bc
       -0.1249169 0.11717235 0.1646612 -0.029393839
000200 8c a7 25 be 25 75 3d be 65 6f 9f bd 2d 49 1e be
       -0.16177195 -0.18501718 -0.07784919 -0.15457602
000210 72 73 27 3d f8 8a 01 bc e6 61 9d 3d 6d 2c f0 3c
       0.04088158 -0.007906668 0.07684688 0.029318059
000220 67 09 b7 bb da e5 dd 3b da 9b 3a 3e cf b5 c0 bd
       -0.0055858376 0.006771785 0.18223515 -0.09409677
000230 8e 7a e0 bd 25 cd b9 bd 13 a7 80 bd 02 70 12 be
       -0.109608755 -0.09072331 -0.06281867 -0.1430054
000240 fb 24 ca bd c0 00 09 be 07 39 05 3d e9 85 dd 3d
       -0.09870335 -0.13379192 0.03252509 0.10816557
000250 37 39 34 3e 15 e2 6d be 23 e6 4a bb 22 42 57 3d
       0.1759995 -0.23230775 -0.0030959926 0.052553304
000260 66 78 3d 3d 72 a2 f6 3c 65 51 3d 3e fb e5 90 bc
       0.0462574 0.030106757 0.18488081 -0.017687788
000270 8d ac ff bd eb 6d 20 bd 6d fc 50 3e 84 9b e1 bd
       -0.12484083 -0.039167326 0.20408793 -0.110159904
000280 c6 e2 01 be bc 58 80 3d eb ab 90 bc 11 32 09 3e
       -0.12684163 0.06266925 -0.017660102 0.13398005
000290 42 3f 1e bd 83 45 6f bd 63 4e 6f be c4 dc de 3b
       -0.038634546 -0.0584159 -0.23369746 0.0068012197
0002a0 49 aa 88 3d 36 fa 8a 3d 68 78 59 3e e6 44 95 3d
       0.06673104 0.06786005 0.21237338 0.07288532
0002b0 55 93 ac bc b6 31 e3 bd f5 d8 c2 3d 8c 4e 96 bc
       -0.021066347 -0.11093466 0.095140375 -0.018348001
0002c0 0d a8 92 3d 0b f0 69 bc 5f 82 4b 3e c0 53 c1 3d
       0.071609594 -0.014278422 0.19873951 0.09439802
0002d0 2a 61 2d 3c b4 8c 09 bc 7d 2a 6f be 34 b5 46 3d
       0.010582248 -0.008395363 -0.23356052 0.048512653
0002e0 91 32 00 3e 4a 0d ce bd fe 93 b4 3d 13 cc 4a be
       0.1251929 -0.100611284 0.0881729 -0.1980441
0002f0 12 12 35 be 59 67 16 3e 7b 01 c9 3d 10 68 b2 3c
       -0.17682675 0.14687862 0.098147355 0.021778136
000300 34 b6 3d be 3e 48 d6 3d 69 dc 2e be 51 40 c4 3d
       -0.18526536 0.10462998 -0.17076267 0.0958258
000310 90 d9 01 be 41 b7 32 be 0d 8e 4f bd 71 8f f9 bd
       -0.1268065 -0.17452718 -0.05067258 -0.121855624
000320 82 9c 7b 3c 4f 70 1f 3e 8b 39 87 3d 5b 66 17 3e
       0.015357139 0.15570186 0.06602772 0.1478514
000330 35 88 a5 bd 04 98 c5 bd 79 89 c1 3d 07 33 ae 3d
       -0.0808262 -0.09648135 0.09450049 0.085058264
000340 98 95 19 be 4c b4 24 be 65 6f 75 3c 69 0d a9 3c
       -0.14998472 -0.16084403 0.014980172 0.020636277
000350 9e 1a d5 bd 0f 2d 03 3d 95 65 01 3d 7a ba 08 be
       -0.104054675 0.032025393 0.031591017 -0.13352385
000360 68 b3 a7 bd 11 ad 26 3e 28 c6 a4 3d e0 b6 4c be
       -0.08188516 0.16276957 0.08045608 -0.19991636
000370 58 f7 a5 bd f2 6c 88 3d 67 5a 74 bd 16 1e 27 3c
       -0.08103818 0.06661405 -0.059656527 0.010200044
000380 94 24 25 3e 8f 01 27 3e 30 38 20 be a0 e6 f5 38
       0.16127235 0.16309188 -0.15646434 0.000117254676
000390 62 e6 07 be 5b 9e 60 3e 4f e5 85 bc 7e 00 dd bb
       -0.13271478 0.21935408 -0.016344694 -0.0067444434
0003a0 03 1f 20 3e 1e 40 21 be 0d bd 84 bd bb be 91 bd
       0.1563683 -0.15747115 -0.06481371 -0.07116457
0003b0 07 4a a7 bd a8 f9 16 bd 24 4a 26 3d f0 b7 76 3d
       -0.081684165 -0.036859185 0.04059805 0.06023401
0003c0 87 cf 44 be ba 8a 08 be aa 52 38 be 31 7e e6 3d
       -0.1921979 -0.1333417 -0.18000284 0.11254538
0003d0 2d b1 a5 3d 73 45 25 bd f5 1d e2 bd 3b 18 3d 3c
       0.08090434 -0.040349435 -0.1104087 0.0115414215
0003e0 72 85 28 be 88 10 8d 3d a9 8a 93 3d 27 38 10 3e
       -0.16457155 0.06887919 0.07204182 0.1408392
0003f0 6d ee 4b 3e f5 c9 dc bd fa 94 11 3e ee d3 d0 3d
       0.19915171 -0.10780708 0.14216986 0.101966724

Model.forward_l.seq.1.layers.0.self_attn.in_proj_weight f4 [108, 36]
000000 65 51 9e bd f1 3d 92 3e 2b 21 3d 3e 93 b1 02 3d
       -0.077303685 0.28562883 0.18469684 0.03190763
000010 65 2e 09 3e 31 8f 27 3e 17 cf 26 3c 1b 14 68 bd
       0.13396604 0.16363217 0.01018121 -0.0566598
000020 eb bc 0e 3e 32 92 5f 3e ec dc 54 3d 67 8c 59 be
       0.13939254 0.21833113 0.0519685 -0.21244965
000030 c8 db 1b be e1 04 43 bd ea dc f2 bd b6 b0 33 3e
       -0.15220559 -0.047612075 -0.11858542 0.17547879
000040 0f ce de 3d 65 7e 85 3d 70 5c a7 3e 0a eb 30 be
       0.10879146 0.065182485 0.32687712 -0.1727716
000050 90 de d3 bd 34 84 12 3c 64 42 bc 3b d2 81 10 be
       -0.10345185 0.0089426525 0.005745219 -0.14112023
000060 c6 43 13 3c 01 b3 7a bd db 8d 13 3e 4c 61 ac 3b
       0.008988326 -0.061205868 0.14409582 0.005260622
000070 15 ce 49 be 40 e0 04 bd f1 0f b4 3c 66 2d 4c be
       -0.1970752 -0.032440424 0.021980258 -0.19939193
000080 7f 11 20 be e0 0a 00 bd d7 0d 88 3e b2 10 a1 bd
       -0.15631674 -0.03126037 0.2657306 -0.078645125
000090 63 92 23 bd 36 a2 e4 3c 4b e2 62 3e 97 60 31 3e
       -0.039934527 0.02790938 0.22156636 0.17322002
0000a0 83 b3 c0 bd 6a a3 be bd 98 0c ae bb 0c d9 ac bc
       -0.09409239 -0.093085125 -0.00531156 -0.02109959
0000b0 5c 25 e7 3d de 47 1e be 23 2b 2f 3e a1 d7 11 be
       0.112864226 -0.15457103 0.17106299 -0.14242412
0000c0 f8 07 4f be ac ed 23 3e a2 3b ac bb d0 6c dd bd
       -0.20217884 0.16008633 -0.005256132 -0.1081177
0000d0 09 60 25 3e 91 35 d9 bc 2a 34 60 be 0c bf 65 3e
       0.16149916 -0.0265148 -0.21894899 0.2243616
0000e0 ee a3 08 be 52 a3 0e be 96 a4 10 be 6a 1a 32 3e
       -0.13343784 -0.1392949 -0.14125285 0.17392889
0000f0 80 dc 19 3d a3 52 f4 3d af 04 70 3e e6 9b dd 3d
       0.0375638 0.11929824 0.23439287 0.10820751
000100 0f 32 4f 3e 54 88 af 3d 7d a8 3a 3e af bc 35 be
       0.2023394 0.085709244 0.18228336 -0.17747758
000110 1e 1b 5d 3d 3c 65 87 bd 68 69 6d 3d 2a 28 52 be
       0.05398094 -0.06611106 0.05796185 -0.20523134
000120 d5 49 f1 bd 8f 89 13 3d e8 8f e0 3c 17 fc 4c 3d
       -0.117816605 0.036019858 0.02741237 0.0500451
000130 e0 ec 9f 3d a3 eb 33 bd e9 4b df bd b9 da 03 3e
       0.07808852 -0.043925893 -0.109031506 0.12876405
000140 d8 82 3b be 1b 97 bd bd 44 ba 21 be 68 4d 32 be
       -0.18311632 -0.09257337 -0.15793711 -0.1741234
000150 74 7e 37 be 8a aa 58 3e 81 fc f3 3d 9d fe 00 be
       -0.17919332 0.21158805 0.11913396 -0.12597127
000160 71 04 fc bd c2 4a fe 3c a2 98 72 be 3a 5b 5d bd
       -0.12305535 0.031041507 -0.23691037 -0.05404208
000170 0a 53 92 bd 20 95 26 bd 4d 48 2d 3d 2d 33 8a 3d
       -0.07144745 -0.04066956 0.04230528 0.06748042
000180 93 fc bb 3d ea 92 03 be 6b 1c 90 bd 6f db 27 3e
       0.09179034 -0.12849012 -0.0703667 0.16392301
000190 ea 1e 5f 3e c9 e6 4d be fc 53 58 3e 24 95 8e 3c
       0.21789137 -0.20107569 0.21125787 0.0174051
0001a0 cf 92 0a 3e d1 71 2b 3e 80 5d 07 3e 8c 58 07 bd
       0.13532566 0.16742636 0.13219261 -0.03304343
0001b0 fe 28 35 bd 8a eb 3a bd f6 bc 47 3e 52 bd 91 3d
       -0.044228546 -0.045634784 0.19505677 0.07116188
0001c0 65 a0 07 be 80 1a a8 bd 4d d6 76 bd 5e b6 09 3e
       -0.1324478 -0.082081795 -0.060262967 0.13448474
0001d0 a1 13 e4 3d 29 41 a1 bd 45 9a 3d 3e 8e b8 e8 3d
       0.111365564 -0.078737564 0.1851588 0.11363326
0001e0 af ed fb 3c 22 87 35 3e 1d 3d 5a be 4b 47 00 3d
       0.030752985 0.1772733 -0.21312375 0.03131799
0001f0 7c 2d 7f 3d a0 b0 8c 3d d9 da 7b 3e d4 12 3f be
       0.062299237 0.06869626 0.24595203 -0.18659526
000200 26 84 b2 bb 8a 48 ef 3c 50 1b 17 3e 1c 12 b9 bd
       -0.005447882 0.029209394 0.14756513 -0.09036657
000210 1b 52 a0 3d 02 f1 ad bc 79 e8 37 3d f4 77 27 be
       0.078281604 -0.021233086 0.044899438 -0.16354352
000220 0a 77 e3 3c 4d ea 60 3e 1e da 36 bd f9 33 e0 bb
       0.027766723 0.21964379 -0.044641607 -0.006842133
000230 f2 28 8a 3c 72 e8 af 3d 40 16 41 3e 47 69 91 3c
       0.016865227 0.08589257 0.18856144 0.017750395
000240 57 fe 0f bd f0 ac f6 bd c0 0d d9 bd 87 25 cd bd
       -0.035154667 -0.12044704 -0.10598326 -0.100169234
000250 36 f8 44 3e 14 0c 93 bd 09 95 2d 3e 41 3e 1e 3e
       0.1923531 -0.07180038 0.16951384 0.15453435
000260 8d 78 fe ba 6d 97 8c bd e5 21 16 be a3 cc d9 bc
       -0.0019414589 -0.0686482 -0.14661367 -0.026586836
000270 4d 86 06 be c6 f7 d4 3c c6 69 09 3d de 92 8a 3e
       -0.13137169 0.025997054 0.03354814 0.27065176
000280 a1 cc 72 bd ae 81 49 be b9 dd 91 3d 1c 29 9b 3d
       -0.05927718 -0.19678375 0.07122368 0.075762
000290 56 22 02 bd 50 47 0f bc 69 d5 28 3e 33 9e 5d bd
       -0.031771027 -0.00874503 0.1648766 -0.05410595
0002a0 bb 9b b9 bd ad 8e b8 3c ce ad 20 3e a3 2a 4a 3e
       -0.09062906 0.02252897 0.15691301 0.19742827
0002b0 4c fc 42 3e b7 67 15 be e3 19 ef bd 4e d5 03 3e
       0.19041556 -0.14590345 -0.116748594 0.12874338
0002c0 ab 1a 05 3e 63 3d c1 3d 8e 55 11 be aa b9 0e 3e
       0.12998454 0.09435537 -0.14192793 0.13938013
0002d0 6a 22 c3 3d 1b 2a 08 3e 82 33 03 3d 3a b6 ec 3d
       0.09528048 0.13297312 0.032031544 0.115581945
0002e0 5e e2 65 be 37 e7 2f be 92 72 8c bd dd 84 8c 3e
       -0.22449633 -0.17178045 -0.0685779 0.27445117
0002f0 13 6d a4 3d 9a 63 6b be 69 3a bb 3d c5 de 0c 3e
       0.08028617 -0.22987214 0.09142 0.13756855
000300 91 62 79 be c2 f4 97 bc 8f 97 ca bc 14 da 34 3e
       -0.24354006 -0.018549327 -0.024730472 0.17661315
000310 0a d6 90 3c 02 9d 86 3d 5b 97 32 be 0a 56 fb 3d
       0.017680187 0.065729156 -0.1744055 0.1227227
000320 7c b2 92 3d 2d a7 2b be 68 d6 a3 3d 99 e3 07 3e
       0.071629494 -0.16762991 0.07999879 0.13270415
000330 da f3 d0 3a 6a eb 68 3d cb 75 db bd e8 23 9d 3d
       0.0015941814 0.056865133 -0.107158266 0.07672864
000340 38 c7 81 3e 2b 46 48 3d 8d cf 0e be a7 18 2f 3d
       0.25347304 0.048895042 -0.13946362 0.04274812
000350 c3 e0 1f 3e 63 42 5b 3e 0d 6d 94 be 57 ee 0d bd
       0.15613084 0.21412043 -0.2898945 -0.034651127
000360 9c 4b 49 be cb 2f b8 bd 2b 7b 84 bd c1 06 0b be
       -0.19657749 -0.08993491 -0.06468805 -0.13576795
000370 bd 39 60 be 4e 80 78 be c8 e8 09 3d db 61 9c 3e
       -0.21897025 -0.24267694 0.033669263 0.30543408
000380 4e ae ce bd 92 85 37 be 02 21 d9 bd d2 89 42 be
       -0.1009184 -0.17922047 -0.10601999 -0.18997887
000390 70 29 30 3e 39 a4 7c 3e 83 b8 21 be 3a bd e2 3d
       0.17203307 0.24672021 -0.15793042 0.11071248
0003a0 be 8a e1 3d 54 65 33 3e d2 4a 56 be 49 37 51 3e
       0.11012791 0.17519122 -0.20926979 0.20431246
0003b0 b7 c4 01 3d a8 90 f3 bd 5e ff 6d bd 9e bd c2 bc
       0.031681743 -0.11892825 -0.058104865 -0.023772057
0003c0 01 b7 85 3c 50 58 dd bb 0c fe 67 3e ca b4 18 be
       0.016322615 -0.0067549124 0.22655505 -0.14912716
0003d0 7f 75 03 3d e7 98 13 bd 1c 00 66 3e 51 9d 53 3e
       0.032094475 -0.03603449 0.22460979 0.2066548
0003e0 aa c3 19 be 67 27 c1 3c 7a 5a 8f be d0 1d 2f bd
       -0.15016046 0.023578359 -0.27998716 -0.04275304
0003f0 1b 04 a5 bb 4e 5b 85 bd bb d7 33 3e ad 59 0e be
       -0.00503589 -0.065115556 0.17562763 -0.13901396

Model.forward_l.seq.1.layers.0.self_attn.in_proj_bias f4 [108]
000000 ef 33 6a 3d d5 2a 01 bd c0 a0 4c bd 0e 21 08 3d
       0.057178434 -0.03153499 -0.04995799 0.03323465
000010 3b 9a 03 bd 4e 77 b7 bc fd 73 92 bd 46 75 85 3d
       -0.032129508 -0.022395756 -0.07151029 0.06516509
000020 ba f9 77 bd 83 58 c3 bd e3 21 98 bd d0 b4 e1 3b
       -0.060540892 -0.09538367 -0.074283384 0.0068880096
000030 e0 d3 b7 bd f2 b9 aa bc 0d 88 80 bd 75 9e 0e 3c
       -0.08975959 -0.020840619 -0.062759496 0.008704771
000040 e0 e0 f7 3c 97 2b 60 bd 08 2c 8a 3b 36 ef 55 bc
       0.030258596 -0.05472907 0.0042166747 -0.013057521
000050 2e a6 12 3d 9b 45 f9 3c 8e 59 4c bd a3 6a cf ba
       0.035803013 0.030428698 -0.049890094 -0.0015824627
000060 58 9d 43 3d 10 a1 28 3d 42 ce ef bc f6 5b 91 bc
       0.047757477 0.041169226 -0.029273156 -0.017744046
000070 af 52 86 3c ae db 7b bc b0 84 14 bd be 48 7c 3c
       0.016396848 -0.0153722 -0.036259353 0.015398202
000080 2d 51 b4 3c c9 f8 3d bc be 39 76 bc d0 81 60 bb
       0.022011364 -0.01159496 -0.015028415 -0.0034257062
000090 8a 2d 36 bd b4 fa 58 bc 28 c8 08 3c fc 0f 22 bc
       -0.044477023 -0.013243366 0.008348502 -0.009891506
0000a0 3b 69 25 3d 43 fd 19 3d 23 86 a4 bc 99 92 2d 3c
       0.04038356 0.037595045 -0.020083493 0.010594034
0000b0 58 54 16 ba 99 cb 0a bd 0b dc 28 bd 5c b7 33 3c
       -0.0005734614 -0.033885572 -0.041225474 0.010969009
0000c0 c7 26 29 bd e1 54 96 3c 34 b0 14 3b 5e cf 8a bc
       -0.041296747 0.01835102 0.0022688033 -0.016944584
0000d0 3b b3 bf bc d0 20 ab bb ea 3e 9f bc 66 5b d3 bb
       -0.023400893 -0.0052224174 -0.01943918 -0.0064501045
0000e0 e4 82 be 3b d2 cc a3 bb fb e2 fb bc d4 01 4d 3b
       0.005813943 -0.0049987817 -0.030747881 0.0031281607
0000f0 ad 56 1c bc 52 42 ae bc 96 47 bd 3c b5 a7 57 3c
       -0.0095421495 -0.021271858 0.023105424 0.013162543
000100 fa 42 4e 3a 25 b0 80 bc 92 a0 4b bc e9 6c 2c bd
       0.00078682567 -0.015708992 -0.01242842 -0.042096052
000110 c8 39 bf 3b c2 f7 f0 bc 6e 57 76 3b 7e 63 b0 bc
       0.0058357455 -0.029415015 0.0037588733 -0.021531817
000120 d7 67 0b bb 3c da 07 3c f2 4b 88 bb 09 f7 b3 bc
       -0.002127161 0.008291777 -0.004159444 -0.021968381
000130 41 48 1e 3c c6 78 b0 3b 87 5a 91 bc 01 fc 6a 3c
       0.009660781 0.005385491 -0.017743362 0.014342309
000140 66 83 02 bc 03 8d 60 3c 6a e3 a0 bc b2 cf a1 bb
       -0.007965898 0.013705495 -0.01963969 -0.0049380893
000150 cd 14 9a 3b de 6b 49 bc 1c 53 88 3c a0 5a 84 3b
       0.0047021867 -0.012293784 0.016641192 0.0040391237
000160 65 a1 4f bb 92 69 bd 3c db de 81 3b 5d 42 bd 3b
       -0.0031681892 0.023121629 0.003963334 0.0057757334
000170 cc 03 87 3c 0e fd d3 ba 6b 20 44 bb 8b 36 f3 bb
       0.016481303 -0.0016173439 -0.002992655 -0.0074222735
000180 83 9c 9f 3c b6 57 d1 3a 92 7c 29 3c 01 16 d1 3c
       0.01948381 0.0015971574 0.010344641 0.025523188
000190 88 31 a6 bc df d6 b2 bb d8 f0 2a bb ad 09 8f bc
       -0.02028729 -0.0054577435 -0.0026083495 -0.017460668
0001a0 1d fe 2e bc 60 88 dc bb 5b a2 c6 bc 8f 59 39 3b
       -0.0106807025 -0.0067301244 -0.024247339 0.002828214

Model.forward_l.seq.1.layers.0.self_attn.out_proj.weight f4 [36, 36]
000000 22 36 c8 3d 7f c1 13 be 3d bc 34 3e 1c 39 82 be
       0.0977595 -0.14429282 0.17649932 -0.25434196
000010 2c 2c ee 3d 8d bf 5b 3e 38 c0 1c 3e 1d a5 f7 bd
       0.11629519 0.2145979 0.153077 -0.1209204
000020 fc 63 2c 3e fb b8 47 3e 92 6a 0b be 8a ec bb bc
       0.16835016 0.19504158 -0.13614872 -0.022939939
000030 6c 5c 1a bd d8 0b 75 3d 67 ee 3c 3e 2f 5f 72 3e
       -0.037685797 0.05982575 0.18450318 0.23669122
000040 14 17 90 bd 4e 08 19 3d c9 e9 2b 3e 60 db 91 be
       -0.07035652 0.037361436 0.167884 -0.28487682
000050 79 db d8 bd 2d d0 d8 3d 21 c2 3b 3c 35 ec 49 be
       -0.10588736 0.105865814 0.011459858 -0.19719012
000060 58 ce 98 bc 63 5b 47 3e 5c 01 88 3e 26 e1 77 3e
       -0.01865308 0.19468455 0.26563537 0.24206981
000070 47 21 89 3e 2a cf ad bd 5d d9 12 be 3f 7b 8e be
       0.267832 -0.08486779 -0.1434073 -0.27828404
000080 34 3c 82 3e 83 e1 24 be f5 ed 5c be 18 7f 68 3e
       0.25436556 -0.16101651 -0.21575148 0.22704732
000090 a3 15 92 3e 51 15 10 be 7c e7 87 3c 89 1e c7 bc
       0.28532133 -0.14070632 0.016589873 -0.024306552
0000a0 aa 92 a7 3d 96 95 c0 3d fd 17 08 3e f4 f4 ce bd
       0.08182271 0.09403531 0.13290401 -0.10105315
0000b0 f5 6f 7b be 73 35 a1 3d a7 47 aa 3d 4d e2 77 be
       -0.24554427 0.07871523 0.08314448 -0.2420742
0000c0 ab d0 f1 3d 8c 8d 1e be b8 c3 11 bb 99 8d 2d be
       0.118073784 -0.15483683 -0.0022241902 -0.16948546
0000d0 4f f3 3f 3e 90 ad c2 bd a4 ba e5 3d aa d0 f4 bc
       0.18745159 -0.09505761 0.112172395 -0.029884655
0000e0 5b 1d 9d bd a3 ef 26 be 8c 6a df 3d 6c 54 4b 3e
       -0.07671615 -0.16302352 0.10908994 0.19856423
0000f0 e2 3c e9 3d 3b c3 5e 3d 6d 2c 12 3e 4f ad 8e 3e
       0.113885656 0.054385405 0.1427476 0.278666
000100 06 6c 41 3e d1 92 85 3c 36 09 4a be a3 96 e0 3c
       0.18888864 0.01630536 -0.19730076 0.02741558
000110 5e e9 d7 3d ee 02 66 3e bd 42 90 3d 6c 21 69 be
       0.10542558 0.22462055 0.07043979 -0.22766656
000120 13 76 99 3c 66 1d 91 bd 37 54 fb 3d 09 64 a9 3e
       0.01873306 -0.070856854 0.12271922 0.33084133
000130 27 8d 7b 39 c5 f8 fd bc b6 e9 17 3e 52 3e 0e be
       0.00023989809 -0.031002412 0.14835247 -0.13890961
000140 a6 d1 f0 bd dc eb f5 bd bc 4e 5f be 01 98 3d bd
       -0.11758737 -0.12007877 -0.21807379 -0.04628754
000150 fe b0 43 be f1 53 df ba 42 63 0e be 02 cb 6a 3c
       -0.19110486 -0.0017038566 -0.13905051 0.014330627
000160 8f 03 6c 3d a5 7a 0e be 11 cb 3f 3e 14 bf 2d 3d
       0.05762058 -0.13913973 0.18729807 0.042418554
000170 d3 09 0a be 05 f5 68 be 01 b3 25 bd ee 41 be bd
       -0.1348031 -0.22749718 -0.040453915 -0.09289919
000180 53 86 7d be ba 13 41 3d 92 03 33 bc 95 79 fe bd
       -0.24758272 0.047137953 -0.010926144 -0.12425534
000190 5e e6 16 3e b5 38 ab 3c 83 69 f5 3d 8c 5e 5d 3e
       0.14736316 0.020901063 0.119830154 0.21618098
0001a0 1f 92 ce 3d 1c b8 03 be 2d ee 05 3c bb fc 44 bd
       0.10086464 -0.12863201 0.008174461 -0.048092585
0001b0 99 5e 68 bd 5c 34 c2 bb 7a ef a7 bd 9e 34 4f 3e
       -0.05673084 -0.005926652 -0.081999734 0.20234916
0001c0 dc ca 73 3e 2e 78 5e be 47 56 83 be 42 ed f9 3d
       0.23807853 -0.21725532 -0.25651762 0.122034565
0001d0 d9 72 8b be a8 8c c7 bd ae 84 dd 3d 72 65 4b 3d
       -0.2723606 -0.09743625 0.10816322 0.049657293
0001e0 2e ed ba 3b 39 7f 9f 3e bb ba 5f be b4 b3 51 be
       0.0057045436 0.3115175 -0.21848576 -0.20478708
0001f0 80 03 83 3e 26 84 8a be 86 48 81 be bb 08 aa 3c
       0.25588608 -0.27053946 -0.25250643 0.020756116
000200 6c 7c 0e 3e 49 53 81 bd 91 b6 7b 3e b1 98 76 be
       0.1391465 -0.063147135 0.24581362 -0.24081685
000210 be db 82 be 52 e2 10 be 9b 9d 9c bd ae 2b 32 be
       -0.25558275 -0.14148834 -0.07647248 -0.17399475
000220 46 58 97 3e 55 64 60 bd 59 c0 e6 bd 5e c9 06 bd
       0.29559535 -0.054783184 -0.11267156 -0.032906882
000230 88 ea be bd b7 eb 8f 3e bc fb a7 3d 48 82 87 be
       -0.09322077 0.28109524 0.082023114 -0.26466584
000240 07 60 f5 3d bf 01 55 be e7 7a 11 be e9 99 a0 bd
       0.119812064 -0.20801447 -0.1420704 -0.07841856
000250 ae 2d 76 3e 38 ce bc bd c7 f3 73 be 7e df ef bd
       0.24040863 -0.092190206 -0.23823462 -0.117125496
000260 9d 27 40 be 45 12 3f 3e f1 94 b7 3d dd 89 31 be
       -0.18765111 0.18659313 0.08963955 -0.17337747
000270 5f 7f b9 3d 35 ad 48 3e d4 97 1d 3d 2c db 84 be
       0.09057497 0.19597323 0.038474873 -0.25948465
000280 05 51 39 3e 70 ce 9c 3e 75 66 17 be 8d 66 e8 bd
       0.18097313 0.3062625 -0.14785178 -0.11347685
000290 12 59 7e 3e 73 b1 81 be d6 d1 2c 3e 7c 21 89 be
       0.24838665 -0.25330696 0.16876921 -0.2678336
0002a0 8a 5f 3f be 49 9a 96 be 7a a2 8f bc f3 01 3e be
       -0.18688789 -0.29414585 -0.01753353 -0.18555431
0002b0 1a 40 75 be 37 2e 0c 3e 97 84 fa bd f3 8c ad bd
       -0.23950234 0.13689505 -0.12232321 -0.084741496
0002c0 2a d9 ae 3d 1b 0d 85 3d 79 ab 9c be cb bf 9a 3d
       0.085375145 0.0649664 -0.30599573 0.07556113
0002d0 7f 7d 05 bd 1a c8 04 be 59 e1 b2 3d 56 f8 68 3e
       -0.032590386 -0.12966958 0.08734388 0.22750983
0002e0 7e 0e 80 be f2 96 4d be 07 67 03 3d 6f f1 42 be
       -0.25011057 -0.20077112 0.032080676 -0.19037412
0002f0 b7 80 46 3e f8 15 43 3e d1 87 35 3e c0 8e 23 be
       0.19385038 0.19051349 0.17727591 -0.15972424
000300 ad 55 32 be 9a b8 01 3e 3b b8 6a 3e 6b ee 9f be
       -0.17415495 0.12668076 0.22921841 -0.31236586
000310 92 74 0f be e2 4d 8f be ba d2 4b bc f1 45 5a be
       -0.14009312 -0.27989107 -0.012440378 -0.21315743
000320 fe c8 20 be d0 b9 8e 3d 21 4f 55 be 8b 2d 9a 3d
       -0.15701672 0.06969035 -0.20830967 0.07528218
000330 20 c7 74 be 0c bd 04 3d f8 5b f3 3c 60 71 74 bd
       -0.23904085 0.03240685 0.02970694 -0.059678435
000340 40 94 72 be bb 61 79 ba f3 e3 36 3e cf e8 8c 3e
       -0.23689365 -0.0009513159 0.17860393 0.2752137
000350 6b 37 6f 3e 41 c8 13 3e 1e 7a 6a 3e 42 45 4e be
       0.23360984 0.1443186 0.22898147 -0.20143607
000360 ff fb 4a 3e 9c 32 6c 3e 5b 67 97 be 30 17 fb 3d
       0.19822691 0.23066181 -0.2957104 0.12260282
000370 c6 fe 2a be 39 26 94 be b4 a1 4c 3e 8e f2 54 3e
       -0.16698751 -0.28935412 0.1998356 0.20795652
000380 98 a6 26 3e bc 13 47 3e 9d 03 6b be 00 1c b9 3d
       0.16274488 0.19441122 -0.22950597 0.09038544
000390 0a 85 22 bd 48 e2 7a bd e4 cb c4 3a 21 44 e2 bd
       -0.039677657 -0.061250955 0.0015014377 -0.11048151
0003a0 9b 65 4a 3d 23 18 c5 3d f0 23 16 be ea c0 5f 3e
       0.049413305 0.09623744 -0.14662147 0.21850935
0003b0 a5 e7 8f bb 2b c8 15 3e 4f a9 0f 3e 9d d8 6b 3e
       -0.004391628 0.1462714 0.1402943 0.2303185
0003c0 d8 f7 91 3d 4e 76 43 3d e3 14 75 3d ee bc 80 3d
       0.071273506 0.047720246 0.059834372 0.062860355
0003d0 51 12 5a 3e 6b e1 b8 bd c7 77 95 39 ee 40 3d 3e
       0.2129605 -0.0902737 0.00028508736 0.184818
0003e0 b6 1b e4 3d 2a b0 c9 3d 2c 5d 83 3e c8 5e 5b 3d
       0.11138098 0.09848054 0.25657022 0.053557187
0003f0 9e 57 81 3e 54 bf f0 bd 4c d8 23 3e 86 95 36 be
       0.2526216 -0.11755243 0.1600048 -0.17830476

Model.forward_l.seq.1.layers.0.self_attn.out_proj.bias f4 [36]
000000 f8 f0 43 3c 9f 06 db ba 3e fe 4d bd 9d ee 05 bd
       0.011959307 -0.0016710347 -0.050291292 -0.032698262
000010 03 38 00 3d 5f 41 a7 bc 25 59 76 bc b4 7b 95 bc
       0.031303417 -0.020416914 -0.015035902 -0.018247463
000020 63 57 9b bc eb 3c 62 3c 5b 9c cb 3c 78 fc 04 3c
       -0.018962568 0.013808469 0.02485483 0.008116834
000030 e1 18 ee 3b 7e d2 55 bc 80 a4 3d bc db 86 66 bb
       0.0072661494 -0.0130506735 -0.011574864 -0.0035175595
000040 6a 91 d8 3b b2 c5 86 3c 54 69 89 bc 2a 9c 24 bc
       0.0066091316 0.01645169 -0.016773857 -0.010046998
000050 7e 67 a0 3c a7 00 55 bb c3 5b 0c bc 7b 4f c9 bb
       0.019580599 -0.003250161 -0.0085668 -0.006143508
000060 5b aa 16 bd e3 92 85 bc 09 87 99 3c fe 0b ca 3c
       -0.036783557 -0.016305393 0.018741148 0.024663921
000070 df 70 43 3c c3 1c c1 3c 4c 31 fb 3b 08 66 4b 3c
       0.011928766 0.023573285 0.0076657888 0.012414463
000080 22 62 cc bc 67 9f 0a bb 6e df d5 3b 05 78 be 3c
       -0.024949137 -0.002115214 0.006526879 0.02325059

Model.forward_l.seq.1.layers.0.fc1.weight f4 [144, 36]
000000 fd b2 e8 bb 5a 7b c2 3c 67 ed 0c be cb 68 db 3b
       -0.007101415 0.02374046 -0.13762437 0.006695842
000010 7d 73 1b 3d 39 f2 18 3e eb 45 1e be ee 1b 1b 3e
       0.037951935 0.1493615 -0.15456359 0.15147373
000020 ec 44 08 bd 4a c0 e0 bd 53 1b cd bd 73 20 cc 3d
       -0.033268854 -0.10974176 -0.10014977 0.09967127
000030 29 b2 29 be ed 3e 1e 3e 41 c9 cf 3d 33 32 94 3d
       -0.16571869 0.15453692 0.10145808 0.07236137
000040 c4 bf 01 bd c2 fc fa 3d 0b 61 2a be 05 12 84 bd
       -0.031677023 0.12255241 -0.16638581 -0.064487495
000050 b0 d4 5b 3e a5 bd db 3c c7 c5 01 3d be af aa 3b
       0.21467853 0.026823828 0.031682756 0.0052089384
000060 59 a3 45 bd b8 2d b6 3d 87 e0 69 3c 4a d6 db 3d
       -0.048251484 0.08895439 0.014274723 0.10734232
000070 36 15 da bd 79 96 b9 bd da 4a 1b be 69 e2 7a 3d
       -0.10648577 -0.090619035 -0.15165272 0.061251078
000080 f9 76 0a 3e 7d d0 1d be 03 26 ed 3d 6c 51 19 3e
       0.13521947 -0.15411563 0.11579516 0.14972466
000090 35 80 12 bd 74 d4 e8 bd 42 b2 63 3c fc 04 eb bd
       -0.0357668 -0.11368647 0.01389748 -0.1147556
0000a0 f4 dd 3b bd ae de 16 3d 28 79 86 bd a1 d7 1a be
       -0.045865968 0.036833458 -0.065660775 -0.15121318
0000b0 80 93 1c bd 71 d7 af bc 67 03 ab bc 3e 83 b7 bd
       -0.038226604 -0.021465035 -0.020875646 -0.08960579
0000c0 e3 12 19 3e 3b 66 43 3e e4 05 85 bd 53 69 41 be
       0.14948611 0.19081967 -0.06495264 -0.18887834
0000d0 a5 b1 22 3e 16 8b 59 3e d7 2c 71 bd 53 0b 83 3d
       0.15888079 0.21244463 -0.058880653 0.06398644
0000e0 11 d9 6c 3d 27 72 f5 bd 94 ed 4c bd ec 89 1e be
       0.0578242 -0.119846635 -0.05003126 -0.154823
0000f0 ae 5f 9c bd 78 24 2b be 62 bd 38 3c 9e 4f 85 3d
       -0.07635437 -0.1671313 0.011275621 0.065093264
000100 4a e9 72 bd c2 ab a5 bc 3a 26 1b be f6 db 04 be
       -0.059304513 -0.020223502 -0.15151301 -0.12974533
000110 df 78 0b 3d e3 c6 28 be 3d 44 81 3c 4c c1 9f bd
       0.03405082 -0.1648212 0.015779609 -0.0780054
000120 2d 85 07 bd 5b 4d 79 3d a8 06 23 be 4b 21 b7 ba
       -0.03308599 0.060864788 -0.15920508 -0.0013971714
000130 68 b2 1c 3d 97 95 14 3d 2a 1b 09 be 97 f5 56 3d
       0.03825608 0.036275472 -0.13389269 0.052480306
000140 86 32 6b bc be bd 4f 3d cc 31 fb 3a 2e c1 5f bc
       -0.014355307 0.05071806 0.0019164621 -0.0136568975
000150 d7 6d 10 be b6 c1 47 bd ea 8f 05 be dd 03 d0 3d
       -0.141044 -0.04876872 -0.1304318 0.10156987
000160 c7 9b d1 bd 0e f8 70 bd 2e 1b 8c 3c 45 e0 17 3e
       -0.1023479 -0.058830313 0.017102804 0.14831646
000170 e5 7f d7 bd d2 02 8a bd 4f 38 0c 3e 4f 75 a1 ba
       -0.10522441 -0.06738819 0.13693355 -0.0012318286
000180 04 70 15 3c b5 9e 0c 3e f3 bd 3e 3e 71 c5 c6 3c
       0.009120945 0.13732417 0.18627147 0.02426407
000190 8b 7d cb bd 51 ec 2a be 74 a3 d6 bd 30 11 39 3d
       -0.09936055 -0.1669171 -0.10480395 0.045182407
0001a0 e7 66 09 3e 71 4e ec bd c2 ac ea 3b d6 9d ee bd
       0.1341816 -0.11538399 0.0071617076 -0.116511986
0001b0 af 6e 21 bd d0 c4 74 3c 87 8c a4 3c b7 45 47 bd
       -0.039412197 0.014939502 0.02008654 -0.04865047
0001c0 af 92 02 be 1e 55 4a 3e a1 3d a0 bd eb 20 17 3e
       -0.12751268 0.19759032 -0.07824255 0.14758651
0001d0 3f ee 66 3d b7 df 5f 3c 57 1c 8d bc 2c a3 bb 3d
       0.056379553 0.013664178 -0.017225428 0.09161982
0001e0 9a f6 05 be 75 6c 3d be 04 7e 0d 3e 5b 25 fe bd
       -0.13082352 -0.18498404 0.13817602 -0.12409469
0001f0 2e 1d 85 3b 39 36 0c 3e a1 b2 5c bd f0 6a 1d be
       0.0040623164 0.1369256 -0.05388129 -0.15372825
000200 fe 50 c3 3c 19 ca bd 3c 61 e8 0e 3e 09 e6 48 be
       0.023842331 0.023167657 0.13955833 -0.19619001
000210 08 15 70 3d 01 b1 b6 bd 2d a5 cf bd e0 2c 2b bd
       0.058613807 -0.089204796 -0.10138927 -0.041790843
000220 c0 bd 18 be 39 92 19 3e d1 39 8b bc e9 ea 11 be
       -0.14916134 0.14997186 -0.016995342 -0.14249767
000230 82 75 22 be 31 f5 e3 bd 59 15 15 3d 1b 8d 28 be
       -0.15865138 -0.11130751 0.03639731 -0.16460077
000240 55 c1 a9 bc ea 24 95 3b 29 0d 3a be 53 b9 33 3d
       -0.02072207 0.0045515196 -0.18169083 0.04387791
000250 2a 34 98 3d c0 e8 e1 3c f1 76 c6 bd 44 48 46 3e
       0.074318245 0.027576804 -0.09690655 0.19363505
000260 69 ef 1f 3d f5 e0 7a 3d f8 79 2d 3e 81 4e 23 be
       0.03904668 0.061249692 0.16941059 -0.15947916
000270 4f 0f 0e 3e 60 8a cc 3d 90 6b 6e bd 65 4c 44 3d
       0.13873027 0.099873304 -0.05820805 0.047924418
000280 a5 53 af 3d db 7b b5 3c 42 46 ec bd 0a 35 0b be
       0.08560876 0.022153785 -0.11536838 -0.13594452
000290 0b 73 07 be ef 7b 32 be fd d5 2b bd b2 9f d3 3c
       -0.13227479 -0.1743009 -0.041952122 0.025832985
0002a0 7c 62 b0 3c 11 85 21 3d e1 63 de bd de 24 cd bd
       0.021531336 0.039433543 -0.10858894 -0.100167975
0002b0 9e 85 24 3d df c2 cc 3c f8 14 3e 3e 85 0e 05 3e
       0.04016649 0.024995266 0.18562686 0.1299382
0002c0 02 06 96 3d 80 74 e3 3d 91 1c 3f 3e 4d 64 b1 3d
       0.07325365 0.11106205 0.18663241 0.08661709
0002d0 ce 68 0a be c5 22 3e 3d ef e1 b6 bd 8a 2b 22 3e
       -0.13516542 0.046419878 -0.08929812 0.15836921
0002e0 82 da e3 bd 76 d7 09 be 4c b0 45 bd 9b 67 2c bc
       -0.111256614 -0.13461098 -0.048263833 -0.010522748
0002f0 a1 ad cd 3d b7 a7 99 3c 13 29 d8 3d 7b 48 c7 bd
       0.10042883 0.01875673 0.10554709 -0.097306214
000300 4f 6e 19 3e 80 be b8 3d 00 90 5c bc 84 26 6d bd
       0.14983486 0.0902071 -0.013462067 -0.05789806
000310 c9 22 79 3b 0c dc 1c 3e 53 7c ef 3d 74 58 be bd
       0.0038015118 0.15318316 0.11693635 -0.09294215
000320 0c d0 24 be ce 63 e4 3d de 7b d9 bd fe a8 49 bd
       -0.16094989 0.11151849 -0.10619329 -0.04923343
000330 21 89 a7 bd fe 00 0c be 4b b0 9f 3d 3e a6 06 be
       -0.08180452 -0.13672253 0.07797297 -0.13149354
000340 36 f8 1e 3e fa bb ed bd 9d 9e 67 bd e0 1c 2a be
       0.15524372 -0.11608119 -0.05654775 -0.16612577
000350 c2 98 82 bc 20 c2 c3 3c 89 fa a8 bd 94 24 44 be
       -0.015941981 0.023896277 -0.08250911 -0.19154578
000360 54 81 b8 3d 2f d5 1c be 0a c0 5a bd 2e 14 bb bd
       0.090090424 -0.15315698 -0.0534058 -0.09134708
000370 8c 85 87 bd 77 7f f1 3d a4 59 9f bc b8 e9 28 3e
       -0.06617269 0.1179189 -0.019451924 0.16495407
000380 72 1a 81 bd 90 a2 ec bd 64 25 35 3e d3 ed 64 3d
       -0.06303872 -0.11554444 0.17690045 0.05589087
000390 18 ac 64 3d 74 96 93 bd 99 66 c2 bb 1e 92 1d be
       0.055828184 -0.07206431 -0.0059326407 -0.1538777
0003a0 54 63 18 be 15 30 07 be b3 e9 a7 3a f4 09 0d 3e
       -0.1488164 -0.13201936 0.0012810737 0.13773328
0003b0 4d bd a4 3d 5c 47 f2 3d 72 d6 bd 3d a5 a0 aa bd
       0.08043919 0.11830017 0.09269418 -0.08331422
0003c0 b9 a6 90 3c 06 a9 e0 3d 86 d4 8a bd ec d3 b7 bd
       0.017657625 0.10969739 -0.06778817 -0.08975968
0003d0 69 30 d8 3c 8e 6f 0a be 47 20 01 bd e5 8d 28 3c
       0.026390271 -0.13519117 -0.031524923 0.010287737
0003e0 23 94 c4 3c 8e 37 5c 3c 9f b4 88 bd 24 fb 26 3d
       0.023996418 0.01344098 -0.06675076 0.04076685
0003f0 b2 1e 0b 3e e4 0b 0d 3e cc f1 fc 3d a0 b1 fe 3c
       0.13585928 0.13774067 0.123508066 0.031090558
